models/model_3.pth (torch, 577485 bytes, 8 tensors)

net.0.weight f4 [256, 394]
00000000: aa7f 61bc 7b6c 8d3d 502c 073d 1587 a83d
00000010: 723f 3f3d d2e4 293d cc2c 853d 9fc4 df3c
00000020: 503b 573d 2000 de3d a923 363c 615a 523d
00000030: 77ce 933b 1121 9e3d ba6c 8b3d 9b1d d63c
00000040: 28e2 acbd 4647 25bd 439d 603d f193 f1bc
00000050: c3f8 78bd 40ba f23c cc4c b0bc 3b6a 83bd
00000060: 15a9 c63d fd92 733d 2aef debc 7aee 29bd
00000070: f173 543d dd99 763d 0472 7d3d ff48 27bd
00000080: 667a a9bc 2250 6a3c ba5d 243d 62c7 af3c
00000090: f35e b43d 1be6 723d b7be a5bd f775 473d
000000a0: 1cb9 a5bc 2185 4c3c 2731 95bc 1635 993c
000000b0: 8323 59bc 1b8f 78bd 2d94 993d bc01 b63c
000000c0: 9fc3 b43c 628d e0bc 8396 a5bc faae 0c3e
000000d0: eee1 063d 7ee3 1abd 30f4 0fbd efa6 623c
000000e0: 6641 0bbd 1840 9abc 9828 a73d 55a3 d13c
000000f0: 5ed3 84bc e9cd e33c 0092 93bd 222f abbc
00000100: 7fd6 22bd 23b3 fbbc 23db 453d afba 923d
00000110: 2fc0 afbb fb2f 59bd 822d 8cbd 6bd8 863d
00000120: dc14 643d 2249 33bc 2159 b03d 76ff 6a3c
00000130: 06e8 463d 9c28 073d d665 ea3c b83f bc3d
00000140: d865 89bc 2e58 033d 84a4 35bc 2a79 0bbd
00000150: 5fc6 0cbd d890 c33d f49f 983d c128 1ebc
00000160: f140 3a3d fef8 393c 8217 983d 3dc8 2c3d
00000170: d7de 983c 25ac 023a 2706 213d a279 c5bc
00000180: 82bf 5c3d 3e91 5dbd d0f4 8b3d 63ad b6ba
00000190: fd8e aa3d 5859 20bd 657a 9dbc b021 28bc
000001a0: 20b3 d3bc d3e4 903d ef0b 223d ac21 b6bc
000001b0: b771 36bd 3e49 de3c ee29 92bc 3201 bdbc
000001c0: 9912 953d 18e1 febc 6a74 01bd 1ebc 48bd
000001d0: f493 8b3d c4a5 ba3d 6f42 193b a950 293d
000001e0: b86b 7f3d f025 24be f9dd 993d fd51 cbbc
000001f0: 68d5 6bbd fdca 42bd d296 173d 87be ab3c
00000200: 7ec6 b33c 8130 7e3d 0450 103c e876 c7bc
00000210: 282e 6d3d 91ab bebd 149d 61bd 524f cd3b
00000220: 6eec d33c a740 31bd 4f90 c8bb 5259 93bd
00000230: bb51 953d 7098 c8bc 5536 4dbc de27 31bc
00000240: 0692 223d a4c4 943c af79 703d 2914 7dbc
00000250: 7633 26bd 2605 9c3d fb33 b4bd 673e 1b3d
00000260: 8c88 85bc d9a4 9b3d d4bd 81bc e050 06bd
00000270: d97d 33bd 42f7 8dbd 29c3 813d 30c3 053d
00000280: 3269 94bc c5de 8f3c 5552 e8bc bc2e 7a3d
00000290: 2cde cd3b 0fe9 c5bd 9212 0abc 85a8 063d
000002a0: f948 bcbc 0225 be3d ecaa f0bc 76e7 093e
000002b0: 0ded 13bd b44a 01bd ba59 a83d 33e8 a63c
000002c0: 6e63 b63d 9815 f13d a45a 6b3d edf2 6cbc
000002d0: 2cd1 0ebd bee9 223d ffc8 fd3c bd71 993c
000002e0: 9060 2d3d ad30 2c3d b843 47bd 41e1 29bb
000002f0: 8d36 d23c 6612 bebc 6f2e 2bbc 8061 47bd
00000300: ef40 73bd 57f4 47bd 5aca 69bd 3793 10bd
00000310: 4918 b9bd 8134 173d b2b9 44bd c162 0bbd
00000320: 25b7 f8bc 03d8 fc3b 18c2 ad3c de8c 083d
00000330: 83e4 86bc 87cb c93d 082c 2c3d b76e 273d
00000340: e35e b9bc 2ed4 a63d 9163 1ebc 510d 023c
00000350: d4df 273d 6dd8 17bd e58f cc3d 23d7 b23d
00000360: b13c 853d 3ee9 5fbc 8020 5e3b 7b3f 783d
00000370: 9ae6 dfbc 716b 42bd 6000 ca3d b82e 813d
00000380: 9ddd e53c bc98 c9bc 8126 563d 893a f7bc
00000390: 5320 8e3d 1e74 26bc 2d52 1abc ede2 b83c
000003a0: e1b2 7b3b 1be7 d6bc 85cb ba3d 424e 7fbd
000003b0: 86c8 69bb 894b 4b3c aef6 babc 68d2 81bd
000003c0: 3bb2 023d 4db2 6bbd db98 2fbd 3cc1 a3bc
000003d0: 7f24 2fbd 245e eebc 2f2d f4bc ea79 093d
000003e0: 46a8 1d3d cee5 79bd 5829 e43b c227 b03d
000003f0: 49ec 37bd 5a91 093c 2db5 6e3d 91ca a13d
-0.013763348 0.06905457 0.033001244 0.0822889 0.046691366 0.041477986 0.06502685 0.027315436
0.0525468 0.108398676 0.0111169005 0.051355723 0.0045106965 0.07721151 0.06807847 0.026137164
-0.084415734 -0.040351175 0.054837476 -0.02948949 -0.060784113 0.029629827 -0.021520995 -0.06416746
0.097002186 0.05946635 -0.027213652 -0.041487195 0.051868383 0.06020533 0.061876312 -0.0408411
-0.020688247 0.014301332 0.040128447 0.021457378 0.088071726 0.059301477 -0.080930166 0.048696484
-0.020229869 0.012482912 -0.018211914 0.018702071 -0.013253096 -0.06068335 0.074989654 0.022217624
0.022065936 -0.027411167 -0.020213371 0.13738623 0.032930307 -0.03781461 -0.035144985 0.013833745
-0.033997916 -0.01882939 0.081620395 0.025590578 -0.016214069 0.027808147 -0.07205582 -0.020896498
-0.03975534 -0.030725067 0.04830469 0.07164513 -0.0053634862 -0.053024273 -0.068446174 0.06584247
0.055683956 -0.010942729 0.0861075 0.014343133 0.04856112 0.032997712 0.028613012 0.09191841
-0.016772196 0.032066517 -0.011086587 -0.034051098 -0.03436887 0.09549111 0.07452384 -0.009653271
0.04547209 0.011350868 0.07426359 0.04218315 0.018660946 0.0004984758 0.039312508 -0.02410585
0.053893574 -0.054093592 0.06833804 -0.0013937171 0.08328054 -0.039147705 -0.019223401 -0.010261938
-0.02584225 0.07074895 0.039562162 -0.022232853 -0.04454204 0.027134534 -0.01784226 -0.023071859
0.07278938 -0.031113192 -0.03160516 -0.049007528 0.06815329 0.091136485 0.0023385545 0.04133669
0.062358588 -0.16030097 0.07513041 -0.024819368 -0.057576567 -0.047556866 0.037009068 0.020964874
0.021945234 0.062057976 0.00880814 -0.024348691 0.057905346 -0.093100674 -0.055081442 0.0062655592
0.025869574 -0.043274548 -0.0061207185 -0.07194771 0.072909795 -0.02448675 -0.012525161 -0.010812728
0.03969004 0.018160172 0.058709797 -0.015446701 -0.04057642 0.076181695 -0.08798977 0.03790131
-0.016300462 0.075998016 -0.015837587 -0.032791972 -0.04382119 -0.06931926 0.06336052 0.03265685
-0.018116567 0.01756228 -0.028359571 0.061079726 0.0062825885 -0.09663593 -0.008427279 0.032875556
-0.022984015 0.092844024 -0.029378377 0.13467202 -0.03611474 -0.031565383 0.08220239 0.020374393
0.089056835 0.11771697 0.05745949 -0.014462215 -0.03486745 0.039773695 0.030979631 0.018730992
0.042328417 0.04203861 -0.048648566 -0.0025921615 0.025660777 -0.023202132 -0.010448082 -0.048676968
-0.059388097 -0.048817005 -0.057077743 -0.035296645 -0.09037835 0.036915306 -0.048028655 -0.034029726
-0.030360768 0.0077161803 0.021210715 0.033337466 -0.016466385 0.09853273 0.04203418 0.04087707
-0.022628253 0.08145939 -0.009667293 0.007937745 0.040984944 -0.037071634 0.09988383 0.0873244
0.065057166 -0.013666449 0.0033893883 0.060607415 -0.02733164 -0.047465745 0.09863353 0.06307739
0.028059775 -0.024608962 0.052282814 -0.030179279 0.06939759 -0.01015952 -0.009419006 0.022569144
0.003840618 -0.026233247 0.091208495 -0.06233049 -0.00356725 0.012408146 -0.022822704 -0.0633896
0.031908255 -0.057543088 -0.042870384 -0.019989602 -0.042759415 -0.029097624 -0.029806701 0.033563532
0.038490556 -0.061010174 0.0069629364 0.08601333 -0.044903073 0.008396471 0.05827825 0.078999646

net.0.bias f4 [256]
00000000: e063 463d 5428 c33d 5fd3 023d c0c1 a03d
00000010: b6d4 5a3d a10d 173d 852e 033e 3b2c f43c
00000020: ab74 9d3d 441b 983d dd21 053e 0c67 5e3d
00000030: 1149 a03d 1922 bb3c cc84 ad3d c7bc 953d
00000040: 419e d43d 1476 493d be16 243d 5563 a33d
00000050: 1ed3 663d 8cf9 d03d cae4 2f3b 2b20 ca3d
00000060: 7fba 4b3d 9e1e c63c de80 a23d 1d66 f63d
00000070: 6b29 b73d 6c15 fd3c 6562 9d3d a473 b73d
00000080: ac64 063e c161 9c3d c6f6 d93d 38b6 a53d
00000090: a51c 8c3c b0bb c83d c074 623d 8277 d23c
000000a0: 8562 aa3d 080f ef3d ac24 833d 41d5 5a3d
000000b0: f842 853c 105b f73c f54d 8e3c 8cd9 a63d
000000c0: daff 083e b8e3 963d b72a 6f3d c098 3e3d
000000d0: 5097 693d 94e6 9c3d 0c19 4b3d d936 9d3d
000000e0: 610c b73d 4e06 d13d cfa6 cd3d 6b33 e33d
000000f0: 018b 1c3d a0a2 7e3d 48cb d23d 773e 973d
00000100: 3e2a b73d 0c26 9a3d b64d 863d 3d69 c73d
00000110: a9d6 803d 72cd f23d edf8 8f3d c4fc 833d
00000120: b724 313d 5f42 983d 71a4 383d e736 e93d
00000130: e610 bc3d 1013 fe3c 7773 5f3d a019 973d
00000140: 909a 153d 0848 c23d 74ef cb3d 0bc2 973d
00000150: 6b12 fd3d 72e6 ad3c 68ce b63d f50c 683d
00000160: 7daa 993d 7a03 ba3d c6b5 5d3d f7a4 b83d
00000170: 1ac6 b43d 0207 423d 7881 c53d 7441 9a3d
00000180: 7c41 ac3d 6e49 933d d668 f13d 3e69 d03d
00000190: 0065 d13d 8eec b93d d26e cb3d b0c4 e23c
000001a0: 4a26 b43d 8dde af3d 5fa3 a43d d37e c43c
000001b0: e9da de3d 02d4 803d a23e 913d e59e 123d
000001c0: c358 e13d 5d0a e23d f0ce c73d 4ce4 d13d
000001d0: 9f2f a23d a316 1c3d 61a3 153d cad1 923d
000001e0: d64d 8b3d 6ca3 a93d 2338 8d3c 4abd 0c3d
000001f0: abc8 4d3d 4aa5 ce3c d825 c53d 9631 e03d
00000200: 4fe1 703d 4902 7b3d 9a51 303c f42c 6f3c
00000210: 874f 223d 4ce2 e43d 0f8c ad3d 423e f33d
00000220: 900d 273d d3e5 db3d a589 7f3d ddf2 ae3d
00000230: 916f 9c3d 7cc6 4c3d 56a4 bc3d e04d 8f3d
00000240: 7556 4d3d 3cd4 733d 8ce9 733d c638 ef3d
00000250: 13b9 483d c7cc 763d f1ae 4f3d 22c1 d33c
00000260: fa64 2f3d b174 083d d10c 513d 5add 693d
00000270: 18b8 9e3d 54e1 6f3d 136d 003d 2625 923d
00000280: 042f c73d 4cf9 8a3d 4749 d63d c6ec 833d
00000290: a3c7 bd3d 8ae9 e73c 44e7 da3d e40e ad3d
000002a0: 8189 273d 2b91 b03d 378e 2a3d ecf1 8a3d
000002b0: 566e 6f3d 5e92 9b3c b325 c53c 9773 c03d
000002c0: 3595 6f3d 901c a23d c0b0 233d 940f 4c3d
000002d0: fe75 2c3d 42f9 5e3d 0c28 e93c 7110 ce3d
000002e0: 087d 953d d106 b83d 5e98 933d 2fd3 bf3d
000002f0: b594 f03d 0bbd bc3d 1c25 363d 5dfe de3d
00000300: 3e41 133d 8636 a43d 2f7d a53d 1567 f03c
00000310: 83b9 f93c 5161 043d d934 783d 58bd 983d
00000320: 4c19 753d 4d90 7c3d 4706 d73c 8089 553d
00000330: bdb1 d53d 205d b33d c247 b23d 8893 ff3c
00000340: 86ef e73c 6ca0 8f3d 52d3 c23d a4ea 5e3d
00000350: 2eaf 813d 56f2 b83d 97f2 923d 0ce4 033e
00000360: f5df a03d 09e6 593d 43f6 7f3d 0648 a33d
00000370: 5376 1e3d be76 a53d e4e9 393c e627 6d3d
00000380: 6c59 6d3d 2fde df3d f339 4e3d 3fed a23d
00000390: 94d7 ac3d 6edc db3d cc11 643d 5c0f 423d
000003a0: 18ba 9e3d 01bc fb3d aaca 813d b374 c43d
000003b0: e859 333d d787 bb3d 83e9 a83d 3636 a93d
000003c0: b5a6 d73d 7b0e 3c3d 4c8a 903d deb9 a33d
000003d0: 398f de3d 1719 703d 9191 ea3d 4da4 963c
000003e0: 73b7 743d 9b5a c73c af5b 693d 93a1 a83d
000003f0: 5a49 103d f8d6 073d 9b0f bd3d 4947 ae3d
0.048435092 0.09529176 0.03193986 0.07849455 0.053425513 0.036878232 0.12810715 0.029806247
0.07688268 0.074270755 0.13001199 0.054297492 0.07826436 0.022843407 0.084725946 0.07311397
0.10381747 0.049184874 0.04006075 0.079779305 0.05635368 0.10203847 0.002683925 0.09869417
0.049738403 0.024184521 0.07934736 0.12031195 0.08943447 0.030894004 0.07684783 0.089576036
0.13124341 0.076358326 0.106427714 0.08091396 0.017103503 0.098014235 0.055287123 0.025691751
0.08319572 0.11672789 0.06403479 0.05342603 0.016267285 0.03019479 0.017371157 0.081469625
0.1337885 0.07367653 0.058390345 0.046532393 0.05702907 0.07661167 0.049584433 0.07676477
0.08937908 0.10206281 0.10041582 0.110937916 0.038218502 0.06216681 0.10292679 0.07384961
0.08943604 0.07526788 0.06557791 0.097368695 0.06290943 0.11855592 0.07029901 0.064446956
0.043247905 0.07434534 0.0450787 0.11387425 0.091829106 0.03101495 0.054553475 0.073779345
0.036524355 0.09486395 0.099577814 0.07410058 0.123570286 0.021228049 0.089260876 0.05665298
0.07503221 0.09082694 0.05412843 0.090158395 0.088268474 0.047369964 0.09643835 0.075320154
0.08410928 0.0719174 0.11787574 0.10176323 0.10224342 0.09078322 0.09933247 0.027681679
0.087963656 0.0858737 0.08038973 0.023986256 0.108815975 0.06290437 0.070920244 0.035796065
0.11003258 0.11037133 0.09756267 0.10248622 0.07919239 0.038107526 0.036532763 0.0716892
0.068019554 0.082831234 0.017238682 0.034360208 0.0502402 0.0252253 0.09626359 0.10946958
0.05880862 0.061281476 0.010761643 0.01459812 0.039626624 0.11175975 0.0847398 0.11877109
0.04078442 0.10737195 0.062387127 0.08542416 0.07638467 0.049993977 0.09211032 0.06997275
0.05013128 0.059528574 0.0595489 0.116807505 0.049004626 0.060253885 0.050703947 0.025848929
0.042820908 0.03331441 0.051037613 0.057095863 0.07749957 0.0585645 0.03135402 0.07135992
0.097257644 0.06785831 0.10463195 0.06441645 0.09266593 0.028309602 0.10688642 0.08450106
0.04090262 0.086214386 0.041639533 0.06784424 0.058454834 0.018990692 0.024065828 0.09397047
0.058491904 0.07915604 0.039963484 0.049819544 0.042104714 0.05443693 0.028461479 0.1006173
0.072992384 0.08985675 0.07206796 0.09366452 0.117471136 0.092157446 0.044468984 0.1088836
0.03595089 0.08018212 0.080805175 0.029346028 0.030483967 0.03231937 0.060597274 0.074579895
0.059838578 0.061661053 0.02624811 0.052133083 0.104342915 0.087579966 0.08705093 0.031198278
0.028312456 0.0701302 0.095129624 0.05442299 0.06332241 0.09030597 0.071751766 0.12879962
0.078552164 0.053197894 0.062490713 0.07972722 0.03868706 0.08079289 0.011347268 0.05789938
0.057946607 0.1093105 0.050348233 0.07955407 0.08439556 0.10735403 0.055681035 0.04737793
0.07750338 0.12291718 0.06337483 0.09592571 0.043786913 0.09156769 0.08247664 0.08262293
0.10529844 0.045912247 0.07057628 0.07994436 0.10867161 0.058617678 0.11453546 0.018388892
0.059745263 0.024335196 0.056972202 0.08233943 0.035226204 0.033163995 0.09231492 0.0850969

net.3.weight f4 [128, 256]
00000000: aa67 d73d 7ffb 783c 8c6d c2bd f709 5d3d
00000010: 7f82 d23d d07e 703d 1d35 033c 12c9 063e
00000020: e704 85bd efd3 773d 8532 b9bc 35fc b83d
00000030: 5c0f 723d b96c e13d 420d 28bd 106a 2dbe
00000040: 9a67 df3d 668c 373c b442 613d 0ead 2fbd
00000050: e8e2 913b 35cf 75bd 7a83 603d 005d 63bd
00000060: 7bf5 6dbd d476 473d d3bb bf3d 3494 973c
00000070: 0904 933c fba5 6b3d f2f9 d53c 0bd6 aa3d
00000080: 3c5a 94bd 221d 5dbc c465 adbb b92a e93d
00000090: 5941 003d 3fc9 883d f997 3c3d 6585 b73d
000000a0: cd04 563d 11e0 8dbd a18c d7bc 21af f7bc
000000b0: 59fe 1e3e dab3 bfbd bc96 debc 57ec 0cbd
000000c0: 178c 533d 0db2 b4bc 5162 14bd ad70 7bbc
000000d0: 5014 0b3d 328a bd3d 997e b03d 3b7a 92bd
000000e0: 1738 413a 46e3 eebb 60f6 64bd dd9d 063e
000000f0: d078 de3c aff9 4abd 7ba9 873d 9234 94bd
00000100: 84b9 263e 4d44 d23d db52 523d 4f2c 83bd
00000110: 523f 253d bb55 07bd 556e f63d bd6c f23d
00000120: 510d 3b3c 9bc3 a73d b2b9 333d 30ee 66bc
00000130: bda9 87bd 2f69 db3d 0612 3a3d 5fcf 53bb
00000140: eb81 df3d ffc5 bb3d ee96 20bd 5dc6 23bd
00000150: 4e67 463d cbb9 753c 7866 b53d 6f42 993c
00000160: a9af b4bd d7de 58bd 2720 c43d 37c9 5abd
00000170: 435c dc3d 4acf 773d 9ec8 acbd 2e29 f9bd
00000180: af40 8fbd 3c4c bbbd acdf c83d acfa a3bd
00000190: e518 dbbd 6c69 7e3d f906 87bd 4253 a13d
000001a0: ac22 133d 0554 e2bc 4823 ed3d 6528 70bd
000001b0: 3681 0bbe d6e5 26bd adef cf3d 235c e0bd
000001c0: 6dca d9bc 33d1 a1bc b272 053c 06cf 03be
000001d0: 81fd 943c cc0e 0c3e d332 c53d 3385 033e
000001e0: 930e 0d3d c3c4 03bd 746f 8d3d 2271 a63d
000001f0: 089c de3d 46c1 c4bc 494a 933d 5032 36bd
00000200: c291 003d e83c 063c 6b83 4c3d a130 a03d
00000210: 7f3b a7bb 165f 423d ecfd d83d f6dd 663d
00000220: c581 2cbe 7ad6 213b fc7f bebd b821 0d3d
00000230: 035d 6b3d eac8 933d ecc2 a93d 960d 953b
00000240: 62c2 3f3b c0ca 003d 3cbc 10bd 6bb2 e23c
00000250: 517a 5bbd bac0 adbd c78b 1d3d fa97 183e
00000260: 4960 5c3d 1629 683d cadf 7339 01a8 d8bd
00000270: 07ea 10be df46 41bd bf36 a93d 0dbf 773d
00000280: c581 14bd fea0 84bd a850 2a3c d548 ab3c
00000290: 89ff 33bc 92bd 9a3d bdea 3b3d befc a3bd
000002a0: 6cf9 a8bc 2166 bdbc 6216 443d e959 c43d
000002b0: 227d 0ebd c27e 043e 1eed 8a3d 8c7d 0fbe
000002c0: 1830 2e3d d5db 0f3e e985 123d f969 1f3d
000002d0: 4e08 90bc c878 a93d 3159 823d 43e8 e43b
000002e0: e4d9 693a f5b4 fa3d a7df ce3b e9bf 6c3d
000002f0: 9575 a03d cbff a53d e898 02bd d939 d6bc
00000300: c173 423d 18cf b23d d658 2fbe 8842 003e
00000310: ec78 823c f1d3 d53d 487d 58bd 3b89 663d
00000320: 66e5 a83d ab57 bebd fab4 19bd c1da ecbd
00000330: fbca f3bd 9232 113e b5db 84bd 4e7f 863d
00000340: e55f b43c a046 d73d bf19 be3c e186 113d
00000350: 4298 653d c7e2 5e3d 851f e23d c4df 0ebc
00000360: 6752 b7bd a451 42bd f044 b93c 04fd 713d
00000370: add2 ea3d 12ae a63d 26a6 d9bd 80d3 103e
00000380: 4d36 a03d 0020 9bbd b1db 1bb8 3b9d 613d
00000390: d92b ec3d a7a9 44bd 2724 d9bd 7531 943d
000003a0: f665 333d 81b3 e13d e270 acbd 669f d6bd
000003b0: f8f5 dc3d 0889 4fbd 7719 603d 3861 5bbc
000003c0: 383d 8a3c 1d6a f03c c721 63bd 5ba4 913d
000003d0: 4682 1e3d b571 89bc 9843 283d 8cbc 303e
000003e0: fd4b bcbc e417 a4bc 26f4 513d 6982 993d
000003f0: 57fe f5bc d2fd 273d 82c8 813d ac92 55bc
0.10517819 0.01519668 -0.09493551 0.05396458 0.102787964 0.058714688 0.008008269 0.1316264
-0.06495076 0.06050485 -0.022607097 0.0903248 0.05909668 0.11007065 -0.04102827 -0.16934991
0.10908432 0.011202907 0.054995254 -0.042889647 0.004452098 -0.06001206 0.054812886 -0.055508614
-0.058095437 0.048697308 0.093619965 0.018503286 0.01794626 0.05753134 0.02612016 0.08341607
-0.07243773 -0.013495715 -0.0052916724 0.11385102 0.03131232 0.0667901 0.04604337 0.0896099
0.052250672 -0.06927503 -0.026312174 -0.030234875 0.15526713 -0.09360476 -0.027171485 -0.03440508
0.051647272 -0.022057557 -0.036226574 -0.015346688 0.03395492 0.09254874 0.086178966 -0.0715222
0.0007370724 -0.0072902767 -0.055899024 0.13146158 0.027157217 -0.049554523 0.06624123 -0.072365895
0.16281706 0.102669336 0.05134855 -0.064049356 0.04034359 -0.033040743 0.12032763 0.118371464
0.011416749 0.08191606 0.043878265 -0.014094874 -0.06624172 0.107134216 0.045427345 -0.0032319648
0.10913452 0.09168624 -0.039206438 -0.039984096 0.048438363 0.01499791 0.08857435 0.018708436
-0.08822567 -0.05294689 0.09576445 -0.05341455 0.10759785 0.06050042 -0.08436702 -0.121660575
-0.06994759 -0.091454 0.09808287 -0.08006796 -0.10698108 0.062112257 -0.06593127 0.07877208
0.035921738 -0.027627954 0.11578995 -0.058632273 -0.13623509 -0.040746532 0.101531364 -0.10955074
-0.026585782 -0.019753074 0.008145021 -0.12871942 0.018187286 0.1367752 0.096288346 0.1284378
0.034437727 -0.03217007 0.069060236 0.08127047 0.10869604 -0.024017941 0.07191903 -0.044481575
0.031389005 0.008193232 0.049930017 0.07821775 -0.005103528 0.047453962 0.10595307 0.056364022
-0.16846378 0.0024694488 -0.09301755 0.034455985 0.05746175 0.07216056 0.082891315 0.0045487387
0.0029260148 0.031443357 -0.035335764 0.027672967 -0.053583447 -0.08484025 0.03846338 0.14901724
0.053802762 0.056679808 0.00023257654 -0.10578919 -0.14151774 -0.04718673 0.08262395 0.060484935
-0.03625657 -0.06476019 0.0103952065 0.020908752 -0.010986217 0.07555689 0.04587816 -0.08007191
-0.020626746 -0.023119988 0.04787291 0.095874615 -0.034787305 0.1293898 0.06783508 -0.14012736
0.042526335 0.14048703 0.035772238 0.038919423 -0.017582085 0.0827499 0.06364668 0.0069856956
0.0008920713 0.12241546 0.0063132825 0.057800207 0.07834927 0.08105429 -0.031884104 -0.02615063
0.047473673 0.08730906 -0.17123732 0.1252538 0.0159268 0.10440815 -0.052853853 0.056283217
0.08246879 -0.09294065 -0.03752611 -0.115651615 -0.1190395 0.14179447 -0.06487218 0.0656725
0.022018382 0.105115175 0.023205636 0.03552902 0.056053407 0.05441549 0.11041168 -0.008720342
-0.08951264 -0.04744114 0.02261588 0.059079185 0.114659645 0.0813867 -0.106273934 0.14143181
0.07822857 -0.07574463 -3.7159483e-05 0.055081587 0.11531801 -0.048013356 -0.10602599 0.07235996
0.04379841 0.11020566 -0.08419968 -0.104796216 0.10789102 -0.050667793 0.054711785 -0.013389878
0.016874894 0.029347474 -0.055452134 0.071114264 0.038698457 -0.016777853 0.041080087 0.17259425
-0.022985453 -0.020030923 0.05125823 0.07495577 -0.030028505 0.041013546 0.06337072 -0.013035458

net.3.bias f4 [128]
00000000: c629 9b3d 01c1 903d 83f9 aebc 7b74 b43c
00000010: 49d1 6b3d d637 a63c 586c 983c 1f38 a03d
00000020: cc4b 5abb 7875 3cbd 7858 993d c46e 9b3d
00000030: 4859 833d 290a 943d f83b 463d 0778 573d
00000040: 7a06 f83b 742d 13bc c197 c73d 7931 52bc
00000050: fded b73c 6069 4b3d 174f 0c3c a2f3 a13d
00000060: 69e0 a0bc e210 843d 9b52 533d eec6 f33c
00000070: 2d9e 25bc 82cb bf3d f5f6 ca3d 326f 713b
00000080: 3618 a43d a8db 983d 0e5f a93d 50d5 743d
00000090: 987d a23c 8cbc 06bd f330 b23d c005 953d
000000a0: f941 a23d 192e 0b3d 506c a53b 620c f13c
000000b0: 4d85 4c3d 7ef3 373d b488 bd3d 9c9f e53c
000000c0: ca62 b63d de3f 8b3b a9f9 983d 9803 693d
000000d0: 8058 a43d 9d27 bc3d 0420 a73c fe52 923d
000000e0: fbd9 953d 062c a43d 82a0 753d ed7c 45b9
000000f0: b1f6 1e3b 1f14 cc3d 2547 ab3d e747 673d
00000100: e789 b73d b8a3 483d b572 033d feff a03d
00000110: d389 613d 018f ae3d 5067 6c3d a992 3c3d
00000120: dbfd d03d a32b 293d 499e a03d 34fa 913d
00000130: 34c8 c13d 30bb a23d ae41 5cb9 82c6 54bc
00000140: 141b 51bc e3d0 3d3c ead3 af3c 056e bc3c
00000150: ffa6 3d3d 45b1 a83d 2164 1e3d 2040 bf3d
00000160: 8209 cebc b293 923d bf01 913c 7354 8e3d
00000170: 3370 753d c729 573d 0750 c23d b4b6 ad3d
00000180: cbe7 bf3b db11 31b9 1463 133c efa4 b13d
00000190: 5728 903d 5c1d 5f3d cde1 573d 23d8 763d
000001a0: 78b7 7f3d 6716 81bc 4c28 c93c f12c cf3d
000001b0: c326 1f3d b957 913c ce03 9c3d b0cf 2e3d
000001c0: 6db6 ba3c cb13 34bc 88cd 7f3d 75f7 c53c
000001d0: dee7 c93d 7643 ad3c a043 e73c cbf0 1e3c
000001e0: f19e e33c 95c9 983c cdeb 853c 5a72 bb3d
000001f0: 080e ea3c 67b6 8b3b 24f0 d73c 82f6 d93d
0.07576327 0.070680626 -0.02135921 0.022028198 0.057572637 0.020290297 0.01860635 0.07823204
-0.0033309339 -0.046010464 0.07487577 0.07589486 0.064135134 0.072285004 0.048397034 0.0526047
0.0075691314 -0.008983005 0.09745742 -0.012829178 0.022452349 0.04966104 0.008563778 0.079077974
-0.019638257 0.06448533 0.05159245 0.029757943 -0.010108513 0.09364988 0.099103846 0.003683996
0.0801243 0.07463771 0.08270083 0.059773743 0.019835278 -0.032894656 0.087007426 0.07276487
0.079227395 0.03397951 0.0050483122 0.02942485 0.049931813 0.044909947 0.0925459 0.02803021
0.08905561 0.004249557 0.07469494 0.056888193 0.080246925 0.09187243 0.020401008 0.07144736
0.07316967 0.08016209 0.059967525 -0.00018833923 0.0024255926 0.09964775 0.08363179 0.056465056
0.0896185 0.04898426 0.032091815 0.07861327 0.05506308 0.085233696 0.057715714 0.046038304
0.10204669 0.04130138 0.078426905 0.071278006 0.09462014 0.079458594 -0.00021005303 -0.012986781
-0.012762804 0.011585447 0.021463353 0.02300168 0.046301838 0.082369365 0.03866971 0.09338403
-0.025151018 0.07157077 0.017701028 0.06949701 0.059921455 0.052530076 0.0948792 0.084821135
0.0058564893 -0.00016886687 0.00899579 0.08674037 0.07038944 0.05447136 0.052705575 0.060264718
0.06243083 -0.015757753 0.024555348 0.10115994 0.038855325 0.017742025 0.07617913 0.042678535
0.022792066 -0.010991047 0.06245187 0.024165848 0.09858678 0.021150332 0.028230488 0.009700964
0.02778575 0.01865081 0.01634779 0.0915267 0.028571144 0.0042636874 0.026359625 0.10642721

net.6.weight f4 [64, 128]
00000000: 80ab bebb cdc5 e0bd 1536 66bc af1e afbd
00000010: 99f5 b73d bc1c 29be fca1 043e 1b85 1cbb
00000020: 545a eabd 480e e93c 8bf5 c2bd 64cc 413d
00000030: 4256 70bc 2560 cbbd b7b9 cd3c 182e a5bc
00000040: 962f b1bd 5b69 a93d 48bb b33d 642f c5bc
00000050: efe1 f63d 1e20 c63d 6789 043d 271e 213e
00000060: 00f5 cb3a 040b 24bc aa5a 863d 6a44 e73c
00000070: 3d1d 2bbe 9ea3 74bd 9c29 a53d f649 c23d
00000080: cf13 263e 6f4b da3d afdb ab3d 7225 063e
00000090: 6db2 af3d 027a 333d 20be 91bd 5d96 2cbd
000000a0: 59c0 983d 8415 753d 78e3 273e 9835 9fbd
000000b0: 2dfb d23c e381 a4bc 2bb6 ef3b 9f90 603e
000000c0: 4be5 2c3e 4a34 eabd 983a cb3d 4764 eebd
000000d0: 9e3d ab3d 2d4a aa3d 3b0c 21bd 8c93 c03d
000000e0: be80 c63c f91e 6dbd 4377 8f3d 1b45 703d
000000f0: 0927 44bc 90e7 6b3d 0008 31be 3b74 323e
00000100: 47f9 ea3c 5fcd 633e df96 ab3d bc85 70bd
00000110: cc31 66bd 1a9f 823d 767e a1bd 9053 21bd
00000120: 6859 193d 6af1 b63d 2c5b fc3d 6491 afbd
00000130: 5d2c d13c 2593 2e3e eada 75bc abeb df3d
00000140: d93d 943b 5c9e b63d 4cb4 373c 23b2 03be
00000150: bfce 72bc fc99 673e dc04 853d 31ac d83d
00000160: a5a7 923d 1864 813d 9c5a 033e f336 933c
00000170: 73c8 f2bd 8710 143e 9df1 9b3c cb23 12be
00000180: 7927 a4bb e1ab 1b80 b8d6 973d 763b 8dbd
00000190: b77a d93d ef50 9d3d d7e1 8e3c 0c6b a6bd
000001a0: 3ed0 5fbd 5eb6 df3d ca91 143c 28a9 aebd
000001b0: f021 4e3e 2ff7 d33d 2dce d5bd 65c6 02be
000001c0: 5855 df3c afae 9bbd eb07 c23d f506 40be
000001d0: dff1 acbc 91d4 c1bc 76d9 63bd 0380 213e
000001e0: 4f10 f13d cac2 c23c 47ed 433d 32b7 ccbb
000001f0: 0ce7 cb3d 33b4 cdbc 061b 073e 06d8 f9bc
00000200: 65d3 9b3d 142d 95bc 3edc 083e 2569 513e
00000210: b6ba 6239 8022 c2bd 76d7 963d cf8b f13d
00000220: 7cd5 80bc 1938 9b3e cccf 0abe b3db 373e
00000230: a8b1 0bbd 12fa 843d b8df 463e 60e6 1a3d
00000240: 14de d83d 938e 8fbd c602 ebbc 24dd 0b3e
00000250: f164 b53b d8a5 0a3e ab0c 93bd 5ea9 a03d
00000260: 4c14 cbbd ea86 2b3e 0706 db3d 9a2e 01bd
00000270: bf91 b5bd d454 103d c0af a43d 9d66 803d
00000280: cbfb 3dbc 8636 f13d 8bde e83d 8267 6f3d
00000290: 10d4 7b3d 95cb 133e 71b3 76bc 0a45 f8bc
000002a0: 8192 b83c 410c 48bc b1ee 873d 0f08 5abc
000002b0: 2c35 36bd 02b5 bf3d 75c6 9d3d d2cf 073e
000002c0: 3bcf d93d 27ab 6c3a a1fa d03d 9dfb ee3d
000002d0: fad7 4b3d 16c2 83bd 3868 d03d a27d b43d
000002e0: b85b 2e3d 395d 1fbd b3c6 b5bc aab6 4c3e
000002f0: 7207 513e 906c ca3c 0201 f23d d5d4 8c3d
00000300: 4238 e83d ff69 153e 0540 103e d63b d3bd
00000310: 1590 9c3c c6fe ce3c 24e9 ca3d ad07 cf3d
00000320: d104 3c3e 0167 363e d64e cf3d aa12 d7bd
00000330: 392f 223c 719e 153d 57e9 87bd f875 0bbe
00000340: 6671 1dbd d071 1e3e 76e6 89bd d711 303d
00000350: 980f b4bd 32ee 983d a3d4 d33c 03bc 123e
00000360: 92b0 0d3e d90f 90bd 9e50 17bd 60da 043d
00000370: 3b03 ee3d d324 e03d a078 ebbd f9cb 033e
00000380: c092 96bd eec6 aa00 203c eebd b3a2 993a
00000390: 6ddf 193e f69d 433c 6e44 2f3d f9d9 81bd
000003a0: 321a ff3d 63f0 363e 5869 a33d a217 a7bd
000003b0: c6bf 1a3e 7747 d1bc e756 bb3d 74f9 f53d
000003c0: eb66 c0bd 4d38 e13d a84a 293d 59f2 bb3d
000003d0: ff1f 923d 96b6 1f3d efb1 c43d fb01 1e3c
000003e0: 7dd2 353e 5547 1fbd 39b2 9f3c 7c9d eb3d
000003f0: 350b 9a3c 9521 893c 7f25 033d c74d bbbd
-0.0058187842 -0.109752275 -0.01405098 -0.08550774 0.08982391 -0.16514868 0.12952417 -0.0023883048
-0.1144301 0.028449193 -0.0951949 0.047314063 -0.014669003 -0.099304475 0.02511297 -0.02016358
-0.086516544 0.08272048 0.087759554 -0.02407045 0.12054812 0.096740946 0.0323576 0.15734158
0.0015560687 -0.010012392 0.065602615 0.028230865 -0.16710372 -0.05972635 0.08064577 0.09486763
0.16218494 0.10658919 0.08391511 0.13100222 0.08578954 0.043817528 -0.071163416 -0.042135585
0.074585624 0.059834972 0.16395366 -0.07773894 0.025754536 -0.020081466 0.0073154173 0.21930169
0.16884343 -0.114357546 0.09923285 -0.1164022 0.08361362 0.08314929 -0.039318305 0.09403142
0.024231311 -0.057890866 0.07005169 0.058659654 -0.011972197 0.057593882 -0.17288208 0.17427151
0.028683318 0.22246312 0.08378386 -0.05872129 -0.056199834 0.063780025 -0.07885449 -0.039386332
0.03743878 0.08932765 0.12322077 -0.08572653 0.02553385 0.17048319 -0.015005806 0.10933622
0.0045239744 0.089169234 0.01121242 -0.12860923 -0.0148198 0.22617334 0.064950675 0.10579718
0.07160882 0.063179195 0.12827533 0.017970538 -0.11854639 0.1445943 0.019036109 -0.14271466
-0.0050095883 -2.541217e-39 0.07414001 -0.06896107 0.10619109 0.076814525 0.017441673 -0.08125886
-0.054641955 0.10923456 0.009067962 -0.08528358 0.20130134 0.10349881 -0.104397155 -0.12770994
0.027262375 -0.076016776 0.094741665 -0.18752654 -0.021111427 -0.02366093 -0.05562731 0.15771489
0.11770689 0.023774523 0.047833707 -0.0062474245 0.09956178 -0.02511034 0.13193902 -0.030498516
0.0760868 -0.018209971 0.13365266 0.20450266 0.00021622595 -0.094792366 0.07365315 0.117942445
-0.015726797 0.30316237 -0.1355583 0.17954902 -0.034104973 0.064930096 0.1942128 0.03781736
0.10589233 -0.07009616 -0.028687846 0.13658577 0.005535715 0.13539827 -0.071801506 0.07844804
-0.09915981 0.16750684 0.10694509 -0.031538583 -0.088656895 0.03523715 0.08041334 0.06269572
-0.011595677 0.11777978 0.11370572 0.058448322 0.061481535 0.14433129 -0.015057431 -0.030306358
0.022530796 -0.012209953 0.06637324 -0.013307585 -0.044484302 0.093606964 0.07703868 0.13262871
0.10635229 0.0009028189 0.10204054 0.11669085 0.04976652 -0.06433503 0.10176128 0.08813025
0.04256794 -0.038907263 -0.022189474 0.19991556 0.20412996 0.02470997 0.118165985 0.06876532
0.11338855 0.14591216 0.14086922 -0.10314147 0.019111672 0.02526797 0.09907749 0.10108886
0.18361212 0.1781273 0.10122459 -0.10501607 0.009898954 0.036528055 -0.06636303 -0.1361922
-0.038438223 0.15473104 -0.0673341 0.042985763 -0.08792037 0.07467307 0.025858229 0.14329533
0.13836887 -0.07034273 -0.036942117 0.03243482 0.1162171 0.10944524 -0.11497617 0.12870778
-0.07352209 1.5683397e-38 -0.11632562 0.0011721462 0.15026636 0.011939516 0.04278987 -0.06340403
0.12456168 0.17865138 0.07979077 -0.081588045 0.15112218 -0.025546772 0.09147435 0.1201047
-0.0939463 0.10997067 0.041330963 0.091770835 0.07135009 0.038992487 0.09604251 0.009644027
0.17756076 -0.038886387 0.019494163 0.11504647 0.018804172 0.016739646 0.03201818 -0.09145694

net.6.bias f4 [64]
00000000: 4fde 063d 2229 e6bb 0df8 41bc 217b cb3d
00000010: 1366 063d f6fd fb3c be7c 90bc 32fc bf3d
00000020: 0e55 65bc 9e39 393d 6eb1 ad3c 9f8f 2bbd
00000030: 00dc 44bd 1e14 203c 2ab5 cdbc 01eb 9b3d
00000040: 0e86 813d dbea c03d 0176 b53d 8bc6 153d
00000050: c9a7 cbbc 820c 1a3d 4173 573a dd52 af3c
00000060: aca3 803d 170e 033e abaf 51bd 7c42 2e3d
00000070: c629 653d 14b5 e93d d0ef 91bb 1b77 933d
00000080: 898f 473d f47c a63c 0172 a63c 8cf0 a73c
00000090: 3c73 c1bb 0a58 3b3d 3919 823d fefb 89bb
000000a0: c930 ffbc 285a c03d 40f8 b03d 184a c03c
000000b0: 5110 6ebd b49c 91bc a4fa 293d f0ed 25bc
000000c0: a1e2 a03d a053 543d a6c3 003d 26bc ac3d
000000d0: 7a9c e53d 5442 ea3d c2e3 00bd 4dff 933d
000000e0: 06f1 be3d 1ef2 563d 3e96 f03c 4e2a 3c3d
000000f0: 5ea5 7cbc 01b3 2c3d 8c65 82bd 2490 a13c
0.032926854 -0.0070239464 -0.011838925 0.09935594 0.03281219 0.030760746 -0.017637607 0.09374274
-0.013997329 0.045220964 0.02120277 -0.041885015 -0.04806137 0.009770421 -0.0251108 0.07613183
0.06324397 0.09419795 0.08860398 0.0365663 -0.02486028 0.037609585 0.00082187733 0.021401817
0.06281218 0.12798344 -0.05119292 0.042543873 0.05594804 0.11411491 -0.0044536367 0.07200452
0.04872087 0.020323254 0.020318033 0.020500444 -0.0059036296 0.045738257 0.06352467 -0.004210948
-0.031151192 0.09392196 0.086411 0.02347283 -0.05812103 -0.017774917 0.041498795 -0.0101275295
0.07855726 0.051837564 0.031436585 0.08434324 0.11211486 0.11438432 -0.031467207 0.07226429
0.09323315 0.052476995 0.029368516 0.045938782 -0.015420286 0.0421629 -0.06367025 0.019722052

net.8.weight f4 [20, 64]
00000000: 7c55 41be 260a f5bd 1796 8ebb 0754 3a3e
00000010: 2e2b 75be be0c fbbd e9f2 02be 6f0a 903b
00000020: 3ec0 72be 0cba 69be ccc3 2cbe df90 883c
00000030: 85fd 1f3a 35e3 753d e5ef 1c3e 3fc6 2a3d
00000040: df07 afbd dd9e c7bd c4c0 473c ad2f eabc
00000050: 2bd1 6a3d adfc 1abe ba11 34bc d9a9 dc3d
00000060: e578 2d3e 9832 ebbd a1dd 043e b596 34be
00000070: b2d5 94bd 89a4 eabd 978d 48be f0db 94bd
00000080: f76e 293e 8870 303e d8c9 22be 5d37 093e
00000090: b40f 2a3d 478b 883d 0c11 a93c 8c71 22be
000000a0: 74a8 e63d 8d27 ed3d 20b4 173b 4b60 033e
000000b0: b9a5 b43c d765 81bc 965a 413e 3d58 413e
000000c0: ed4e 233d 83e6 b3bc d28e d2bd bc6e 31be
000000d0: 6670 5abe 0f96 b9bc ffb2 febd a41f c7bd
000000e0: c3a4 f43d 0420 1e3e 63ab f2bd 0257 0abe
000000f0: e793 68bd 33e6 453d e853 77bd c88a bb3d
00000100: 9a9b b03d c858 0e3e 2819 01be cb6a 40be
00000110: 77fe 153e 25ed a2bc c039 253e 06e0 393e
00000120: bfd8 21be 5f59 fcbd bd55 9dbd ae58 88bc
00000130: 91d1 70b7 b358 cebd 4822 85bd 7037 96bc
00000140: 39e4 21bd dc8e 0f3e 6b2f f53b cf44 22be
00000150: 2fcb 40be 91bb 87bd 9602 b4bb c6fa 713d
00000160: c5ee 82be 3022 613e 22e5 50be 0429 3c3e
00000170: 8d28 093e 6402 1dbe 180f 9c3d 5723 7b3d
00000180: 11dc 64be d7bf eabd ded8 4cbd 60f9 af3c
00000190: a5af 3bbe c3a5 3bbe 46d7 0ebe ee9b 033c
000001a0: 959a 09be 65be 873c 121e 413e fa92 823d
000001b0: f323 68be 70fe 5fbc 3e1f 80be bfa9 23be
000001c0: 5799 ed3d 9dbd 75be bd12 e03a 9acc 003e
000001d0: 0df9 dd3d 9918 05be 5512 233d 3382 613d
000001e0: 5d9e 733d ac97 bcbd d6f5 96bd c7c7 53be
000001f0: 1923 e43c b6c4 3b3d 3794 57be 83f7 273e
00000200: 9208 a63c 23a2 e53c bc06 5abe daec 0f3e
00000210: dd45 5e3e 38da 9a3d 717b d8bd 3abb 1a3e
00000220: 4bab 3abe f9db 323e 2ffb 16be e2cd 813c
00000230: 7dab 01bb d7e6 07be a3af 6fbd 1a50 16bc
00000240: 16c3 bd3d 9d73 9fbd ec61 323d 8148 343d
00000250: 62da 4fbe c4ee c7bd db77 fdbc c0b4 edbd
00000260: 43b3 223e 3b82 5f3c c9c9 bcbd a8f3 70be
00000270: 364f c83d 8bce 6ebe 109e 85bc 0e42 ce3d
00000280: 086c 343d a1ae 78be b72e cebd 0123 c8bd
00000290: 24a7 2ebe 79a0 e3bd bdfd 41bd 6c38 e1bc
000002a0: 6693 19be 48e3 09be 2e0d 963d 1738 38be
000002b0: 51ef 24bc 15c8 73bb eb27 19be 4705 f63d
000002c0: 51c6 2bbd d20e e73d caf0 0bbd 37f1 bbbd
000002d0: f609 1c3e a336 1cbd 4f6f 063e bf4b d63d
000002e0: e381 23be 7ba6 48be d938 a73d 92be 003d
000002f0: f538 6cbd 8042 e63d 1140 2f3d 7fb5 2f3c
00000300: 7553 58be 5220 563d 7371 b43d 5d36 41bd
00000310: 1b28 633d 255c bdbd fec5 0fbe 5457 853d
00000320: fd9b f0bd 5f95 043e 3991 35be e4c4 00bc
00000330: 9974 1939 2528 ee3d 9bf5 06be f292 56be
00000340: 666b a2bd 5519 7ebe 8900 7bbe 277d e03d
00000350: d784 87bc 4bc3 b6bd 4b83 adbc 9425 f3bd
00000360: 39b6 2a3e 30d8 63be 14b1 c03d 45f5 033d
00000370: 7890 e13d b42a 9ebd 9638 7cbe 5457 57bd
00000380: 6170 62bd 1f11 fe3b 9241 59be d795 87bd
00000390: d9f7 3d3e f083 eabc fc35 d23d 350f 323e
000003a0: a297 6fbc 8980 283e 284d 2bbe 2ed1 f13d
000003b0: 1ef2 123e fb65 a3bd dbb9 f43c 120f 3dbb
000003c0: b102 4b3d f783 fe3d d7f3 4e3d fe99 f4bd
000003d0: b82d 17be a03e 083e d33b 9e3d bff4 6abe
000003e0: 7467 353e 8ee3 2ebe ed1e dd3d ab96 103e
000003f0: 5ff9 ed3d 67ec dfbd 7a33 08be ec9f c5bd
-0.18880266 -0.11964826 -0.004351388 0.18196116 -0.23942253 -0.1225829 -0.12787975 0.004395775
-0.23706147 -0.22824878 -0.16871566 0.016670642 0.0006103146 0.060031135 0.15325888 0.04169297
-0.08546423 -0.09747098 0.012191955 -0.028587187 0.057328384 -0.1513545 -0.0109905545 0.10774583
0.16940649 -0.11484259 0.1297517 -0.17635615 -0.07267322 -0.11457164 -0.19585262 -0.07268512
0.16546236 0.17230427 -0.1589731 0.13400026 0.041518882 0.0666719 0.020638011 -0.15863627
0.11262599 0.11579809 0.0023148134 0.12829702 0.022051679 -0.015795631 0.18882212 0.18881316
0.03987019 -0.021960502 -0.10281147 -0.17327398 -0.21331939 -0.022654561 -0.124364845 -0.09722832
0.11945488 0.154419 -0.11849096 -0.13509753 -0.056781676 0.04831524 -0.060382754 0.0915733
0.08623429 0.13901055 -0.12607253 -0.18790738 0.14647852 -0.01988847 0.16135311 0.18151864
-0.15805338 -0.12321734 -0.07682369 -0.016643848 -1.4353908e-05 -0.10075512 -0.06500679 -0.018336982
-0.03952429 0.1401934 0.0074824593 -0.15846561 -0.18827508 -0.06627572 -0.0054934723 0.059077047
-0.25572792 0.21985698 -0.20399907 0.18375021 0.13394375 -0.15332943 0.076200664 0.061313
-0.22349574 -0.11462372 -0.05001151 0.021481216 -0.18328722 -0.18324952 -0.13949308 0.008032782
-0.13437875 0.01657028 0.18859127 0.0637569 -0.22669964 -0.0136715025 -0.25023836 -0.15982722
0.11601513 -0.23998113 0.0017095428 0.1257805 0.10838518 -0.12997665 0.039812405 0.05505581
0.0594772 -0.092086166 -0.07371108 -0.20681678 0.027848767 0.045841895 -0.21052633 0.16403012
0.020267759 0.028031414 -0.21291631 0.14055195 0.21706338 0.07561153 -0.105704196 0.15110484
-0.18229406 0.17466725 -0.14744256 0.015845243 -0.0019786053 -0.13271652 -0.05851711 -0.009174371
0.09265725 -0.07785723 0.043550417 0.044014458 -0.2029815 -0.09762338 -0.03094094 -0.11606741
0.15888695 0.013641889 -0.09218175 -0.23530447 0.09780733 -0.23320977 -0.016310722 0.10071193
0.04404834 -0.24285366 -0.10067504 -0.097723015 -0.17055947 -0.11114592 -0.047361124 -0.027492724
-0.14997634 -0.13465607 0.073267326 -0.17990147 -0.010066823 -0.0037198116 -0.14956634 0.12012725
-0.041937176 0.112821236 -0.03416518 -0.091768675 0.15238175 -0.038138043 0.13128398 0.10463666
-0.15967517 -0.19594757 0.0816514 0.031431742 -0.057671506 0.112431526 0.042785708 0.010724424
-0.21125586 0.052276917 0.08810701 -0.047170985 0.05545817 -0.09246091 -0.14040372 0.06510797
-0.117485024 0.12947606 -0.1773118 -0.007859442 0.00014634653 0.11628751 -0.13179629 -0.20954493
-0.07930641 -0.24814351 -0.24511923 0.10961371 -0.016542835 -0.08923968 -0.02118077 -0.11872402
0.16671075 -0.22250438 0.09408775 0.03221633 0.11013883 -0.07722989 -0.24630961 -0.052573517
-0.055282954 0.007753506 -0.2121642 -0.066203766 0.18551578 -0.028627366 0.10264203 0.17388614
-0.014623554 0.16455282 -0.16728652 0.11807476 0.14350173 -0.079784356 0.029873779 -0.0028848094
0.049563114 0.12427514 0.050525513 -0.11943434 -0.14763534 0.1330514 0.07726254 -0.22944926
0.17715245 -0.17078993 0.10796914 0.14119975 0.116198294 -0.10933762 -0.13300887 -0.09649643

net.8.bias f4 [20]
00000000: 2ba7 1d3d 5564 1abd 7c13 193d d4e7 94bd
00000010: 6f59 a43d 5579 20bd 2a50 963d ee52 05be
00000020: 5487 ac3d e931 eb3d 3da6 f23d a271 d73d
00000030: 1eb3 973d 32a1 913c 3c42 bdbc 2e8b c0bd
00000040: 3d3d 29bd 9635 b0bd e290 c63c c006 8d3d
0.038489502 -0.03769334 0.037372097 -0.0727078 0.080248706 -0.03917821 0.07339509 -0.13019916
0.08424249 0.11484129 0.11848114 0.105197206 0.07407211 0.01777706 -0.023102872 -0.094015464
-0.041318167 -0.08603971 0.024239007 0.06886053
