models/model_2.pth (torch, 577485 bytes, 8 tensors)

net.0.weight f4 [256, 394]
-0.0121739805 0.07163236 0.03755685 0.022873389 0.10132255 0.092842534 0.03622591 0.05571851
0.028580552 -0.028407326 0.016952973 -0.021463158 -0.047145844 0.078803666 -0.02382165 0.047240544
0.027928794 -0.022079762 0.039278038 0.03007889 0.1329048 -0.019963555 -0.03205845 -0.012821758
-0.06321717 0.06984514 -0.015059507 0.01099689 -0.11111869 0.025283325 0.027054757 -0.041814514
0.08149291 0.017400172 0.07473856 0.07646292 -0.022540262 -0.075171486 0.018854497 -0.057319243
-0.03786067 -0.020299738 0.03639151 0.07015721 -0.04964016 -0.071340166 -0.030435313 0.024307469
0.02572984 -0.057072688 -0.021274766 0.019992838 -0.030194119 -0.022317735 -0.025837751 0.17948042
-0.06479916 0.08428435 -0.0077935588 0.041620918 0.07271951 0.012591046 -0.043824 0.046634383
-0.019035814 -0.01976146 0.051515695 0.0047822697 0.03198221 -0.054757595 -0.0068382276 0.03138434
-0.08871729 -0.050405648 -0.058437638 0.004216542 -0.053433873 0.038044926 0.005516108 -0.052328125
0.0678519 0.015418206 -0.037386946 0.09975601 -0.037109427 -0.072810024 0.028518725 0.05760418
0.07005586 -0.047112223 -0.08444925 -0.087760225 -0.02739419 -0.007612277 0.053190015 0.038172595
0.06132735 -0.02201918 0.08870951 -0.013976733 -0.03386932 -0.06295988 -0.051116508 0.022574678
-0.011896828 -0.029250199 -0.05278483 0.017490525 -0.07373366 -0.039018147 0.041678462 -0.06471484
-0.08545172 0.031230723 -0.07782569 0.054221597 0.02853765 0.061113425 0.066982195 0.020641744
-0.114964865 0.083395146 -0.019056438 0.03379096 0.10898552 0.046948336 -0.094564565 0.08837199
-0.024579035 -0.0293785 0.0060483348 -0.012782989 0.0340048 0.06538558 0.08227285 0.058429293
0.0027984425 0.097000055 0.054591175 0.0035517034 0.06408209 -0.014389702 0.015714774 -0.05055722
-0.033046164 -0.026651239 0.010930193 -0.054827224 -0.07533244 -0.022746012 -0.02634883 0.032787614
-0.009207139 -0.062253285 -0.028906997 -0.050687693 -0.055462305 0.019083302 -0.056484677 0.0053981636
-0.03732083 0.09772099 0.06931375 -0.03864335 0.027498692 -0.09643902 -0.04000989 -0.11295674
0.08135371 0.034000427 0.10196104 -0.05877807 0.01846641 0.10651721 -0.043818813 -0.024052981
-0.050688397 -0.05445094 0.060863554 -0.049411327 -0.018712884 0.044755153 0.029174604 -0.0056137037
0.05298508 0.07868716 0.07914245 -0.017488284 0.10951448 0.016682679 -0.021010809 -0.066802695
-0.038412567 -0.027135013 0.13304493 -0.036648154 -0.064824946 0.011557242 0.04448429 -0.027562598
-0.05164961 0.079701714 -0.014116475 0.04338729 0.10921271 -0.027660402 0.019125622 0.11592118
0.055697434 0.046935927 0.029080728 0.09116708 0.023246853 -0.0023033952 -0.11508035 -0.047604647
-0.038123146 -0.050047893 -0.027643345 0.079487555 -0.031819753 -0.04418478 0.065324344 0.05186834
0.02031073 0.028948255 -0.06765186 -0.05612776 -0.10164877 0.021769948 -0.053833816 0.02149048
-0.023521777 0.021616394 -0.048507717 -0.028961202 0.038185384 -0.0472722 -0.007977046 -0.0056633228
0.040472127 0.00799589 -0.039299652 0.05016813 0.0069420673 0.05952823 0.016927576 0.049580086
0.043289404 -0.014779383 -0.08901227 -0.03850634 0.11702302 -0.002421309 0.039797194 0.045340464
00000000: 6075 47bc fdb3 923d 36d5 193d f960 bb3c
00000010: 3282 cf3d 3a24 be3d 9f61 143d 1839 643d
00000020: c321 ea3c 7bb6 e8bc f6e0 8a3c 81d3 afbc
00000030: 001c 41bd d163 a13d 9f25 c3bc 4d7f 413d
00000040: edca e43c 9ee0 b4bc 02e2 203d 0168 f63c
00000050: 3218 083e 9c8a a3bc b94f 03bd 5a12 52bc
00000060: 0178 81bd f80a 8f3d 27bc 76bc 4d2c 343c
00000070: 3292 e3bd fa1e cf3c f0a1 dd3c b245 2bbd
00000080: c1e5 a63d ce8a 8e3c 8810 993d 9798 9c3d
00000090: 5ba6 b8bc 82f3 99bd bf74 9a3c 95c7 6abd
000000a0: ca13 1bbd a34b a6bc 440f 153d 95ae 8f3d
000000b0: 7b53 4bbd cb1a 92bd 7a53 f9bc 7520 c73c
000000c0: 63c7 d23c 0dc5 69bd 6b48 aebc 05c8 a33c
000000d0: a859 f7bc afd3 b6bc b1a9 d3bc b7c9 373e
000000e0: 6cb5 84bd 469d ac3d 1c61 ffbb b27a 2a3d
000000f0: f7ed 943d ad4a 4e3c cb80 33bd b203 3f3d
00000100: fff0 9bbc c9e2 a1bc 1f02 533d 96b4 9c3b
00000110: c7ff 023d 8049 60bd 3613 e0bb de8c 003d
00000120: 69b1 b5bd 2776 4ebd 4e5c 6fbd eb2a 8a3b
00000130: 7add 5abd ffd4 1b3d 78c0 b43b 0456 56bd
00000140: f0f5 8a3d a59c 7c3c 0e23 19bd e14c cc3d
00000150: 0e00 18bd 6c1d 95bd 1aa0 e93c 5cf2 6b3d
00000160: 7279 8f3d bff8 40bd baf3 acbd a2bb b3bd
00000170: c869 e0bc 6870 f9bb c6dd 593d de5a 1c3d
00000180: 6332 7b3d 9161 b4bc 55ad b53d abfe 64bc
00000190: 8eba 0abd 1cf1 80bd 8b5f 51bd 88ee b83c
000001a0: eaea 42bc 1d9e efbc e834 58bd 4a48 8f3c
000001b0: ac01 97bd 7ed1 1fbd 09b7 2a3d 3789 84bd
000001c0: 5001 afbd 93d7 ff3c 1363 9fbd 7717 5e3d
000001d0: cac7 e93c 1252 7a3d f62d 893d e018 a93c
000001e0: b372 ebbd 13cb aa3d 3f1c 9cbc 6468 0a3d
000001f0: cd33 df3d e64c 403d 11ab c1bd 60fc b43d
00000200: f959 c9bc 2eab f0bc 1c31 c63b be6f 51bc
00000210: 9e48 0b3d e0e8 853d ab7e a83d 8e53 6f3d
00000220: 1366 373b f7a7 c63d ff9a 5f3d b2c3 683b
00000230: 793d 833d c9c2 6bbc 45bc 803c 1615 4fbd
00000240: 6a5b 07bd b353 dabc 8d14 333c 8392 60bd
00000250: e547 9abd d855 babc 80d9 d7bc 4e4c 063d
00000260: 8ad9 16bc 4dfd 7ebd 5ece ecbc e69d 4fbd
00000270: 712c 63bd 9654 9c3c 7a5c 67bd 14e3 b03b
00000280: badd 18bd f121 c83d 5ef4 8d3d 7d48 1ebd
00000290: f044 e13c d281 c5bd 69e1 23bd dd55 e7bd
000002a0: c69c a63d 0844 0b3d f3d0 d03d 46c1 70bd
000002b0: de46 973c b225 da3d 5b7b 33bd c20a c5bc
000002c0: a39e 4fbd f307 5fbd 104c 793d 8863 4abd
000002d0: c34b 99bc 2e51 373d 94ff ee3c 29f3 b7bb
000002e0: e206 593d bc26 a13d 7015 a23d 9743 8fbc
000002f0: 2149 e03d 1daa 883c dc1e acbc dacf 88bd
00000300: 7f56 1dbd 3f4a debc ee3c 083e 601c 16bd
00000310: f1c2 84bd 965a 3d3c 2935 363d f5ca e1bc
00000320: 8b8e 53bd a73a a33d ca48 67bc dfb6 313d
00000330: eaaa df3d 1198 e2bc 56ad 9c3c 1568 ed3d
00000340: fe22 643d e33f 403d b53a ee3c ceb5 ba3d
00000350: 2f70 be3c 8ff4 16bb 3faf ebbd 17fd 42bd
00000360: 0427 1cbd 05ff 4cbd 4c74 e2bc 5fca a23d
00000370: 6e55 02bd 1afb 34bd c5c8 853d e573 543d
00000380: b062 a63c e424 ed3c 0f8d 8abd 39e6 65bd
00000390: 3b2d d0bd e456 b23c d980 5cbd ce0c b03c
000003a0: beb0 c0bc dd14 b13c 07b0 46bd 0b40 edbc
000003b0: 4768 1c3d 7fa0 41bd 28b2 02bc 6593 b9bb
000003c0: 1ac6 253d 3201 033c acf8 20bd 197d 4d3d
000003d0: 487a e33b e0d3 733d b3ab 8a3c 7d14 4b3d
000003e0: 3b50 313d 3a25 72bc 114c b6bd d3b8 1dbd
000003f0: c4a9 ef3d d3ae 1ebb 6202 233d ecb6 393d

net.0.bias f4 [256]
0.076752245 0.057706438 0.102049984 0.035709135 0.08301514 0.10503503 0.029113036 0.060947616
0.072217375 0.027793968 0.096665405 0.12262057 0.097111225 0.083341844 0.08745887 0.08738387
0.05896919 0.07852339 0.098165594 0.071506806 0.05678473 0.07578192 0.05886032 0.08964455
0.07150906 0.054054398 0.03317789 0.018646328 0.044781677 0.054825064 0.04256741 0.08248955
0.06333305 0.050707713 0.050629564 0.091660365 0.071844056 0.06724821 0.056267943 0.053454205
0.03451132 0.023017272 0.017170569 0.10915538 0.09347485 0.07124455 0.062011104 0.06390156
0.07181258 0.05880312 0.08357642 0.10243705 0.08425907 0.04741557 0.040464923 0.081711054
0.11808313 0.03812239 0.091481 0.11388037 0.05102406 0.10754829 0.096312396 0.056115694
0.06532616 0.026656646 0.035144456 0.11814211 0.11255033 0.04666981 0.07591612 0.11912229
0.08213722 0.06673989 0.12320664 0.030042032 0.05431014 0.050927192 0.055314027 0.059417192
0.06092109 0.13844752 0.09901406 0.03906377 0.04205955 0.022178857 0.049525227 0.094198115
0.09824159 0.12326397 0.07394775 0.08556748 0.12809563 0.07447533 0.064698 0.064870976
0.103509255 0.05036063 0.09101885 0.062483486 0.064403914 0.10352249 0.0979745 0.1021615
0.0425017 0.07821564 0.06767209 0.14765525 0.036767095 0.067832366 0.0558243 0.043859113
0.08733746 0.012408113 0.09012066 0.12105374 0.05712659 0.12360126 0.070086844 0.06340199
0.054898735 0.08636773 0.043623228 0.114862815 0.028204799 0.114010446 0.070487015 0.07066638
0.06569978 0.09954318 0.07336413 0.118167296 0.029519552 0.060330063 0.012987215 0.053887162
0.10118039 0.0656883 0.087609746 0.06736208 0.080914564 0.030642658 0.102456756 0.11107966
0.0735735 0.10717758 0.04349009 0.106628165 0.103853665 0.027509203 0.03955728 0.06383207
0.068038575 0.05796171 0.09136214 0.05520069 0.027032437 0.032806065 0.061118573 0.120243356
0.07441562 0.106232576 0.038607433 0.0940872 0.089894906 0.081779175 0.09888183 0.112562165
0.08046792 0.06339147 0.09542991 0.0669152 0.04589301 0.031092698 0.07851644 0.08802415
0.11103327 0.07501472 0.046713796 0.0484228 0.11426403 0.108467706 0.031736374 0.0909159
0.06414679 0.127519 0.06475908 0.054469373 0.113888726 0.029847825 0.0813906 0.062755674
0.10373325 0.052841313 0.08171363 0.075629465 0.12033818 0.054009203 0.0645301 0.036166996
0.041272793 0.045518916 0.07893834 0.087369084 0.020712467 0.054280076 0.05746838 0.023007952
0.055400755 0.052543666 0.0650545 0.04615797 0.07298378 0.10039672 0.04212158 0.11268766
0.040888697 0.056456123 0.06553444 0.12946811 0.13561596 0.08025119 0.074334376 0.10380266
0.08088373 0.07826191 0.018436471 0.111370265 0.11206023 0.113154754 0.09268556 0.047309984
0.041328114 0.112292595 0.10490034 0.08222476 0.13900982 0.05816827 0.06323157 0.033820145
0.072287396 0.044511773 0.073930025 0.06093318 0.10962532 0.057362057 0.0734577 0.08842764
0.041611105 0.103843965 0.112141326 0.04951642 0.016741445 0.042776797 0.035386544 0.09610678
00000000: 4830 9d3d 965d 6c3d 95ff d03d be43 123d
00000010: d703 aa3d 9b1c d73d 767e ee3c 35a4 793d
00000020: b4e6 933d 2db0 e33c 83f8 c53d 7e20 fb3d
00000030: 40e2 c63d 21af aa3d a31d b33d 50f6 b23d
00000040: ad89 713d dfd0 a03d 0b0b c93d 2972 923d
00000050: 1b97 683d 8d33 9b3d 8517 713d 9097 b73d
00000060: 5873 923d 2568 5d3d 8ae5 073d 2fc0 983c
00000070: fe6c 373d 3f90 603d 2a5b 2e3d 48f0 a83d
00000080: c2b4 813d e4b2 4f3d f260 4f3d 6eb8 bb3d
00000090: fa22 933d 6eb9 893d 3779 663d ccf2 5a3d
000000a0: be5b 0d3d b88e bc3c 4ba9 8c3c db8c df3d
000000b0: be6f bf3d aae8 913d 5bff 7d3d d2de 823d
000000c0: 7912 933d 8adb 703d 1d2a ab3d 84ca d13d
000000d0: 0590 ac3d d436 423d 8cbe 253d 2058 a73d
000000e0: 91d5 f13d 3926 1c3d 645a bb3d 1d3a e93d
000000f0: 9bfe 503d 4742 dc3d 6f3f c53d 92d9 653d
00000100: b9c9 853d 0a5f da3c a2f3 0f3d 7ef4 f13d
00000110: ca80 e63d d828 3f3d e979 9b3d 63f6 f33d
00000120: 8f37 a83d ecae 883d c353 fc3d b51a f63c
00000130: 4f74 5e3d 0899 503d f690 623d 715f 733d
00000140: 6588 793d 30c5 0d3e e2c7 ca3d 5501 203d
00000150: a246 2c3d 6fb0 b53c f7da 4a3d f1ea c03d
00000160: e332 c93d d271 fc3d eb71 973d 013e af3d
00000170: 802b 033e 8686 983d 6380 843d 13db 843d
00000180: a9fc d33d f346 4e3d 1768 ba3d afee 7f3d
00000190: 33e6 833d 9903 d43d dba6 c83d 0c3a d13d
000001a0: 4316 2e3d 852f a03d aa97 8a3d f032 173e
000001b0: 1899 163d b2eb 8a3d 05a8 643d 9da5 333d
000001c0: fbdd b23d 664b 4b3c 2e91 b83d 06eb f73d
000001d0: 92fd 693d a822 fd3d b189 8f3d e7d8 813d
000001e0: 7fdd 603d 90e1 b03d 45ae 323d 323d eb3d
000001f0: c00d e73c 4f7e e93d 7f5b 903d 89b9 903d
00000200: 9b8d 863d 4bdd cb3d ef3f 963d b201 f23d
00000210: fdd2 f13c a81c 773d 54c8 543c c9b8 5c3d
00000220: aa37 cf3d 9687 863d bd6c b33d 21f5 893d
00000230: 89b6 a53d 5006 fb3c d9d4 d13d bc7d e33d
00000240: b4ad 963d eb7f db3d aa22 323d de5f da3d
00000250: 3bb1 d43d fb5a e13c d006 223d 63ba 823d
00000260: cf57 8b3d 4269 6d3d 131c bb3d 1e1a 623d
00000270: 2173 dd3c a75f 063d 7857 7a3d 2642 f63d
00000280: 3767 983d 7790 d93d d422 1e3d cab0 c03d
00000290: d21a b83d d77b a73d 8f82 ca3d fe86 e63d
000002a0: 5dcc a43d 63d3 813d c270 c33d d60a 893d
000002b0: 4ffa 3b3d 1db6 fe3c 3acd a03d 0146 b43d
000002c0: 6965 e33d 51a1 993d f756 3f3d fc56 463d
000002d0: 4203 ea3d 5124 de3d 00fe 013d 1e32 ba3d
000002e0: 645f 833d 5794 023e 69a0 843d 471b 5f3d
000002f0: 7e3e e93d 6d83 f43c 1db0 a63d 0c86 803d
00000300: 1972 d43d 2270 583d 7a59 a73d 9fe3 9a3d
00000310: dd73 f63d c138 5d3d 5b28 843d d823 143d
00000320: a90d 293d 0b72 3a3d 6daa a13d 90ee b23d
00000330: 31ad a93c c954 5e3d f763 6b3d 2c7b bc3c
00000340: e7eb 623d 0738 573d 4b3b 853d 2410 3d3d
00000350: 8578 953d cc9c cd3d ae87 2c3d cac8 e63d
00000360: e87a 273d 893e 673d ec36 863d 4a93 043e
00000370: e9de 0a3e bc5a a43d 9f3c 983d 7d96 d43d
00000380: 5ea6 a53d c847 a03d 1508 973c 1816 e43d
00000390: d57f e53d aebd e73d edd1 bd3d 1dc8 413d
000003a0: ab47 293d a9f9 e53d fdd5 d63d 7465 a83d
000003b0: 9758 0e3e da41 6e3d 8e7f 813d fe86 0a3d
000003c0: 6a0b 943d fa51 363d a068 973d 1295 793d
000003d0: 3d83 e03d 7af4 6a3d fe70 963d 8d19 b53d
000003e0: 6870 2a3d 25ac d43d 5aaa e53d bbd1 4a3d
000003f0: 5b25 893c b936 2f3d 7bf1 103d a2d3 c43d

net.3.weight f4 [128, 256]
0.12975813 0.07186499 -0.009997508 0.0886872 -0.07746927 -0.087845646 -0.005101224 -0.037011355
0.14809746 -0.02671313 0.08298897 -0.013195917 0.08087067 0.05564741 0.07139954 -0.0039829426
-0.062395364 -0.041964084 0.049823165 0.075275 -0.014543989 -0.08519146 -0.009089765 -0.013093984
0.120497406 -0.13844529 -0.018834297 0.023356574 -0.0036426517 -0.06339888 0.12178154 0.017460477
0.11793836 -0.032180607 0.00809014 0.019923726 0.016835202 0.1317744 0.039487597 -0.051316343
0.10714976 0.041018743 0.073267974 -0.14081289 0.023993546 0.045259487 -0.13737723 0.07046015
0.123240285 0.06396428 -0.00037444197 0.06980461 -0.0885773 -0.009277281 0.16463813 -0.09987664
0.11101273 0.005154203 -0.09392381 -0.052459076 -0.00595113 0.09502567 0.06842388 0.06388949
0.06552352 0.0023653496 0.0048362897 0.0029506665 0.04295701 -0.029207854 0.1530002 0.095069624
0.015905162 -0.11139729 -0.15510823 0.037326988 0.14201504 -0.17241105 0.06101204 -0.11697029
0.11232143 0.0054780785 -0.012941521 0.10732368 0.1156883 -0.14663222 -0.09596206 0.10703439
0.007854494 0.04000213 0.003983181 0.099924386 0.10365701 0.060070153 0.15661092 -0.00803514
-0.08696068 -0.023976797 -0.101363294 -0.031471513 0.10401061 0.12795009 0.08730997 -0.058526814
0.07933638 -0.12765293 -0.024110412 -0.052325632 0.1310557 0.09124082 0.062971935 -0.084427156
-0.033769935 0.09414478 -0.066530704 -0.0117830755 0.1525855 -0.11441098 -0.031323902 0.0060172565
-0.010111482 0.026187282 0.10585691 0.029539615 0.092842765 -0.04529158 -0.080738984 0.07009091
0.10093474 0.042650737 -0.03903874 0.09500323 0.033188462 0.03250812 -0.049833015 0.044971775
-0.022485258 0.0029620067 0.11880694 0.00028669505 0.041041024 -0.090086035 0.050228253 -0.03549022
0.06593416 -0.11158184 -0.0050193947 0.14999922 0.089031436 0.11540223 0.05464767 0.0722766
0.06406731 0.014298415 -0.06470513 0.13206567 0.10662921 0.07632501 0.007505889 0.023354745
-0.040774196 0.0020757378 -0.08868332 0.06751388 -0.00780512 -0.012500376 0.11680046 0.068950914
-0.012850283 0.0009366549 0.07167923 -0.00071391166 -0.11910874 0.054450747 -0.0584409 0.041012637
0.016991245 0.038161363 0.09531841 0.03492077 0.05500365 0.021773836 -0.103314385 -0.1329043
0.053933714 0.032299746 -0.092370994 0.06596546 0.04988367 -0.11939013 0.04231796 0.06237641
-0.027871175 0.119868115 -0.03250367 0.018043548 0.023450326 -0.006469163 0.022784377 0.052651692
-0.032269515 0.012828593 -0.06326391 0.17837672 -0.004917507 0.07620708 0.15325543 0.08047007
-0.010863965 0.05419941 -0.019764695 -0.01229813 0.14151064 0.069062315 0.046526466 -0.07720029
-0.0014701019 -0.048675023 0.14177029 -0.04801599 0.12888084 -0.033616126 0.022721104 0.08943987
-0.05303338 0.014255736 0.042291157 0.09508892 0.0027701035 -0.15174527 0.059484165 0.1566611
0.11870122 0.03614933 -0.0522602 -0.03571659 -0.12949559 0.0890086 0.05780383 -0.10932411
-0.024291776 -0.06298834 -0.0980402 -0.12891127 -0.010195907 -0.036942165 -0.13519563 0.07052013
0.046605892 0.03181278 0.012395213 0.027054956 0.054557864 0.063676015 0.018130293 0.11200774
00000000: 51df 043e f42d 933d 96cc 23bc a2a1 b53d
00000010: 35a8 9ebd 6be8 b3bd 2b28 a7bb 3899 17bd
00000020: dca6 173e 7ed5 dabc 1ff6 a93d b033 58bc
00000030: 869f a53d 8aee 633d ec39 923d 5883 82bb
00000040: 4892 7fbd 88e2 2bbd 6013 4c3d c729 9a3d
00000050: e949 6ebc dc78 aebd 3ded 14bc 2688 56bc
00000060: 58c7 f63d 9ac4 0dbe 624a 9abc 4956 bf3c
00000070: 8eb9 6ebb 46d7 81bd 9a68 f93d 4609 8f3c
00000080: ab89 f13d d0cf 03bd 828c 043c 1537 a33c
00000090: fae9 893c deef 063e bfbd 213d 1631 52bd
000000a0: 5571 db3d 4503 283d 850d 963d 4131 10be
000000b0: 1d8e c43c 0362 393d 9eac 0cbe 694d 903d
000000c0: 6765 fc3d b4ff 823d c050 c4b9 b8f5 8e3d
000000d0: 0468 b5bd bdff 17bc e696 283e 208c ccbd
000000e0: a45a e33d 97e4 a83b 205b c0bd 54df 56bd
000000f0: b201 c3bb d29c c23d d221 8c3d 7ed8 823d
00000100: 3231 863d fb03 1b3b bd79 9e3b f85f 413b
00000110: b1f3 2f3d 4f45 efbc 16ac 1c3e ddb3 c23d
00000120: 8b4b 823c 4324 e4bd b1d4 1ebe 2fe4 183d
00000130: 646c 113e 868c 30be c3e7 793d 1f8e efbd
00000140: c708 e63d 7481 b33b ac08 54bc 84cc db3d
00000150: fded ec3d c226 16be c287 c4bd d934 db3d
00000160: 23b0 003c 46d9 233d 5885 823b 28a5 cc3d
00000170: 204a d43d 1f0c 763d 9d5e 203e d2a5 03bc
00000180: 7118 b2bd fd6a c4bc 8f97 cfbd 46e8 00bd
00000190: 8403 d53d 5905 033e 92cf b23d d0b9 6fbd
000001a0: 1d7b a23d 73b7 02be 3383 c5bc 6753 56bd
000001b0: 7733 063e 78dc ba3d 6ef7 803d 25e8 acbd
000001c0: 5852 0abd face c03d 4041 88bd cd0d 41bc
000001d0: 603f 1c3e 4e50 eabd 7e4d 00bd 682c c53b
000001e0: a1aa 25bc b686 d63c 82cb d83d 10fd f13c
000001f0: 5924 be3d aa83 39bd 7b5a a5bd d38b 8f3d
00000200: dfb6 ce3d 8ab2 2e3d 16e7 1fbd 0e91 c23d
00000210: a0f0 073d 3c27 053d b41d 4cbd 5334 383d
00000220: 0133 b8bc 3a1e 423b 0e51 f33d 8f4f 9639
00000230: a21a 283d 077f b8bd 24bc 4d3d 315e 11bd
00000240: 7d08 873d 0585 e4bd bc79 a4bb 6599 193e
00000250: 1d56 b63d 0158 ec3d 3cd6 5f3d c105 943d
00000260: b935 833d e643 6a3c 2084 84bd 393c 073e
00000270: 6a60 da3d 4950 9c3d f6f3 f53b 7352 bf3c
00000280: d802 27bd 1a09 083b 9a9f b5bd b844 8a3d
00000290: 18c2 ffbb 61ce 4cbc 1435 ef3d 2336 8d3d
000002a0: fe89 52bc d989 753a 8fcc 923d cd25 3bba
000002b0: 48ef f3bd bf07 5f3d ba5f 6fbd defc 273d
000002c0: 3931 8b3c 174f 1c3d 4c36 c33d 1509 0f3d
000002d0: 824b 613d 0b5f b23c 7e96 d3bd 1118 08be
000002e0: 99e9 5c3d bd4c 043d 012d bdbd e618 873d
000002f0: d252 4c3d d082 f4bd 9955 2d3d 687e 7f3d
00000300: 1752 e4bc 6a7d f53d 9122 05bd 10d0 933c
00000310: e61a c03c 46fb d3bb 4da6 ba3c 4da9 573d
00000320: 0a2d 04bd 052f 523c 8290 81bd 63a8 363e
00000330: 0a23 a1bb 7512 9c3d feee 1c3e 7ecd a43d
00000340: c6fe 31bc 3300 5e3d 92e9 a1bc 197e 49bc
00000350: 2ae8 103e 8b70 8d3d 8992 3e3d 301b 9ebd
00000360: 6fb0 c0ba 765f 47bd 3b2c 113e 6aac 44bd
00000370: 57f9 033e 10b1 09bd 9c21 ba3c 402c b73d
00000380: 8839 59bd e490 693c 7e39 2d3d fbbd c23d
00000390: a08a 353b 1d63 1bbe aba5 733d c46b 203e
000003a0: a019 f33d 5211 143d cb0e 56bd 8f4b 12bd
000003b0: 7e9a 04be 244a b63d b5c3 6c3d 52e5 dfbd
000003c0: 8cff c6bc 0800 81bd 4dc9 c8bd 5101 04be
000003d0: bc0c 27bc ab50 17bd b970 0abe dc6c 903d
000003e0: d2e5 3e3d 1e4e 023d 4b15 4b3c 5ba2 dd3c
000003f0: 1178 5f3d 9268 823d fb85 943c 5064 e53d

net.3.bias f4 [128]
0.04356427 0.031072693 0.013359216 -0.0029021201 0.03488618 0.087997355 0.10636407 0.057014972
0.037109304 0.076791495 0.02893265 0.09501778 0.047341686 0.0127470065 0.0721676 0.014545556
0.0008881209 -0.045574382 0.059536926 0.006658064 0.0076548303 0.03230758 0.012893457 -0.017079627
0.046274006 0.00084261294 0.00042765753 0.024997428 0.077664554 0.08378722 0.029440705 -0.0035754435
0.062403724 0.0757929 0.113249324 0.052590962 -0.011709894 -0.0056632175 0.08242244 0.08190086
-0.033040248 -0.027229326 0.06909181 0.016666656 0.061009243 0.046320345 0.041061264 0.04873775
0.07290461 -0.010966386 -0.01964318 0.09457607 0.09581458 0.043875378 0.0062269485 0.034956474
0.091636814 -0.034569368 0.026267948 0.006622195 0.08888787 -0.0020606087 0.12227588 0.037027977
0.07812713 0.055905424 0.06955389 0.026564311 0.0660989 0.013107072 0.0448594 0.057101093
0.061077062 0.055094127 0.08610767 0.061804388 0.06504854 0.048190773 0.04543589 0.11316875
0.032125156 0.001001099 0.030603044 0.10012473 -0.021677753 0.023128558 -0.032946 -0.005613154
0.0434068 0.060119685 -0.0073826043 0.0065420275 0.06808346 -0.021899704 0.094180435 0.06402176
0.011242854 0.06517537 0.086082056 0.05625303 0.028393386 0.098113336 0.015139978 -0.0070249755
0.010442596 -0.0017690046 0.05439283 0.039856963 0.07287696 0.099363595 -0.004225369 0.034764044
-0.0020993643 0.0353827 0.076030314 0.11465236 -0.0037616927 0.08452195 -0.008259428 0.0694269
0.033657283 0.04408692 0.0052303406 0.0738738 0.0047771395 0.00054181763 0.008418027 -0.008319731
00000000: 7370 323d 298c fe3c 9de0 5a3c 7f31 3ebb
00000010: d0e4 0e3d f537 b43d 68d5 d93d 8888 693d
00000020: edff 173d dc44 9d3d 2a04 ed3c af98 c23d
00000030: 5be9 413d d2d8 503c 9bcc 933d 7c50 6e3c
00000040: c9d0 683a 34ac 3abd fedc 733d e42b da3b
00000050: 5fd5 fa3b f454 043d 143f 533c 93ea 8bbc
00000060: d089 3d3d cce2 5c3a 3937 e039 68c7 cc3c
00000070: 980e 9f3d a298 ab3d a22d f13c fd51 6abb
00000080: 0c9b 7f3d 4f39 9b3d 43ef e73d 9f69 573d
00000090: dbda 3fbc 8392 b9bb 19cd a83d a3bb a73d
000000a0: 3655 07bd 0910 dfbc 0280 8d3d 8388 883c
000000b0: d4e4 793d 67ba 3d3d db2f 283d 3ca1 473d
000000c0: 034f 953d 5bac 33bc bcea a0bc 19b1 c13d
000000d0: 6f3a c43d abb6 333d 6e0b cc3b 852e 0f3d
000000e0: 15ac bb3d 9c98 0dbd e12f d73c fffe d83b
000000f0: d80a b63d 470b 07bb c76b fa3d a6aa 173d
00000100: 1e01 a03d 16fd 643d 4572 8e3d 669d d93c
00000110: dc5e 873d 0bbf 563c 7dbe 373d d6e2 693d
00000120: f12b 7a3d 61aa 613d 3859 b03d 9926 7d3d
00000130: 2b38 853d b063 453d fc1a 3a3d 05c5 e73d
00000140: ab95 033d 4f37 833a 3cb3 fa3c 320e cd3d
00000150: 8b95 b1bc 1a78 bd3c 63f2 06bd 8cee b7bb
00000160: 54cb 313d 0f40 763d c6e9 f1bb 815e d63b
00000170: 576f 8b3d 0267 b3bc ace1 c03d d71d 833d
00000180: f333 383c aa7a 853d ca4b b03d 9469 663d
00000190: 3f99 e83c a5ef c83d ac0d 783c c431 e6bb
000001a0: 6c17 2b3c f2dd e7ba 04cb 5e3d 0e41 233d
000001b0: 8440 953d 247f cb3d f774 8abb be64 0e3d
000001c0: 7d95 09bb 73ed 103d c8b5 9b3d dbce ea3d
000001d0: bb86 76bb d819 ad3d 8d52 07bc b12f 8e3d
000001e0: 38dc 093d 7c94 343d 4763 ab3b 264b 973d
000001f0: 8d89 9c3b c408 0e3a c4eb 093c 7b4f 08bc

net.6.weight f4 [64, 128]
0.17257506 -0.15123522 -0.02037464 0.13830534 -0.08837563 0.13261671 0.07656307 0.19188038
0.15746148 -0.0062611103 0.024995297 -0.016345704 0.04861872 0.048608195 0.049029987 -0.08936981
-0.022544958 0.09143441 -0.08387556 0.118687995 0.05658266 -0.012679602 -0.0366781 -3.9333443e-13
-0.005686882 -0.08170595 0.15304878 0.111248724 0.13756941 0.029115958 0.07249253 0.025046756
-0.02789251 -0.0034615828 0.014505386 -0.07454644 -0.017468017 0.08975584 -0.1140552 0.06315749
-0.05149239 0.045722436 -0.13239467 -0.11941725 0.048696928 0.058186367 0.16184983 0.112523586
-0.012106146 1.530557e-05 -0.013201299 -0.046631128 -0.042791944 -0.0145633435 0.014500749 0.045980517
0.13134345 0.035456706 -0.04540189 -0.020161735 -0.08021958 0.032441847 0.11944065 -0.037633363
-0.06599502 0.08744877 0.03463925 0.16697414 0.030101893 0.14904973 0.18995419 -0.036532063
0.015399071 0.1200431 0.023484714 -0.07997935 0.10176988 -0.025324846 -0.043527346 0.15017207
-0.13318251 -0.15249462 0.11497528 -0.12830321 0.10444025 0.067933604 0.17195176 -0.02486494
0.09927998 0.1489866 0.1499903 -0.13809778 0.15414695 0.1284766 0.11469028 0.20122485
0.11897705 -0.11507269 0.1429276 0.14431083 0.06749087 -0.03361093 0.13256547 -0.114330836
-0.060601197 1.0723628e-36 -0.011274593 -0.031340953 -0.025957044 0.1925764 0.05093899 -0.09092892
-0.01851127 0.11867097 -0.009144268 0.054645013 0.12418333 0.0127036115 -3.7736113e-06 0.122185
-0.118882485 0.114741586 0.07408211 -0.03427893 -0.037971582 0.010708408 -0.013275384 0.034690615
0.007212791 0.056143556 -0.018418444 0.09379983 0.14391536 -0.08640739 0.12374414 0.053860575
-0.050308112 0.05685075 -0.16732161 0.106713645 0.091999106 0.027907599 -0.04963113 -0.043679833
-0.003102954 0.22314514 -0.045594744 -0.09729109 0.10253055 0.0921657 -0.14045551 3.0478205e-08
-0.0010658188 -0.0825513 -0.18286403 0.052022126 -0.044503458 0.059801288 0.11614365 0.059061524
0.07850757 -0.1179195 -0.0641057 0.12647218 0.020336824 -0.1587936 -0.123456955 -0.13909338
0.21261226 0.1200039 0.098644584 0.08650577 -0.06288671 0.06658745 0.15260407 0.04465239
0.10503836 -8.90233e-05 -0.09848 0.1514744 0.12935701 0.10695098 -0.0811867 0.15476163
-0.06519127 0.09693124 0.08460987 -0.17265405 -0.017223313 -0.014840453 0.13390271 -0.06869969
-0.10968428 -0.055639308 0.15816565 0.10411004 -0.05191292 0.09929736 -0.041058782 -0.07641971
-0.061733633 -0.10323894 0.11366935 0.13111344 0.0941179 -0.012872675 0.0872125 0.04545916
0.06018766 -0.054085243 0.19520336 -0.033299252 0.14207274 -0.06525366 0.06706123 -0.042737134
0.21020187 0.075529166 -0.089209616 0.07566548 -0.023793424 0.024991283 0.11786092 0.1777519
-0.11749511 0.092401445 0.11516634 -0.042008974 0.1036926 0.22404298 -0.058597 0.13500321
0.05787216 2.3315595e-32 0.011332925 -0.11080041 0.14158246 0.05267022 0.22744772 0.11191367
0.154062 0.155065 -0.0029121037 -0.10756691 0.039141588 0.075120606 0.00013120826 -0.13758592
0.12101873 -0.06343018 0.063883714 0.08612208 -0.042445052 -0.1126036 -0.07485146 0.045761976
00000000: 84b7 303e 68dd 1abe b8e8 a6bc ea9f 0d3e
00000010: 48fe b4bd adcc 073e 19cd 9c3d 4a7c 443e
00000020: 953d 213e 002a cdbb f0c2 cc3c 6de7 85bc
00000030: 6c24 473d 6319 473d abd3 483d 8507 b7bd
00000040: 34b0 b8bc f741 bb3d f3c6 abbd b112 f33d
00000050: 38c3 673d 1bbe 4fbc c63b 16bd 776d ddaa
00000060: 0659 babb 7355 a7bd d2b8 1c3e 5fd6 e33d
00000070: ffde 0c3e 9784 ee3c f776 943d db2e cd3c
00000080: d57e e4bc b9db 62bb 00a8 6d3c ceab 98bd
00000090: 1619 8fbc e9d1 b73d c695 e9bd b758 813d
000000a0: afe9 52bd 7347 3b3d 7892 07be 0891 f4bd
000000b0: 6e76 473d d454 6e3d f6bb 253e c472 e63d
000000c0: db58 46bc 7664 8037 434a 58bc 4800 3fbd
000000d0: 9b46 2fbd 179b 6ebc 8d94 6d3c 1156 3c3d
000000e0: e67e 063e 0d3b 113d 55f7 39bd 392a a5bc
000000f0: 2a4a a4bd bee1 043d 4d9d f43d 7125 1abd
00000100: 6628 87bd 5718 b33d e3e1 0d3d 45fb 2a3e
00000110: 3f98 f63c 7ea0 183e 5a83 423e a5a2 15bd
00000120: 634c 7c3c 28d9 f53d 0463 c03c 37cc a3bd
00000130: ba6c d03d 0d76 cfbc bb49 32bd b5c6 193e
00000140: ff60 08be 8d27 1cbe 2978 eb3d eb61 03be
00000150: c5e4 d53d c620 8b3d 1f14 303e 8fb1 cbbc
00000160: 4d53 cb3d f18f 183e 0f97 193e 8169 0dbe
00000170: b3d8 1d3e 5f8f 033e bde2 ea3d e30d 4e3e
00000180: 3daa f33d 3bab ebbd 9d5b 123e 38c6 133e
00000190: a738 8a3d 9dab 09bd 3ebf 073e 4926 eabd
000001a0: f638 78bd fd73 b603 12b9 38bc 5f5f 00bd
000001b0: dea3 d4bc bf32 453e 67a5 503d f138 babd
000001c0: f2a4 97bc c409 f33d d7d1 15bc 73d3 5f3d
000001d0: d453 fe3d cf22 503c 263e 7db6 213c fa3d
000001e0: a978 f3bd a3fd ea3d 5cb8 973d 1068 0cbd
000001f0: 1788 1bbd 5272 2f3c ff80 59bc bf17 0e3d
00000200: 4759 ec3b c9f6 653d 47e2 96bc 201a c03d
00000210: 8c5e 133e 5cf6 b0bd 916d fd3d e89c 5c3d
00000220: e10f 4ebd 55dc 683d 5b56 2bbe af8c da3d
00000230: 076a bc3d 7a9e e43c 034a 4bbd a0e9 32bd
00000240: ee5a 4bbb 2980 643e 8ec1 3abd 8d40 c7bd
00000250: 89fb d13d 5fc1 bc3d 92d3 0fbe 24e7 0233
00000260: f2b2 8bba a810 a9bd b540 3bbe 2715 553d
00000270: 4249 36bd 32f2 743d b9dc ed3d 7fea 713d
00000280: 94c8 a03d c77f f1bd d949 83bd ec81 013e
00000290: 6999 a63c ca9a 22be 00d7 fcbd 7f6e 0ebe
000002a0: 07b7 593e 9bc4 f53d 2c06 ca3d f029 b13d
000002b0: bfca 80bd 005f 883d 3e44 1c3e 6de5 363d
000002c0: 5a1e d73d 05b2 bab8 e2af c9bd 1b1c 1b3e
000002d0: 2a76 043e 1e09 db3d 3645 a6bd d579 1e3e
000002e0: 0083 85bd e383 c63d f147 ad3d 39cc 30be
000002f0: e817 8dbc 5f25 73bc cb1d 093e 6cb2 8cbd
00000300: 27a2 e0bd 0be6 63bd 2df6 213e a537 d53d
00000310: a4a2 54bd 6a5c cb3d 412d 28bd f081 9cbd
00000320: 68dc 7cbd f06e d3bd 7acb e83d 9a42 063e
00000330: e3c0 c03d eae7 52bc 789c b23d 6233 3a3d
00000340: 5687 763d 7d88 5dbd 64e3 473e cc64 08bd
00000350: 847b 113e b6a3 85bd 6657 893d 220d 2fbd
00000360: 293f 573e 09af 9a3d 88b3 b6bd 81f6 9a3d
00000370: 6dea c2bc 85ba cc3c 1161 f13d 9804 363e
00000380: 47a1 f0bd f83c bd3d 54dc eb3d 9a11 2cbd
00000390: c95c d43d 866b 653e 6803 70bd 483e 0a3e
000003a0: 5c0b 6d3d 7c1f f20a bcad 393c 53eb e2bd
000003b0: fefa 103e bbbc 573d 0ee8 683e ff32 e53d
000003c0: 6ec2 1d3e 5cc9 1e3e fed8 3ebb 0a4c dcbd
000003d0: ee52 203d d5d8 993d f394 0939 53e3 0cbe
000003e0: abd8 f73d afe7 81bd 77d5 823d c660 b03d
000003f0: ddda 2dbd b79c e6bd b94b 99bd e970 3b3d

net.6.bias f4 [64]
0.11921158 0.015913634 0.004147598 0.019363288 0.07664558 -0.03454108 0.015532038 0.03606841
0.0721125 -0.080491155 -0.069856234 -0.015150334 -0.022790825 -0.024589546 -0.039260887 0.019629996
0.010589486 0.05106561 0.020788742 0.054294292 -0.027142322 0.097552456 0.10881877 -0.07027966
0.047155645 0.05687756 -0.047592696 -0.009957675 -0.0064477073 -0.00083940796 0.08477369 -0.031893734
-0.0035013575 -0.031544592 0.036240153 0.058574736 0.058965623 -0.035265338 -0.01298218 0.05025169
0.08346626 -0.031745557 0.07166498 0.061918713 -0.012394419 -0.02596913 0.054423567 -0.052313786
-0.038492266 0.05485715 0.05570152 0.050795607 0.07019921 -0.053882606 -0.044474583 0.023785632
-0.0027704423 0.09256584 0.048657313 -0.007435866 0.03535343 0.05511889 0.01820733 -0.068494275
00000000: 3325 f43d 4f5d 823c 93e8 873b c29f 9e3c
00000010: 5cf8 9c3d f37a 0dbd 177a 7e3c 78bc 133d
00000020: b8af 933d 8cd8 a4bd c910 8fbd 1b39 78bc
00000030: d3b3 babc 0470 c9bc 06d0 20bd 16cf a03c
00000040: 867f 2d3c 2c2a 513d 274d aa3c b163 5e3d
00000050: 9359 debc 95c9 c73d 60dc de3d c8ee 8fbd
00000060: 4726 413d 72f8 683d 8ff0 42bd 8425 23bc
00000070: 4a47 d3bb b70b 5cba d49d ad3d 01a3 02bd
00000080: 0877 65bb e734 01bd 8e70 143d 10ec 6f3d
00000090: f085 713d 6372 10bd 36b3 54bc b7d4 4d3d
000000a0: 5cf0 aa3d a107 02bd 17c5 923d 7a9e 7d3d
000000b0: f611 4bbc 37bd d4bc 3feb 5e3d fb46 56bd
000000c0: 11aa 1dbd e4b1 603d 4727 643d 0e0f 503d
000000d0: 9ac4 8f3d 02b4 5cbd fb2a 36bd 16da c23c
000000e0: 4f90 35bb 2993 bd3d e44c 473d 91a8 f3bb
000000f0: c2ce 103d 58c4 613d 8a27 953c ba46 8cbd

net.8.weight f4 [20, 64]
0.12243254 -0.16774864 0.11823967 -0.020757582 0.073682375 -0.05374815 0.033634383 -0.0032518732
-0.0901421 -0.02507233 0.1485699 -0.16635415 0.11714271 0.04713655 -0.0054495707 0.0584619
0.074936904 -0.2204161 -0.14642432 0.17126057 -0.17116015 0.16734527 0.058595255 0.13292597
-0.17218897 0.05078221 -0.050144594 -0.044828642 0.08037422 -0.041552126 -0.080306344 -0.014232836
0.08704009 -0.021051526 -0.10547915 0.16269046 -0.029894752 -0.0543062 0.085025795 -0.17706431
-0.050184336 -0.1382109 0.1345758 -0.22454017 -0.13474084 0.07616831 -0.3300946 0.10352917
0.015970867 -0.09029328 -0.14444654 -0.26051563 0.09518029 0.050481465 -0.0817978 -0.0066569913
0.037383664 0.12379675 0.0075809425 -0.022003103 0.20835891 -0.12532566 -0.21954836 0.13247374
0.042363066 -0.10731948 -0.02070894 -0.12641157 0.12333736 -0.26924562 -0.11559267 -0.18291071
-0.2516754 -0.17049311 -0.1271384 -0.013231631 -0.053460192 0.044125523 0.15829103 0.054736488
-0.012985325 -0.030174995 0.15794012 -0.015858898 -0.18412781 -0.16000713 0.16185732 -0.18676393
0.13175201 -0.01463725 -0.07235416 0.06815857 -0.11468876 -0.05398593 -0.027382722 0.020867217
-0.23185222 0.02157037 -0.09497506 -0.12179571 -0.04705581 0.012787297 -0.047354355 0.07934127
-0.23986068 0.148127 0.01654204 0.10761773 -0.11340124 -0.17498685 0.10575905 -0.067895874
-0.1893237 0.062646925 0.21836369 0.1073585 0.19352013 -0.079892606 0.06758931 0.15257157
-0.23089895 -0.1411514 -0.07324298 0.01654624 -0.24915256 0.08151219 0.19850762 -0.1064608
-0.20425531 -0.27004212 -0.2281008 0.000680808 0.09520389 0.19007607 0.17281367 0.08111287
-0.21202254 -0.00814418 -0.18420704 -0.2385635 0.15479375 0.12990288 -0.0077212374 -0.034456253
-0.138023 0.19642927 -0.12071505 -0.18486038 0.14531903 0.110012084 0.1233166 -0.19106893
0.06173856 -0.07350431 0.061786294 0.086051 0.12512913 -0.08703911 -0.046480116 -0.15402521
-0.10648312 -0.17818497 0.089939006 -0.22057325 0.019448357 0.056598645 -0.0017545818 -0.2161437
0.14451015 -0.08682232 0.15151586 -0.042135138 0.0918869 -0.18528073 -0.0926162 -0.13483195
-0.18838003 0.10026473 0.067323014 0.1293241 0.0740673 -0.12568155 -0.10885242 -0.09040598
-0.18900177 -0.11287965 0.10765772 0.0533595 -0.107285075 -0.09058502 -0.10464735 0.073936544
-0.2792757 -0.033713583 -0.1706938 -0.16684027 0.08355422 -0.15150623 -0.11586347 0.16807422
-0.015991697 0.08741327 -0.001606977 -0.16972151 -0.19151175 0.048838485 -0.080636755 -0.038779214
-0.07697336 0.14488947 0.17096196 0.17391847 0.12153947 0.15512532 0.014231618 -0.08283003
0.09369018 0.09928949 -0.060830623 0.10029197 0.063198164 0.029173966 0.1479941 -0.16852544
0.02486578 0.09796855 0.15891656 -0.26153326 -0.24670531 -0.059771165 -0.053098343 0.08143735
-0.20598556 -0.19980817 0.059979673 -0.090516545 -0.035602547 0.04606361 -0.109427005 -0.0037098816
-0.05054238 -0.0696751 -0.051365677 -0.109774955 0.104795545 0.07323668 -0.054204796 0.06979895
-0.20115931 0.052946296 -0.24090643 0.16301851 0.075863406 -0.1871079 -0.15395944 -0.11288962
00000000: e9bd fa3d 4dc6 2bbe a427 f23d ce0b aabc
00000010: c9e6 963d 0527 5cbd 35c4 093d 611d 55bb
00000020: 6c9c b8bd 7d64 cdbc b522 183e be58 2abe
00000030: 84e8 ef3d 4112 413d 5092 b2bb bf75 6f3d
00000040: 8578 993d c2b4 61be 42f0 15be ee5e 2f3e
00000050: 9b44 2fbe 8f5c 2b3e 9401 703d bf1d 083e
00000060: 4e52 30be 0201 503d 6b64 4dbd 3d9e 37bd
00000070: 3d9b a43d 9032 2abd a777 a4bd d730 69bc
00000080: 1342 b23d 4074 acbc 7405 d8bd 5498 263e
00000090: d7e5 f4bc 2e70 5ebd 0122 ae3d 5950 35be
000000a0: 178e 4dbd 2887 0dbe 3dce 093e dced 65be
000000b0: 81f9 09be 22fe 9b3d 2902 a9be 1a07 d43d
000000c0: 56d5 823c afeb b8bd cbe9 13be 4e62 85be
000000d0: e2ed c23d a7c5 4e3d 9b85 a7bd e422 dabb
000000e0: 9d1f 193d 2789 fd3d 8e69 f83b da3f b4bc
000000f0: 0a5c 553e 5f55 00be 49d1 60be 32a7 073e
00000100: e584 2d3d 51ca dbbd cca5 a9bc 0972 01be
00000110: 4c98 fc3d 90da 89be dabb ecbd f24c 3bbe
00000120: 99db 80be bf95 2ebe 9230 02be 7cc9 58bc
00000130: 13f9 5abd f7bc 343d 0b17 223e 5e33 603d
00000140: 67c0 54bc 8d31 f7bc 0ebb 213e 85ea 81bc
00000150: 008c 3cbe e9d8 23be edbd 253e 0b3f 3fbe
00000160: 00ea 063e 14d1 6fbc 6b2e 94bd b896 8b3d
00000170: f1e1 eabd 5a20 5dbd bb51 e0bc baf1 aa3c
00000180: ab6a 6dbe 58b4 b03c 4982 c2bd 0770 f9bd
00000190: 98bd 40bd d081 513c a4f6 41bd ad7d a23d
000001a0: 0a9e 75be 9bae 173e 2c83 873c af66 dc3d
000001b0: e93e e8bd c12f 33be 3398 d83d fe0c 8bbd
000001c0: 12de 41be 084d 803d bb9a 5f3e c6de db3d
000001d0: 242a 463e bc9e a3bd 446c 8a3d b93b 1c3e
000001e0: c670 6cbe fe89 10be 6a00 96bd fb8b 873c
000001f0: d921 7fbe ddef a63d 9545 4b3e 1f08 dabd
00000200: 4e28 51be f642 8abe 4293 69be 4078 323a
00000210: 42fa c23d 4da3 423e 11f6 303e 811e a63d
00000220: 701c 59be 2b6f 05bc c5a0 3cbe fd49 74be
00000230: 4182 1e3e 4305 053e 6f02 fdbb 0022 0dbd
00000240: e755 0dbe c124 493e 7439 f7bd 0a4c 3dbe
00000250: 83ce 143e 044e e13d 6a8d fc3d 93a7 43be
00000260: 93e1 7c3d 6d89 96bd a013 7d3d 823b b03d
00000270: da21 003e 9041 b2bd ef61 3ebd c9b8 1dbe
00000280: d213 dabd 1f76 36be f131 b83d f4dd 61be
00000290: 2952 9f3c fbd3 673d fff9 e5ba c654 5dbe
000002a0: 78fa 133e e7cf b1bd f926 1b3e e595 2cbd
000002b0: 332f bc3d 3bba 3dbe 90ad bdbd 6311 0abe
000002c0: b2e6 40be 9857 cd3d a6e0 893d 896d 043e
000002d0: 99b0 973d aab2 00be 04ee debd c526 b9bd
000002e0: ae89 41be 722d e7bd a77b dc3d 7e8f 5a3d
000002f0: 47b8 dbbd a484 b9bd 5a51 d6bd 0b6c 973d
00000300: 39fd 8ebe 4117 0abd 5bca 2ebe 2dd8 2abe
00000310: 7a1e ab3d 7324 1bbe d449 edbd a61b 2c3e
00000320: 0501 83bc ba05 b33d 33a1 d2ba 7acb 2dbe
00000330: a81b 44be dd0a 483d e224 a5bd f4d6 1ebd
00000340: 35a4 9dbd e85d 143e a710 2f3e af17 323e
00000350: b0e9 f83d 2cd9 1e3e bb2b 693c caa2 a9bd
00000360: a3e0 bf3d 4a58 cb3d 8829 79bd e065 cd3d
00000370: 0a6e 813d 3efe ee3c c48b 173e ef91 2cbe
00000380: 52b3 cb3c bca3 c83d 06bb 223e b0e7 85be
00000390: 51a0 7cbe 9cd2 74bd a67d 59bd a0c8 a63d
000003a0: e1ed 52be 839a 4cbe 3fad 753d bd60 b9bd
000003b0: fad3 11bd 32ad 3c3d 441b e0bd 7c21 73bb
000003c0: 8705 4fbd d2b1 8ebd d164 52bd b1d1 e0bd
000003d0: 0c9f d63d 1dfd 953d d905 5ebd c0f2 8e3d
000003e0: b5fc 4dbe 37de 583d 2db0 76be 53ee 263e
000003f0: 465e 9b3d 3799 3fbe 8ba7 1dbe ac32 e7bd

net.8.bias f4 [20]
-0.11048152 0.12938704 0.10194188 -0.004536645 0.0067450604 -0.10269336 0.09143872 0.04169833
0.09864623 -0.10039985 -0.029899448 0.1300822 0.1078664 -0.050298426 0.07983701 -0.025097873
0.07382152 0.088373154 -0.10041496 -0.101196244
00000000: 2344 e2bd 097e 043e e8c6 d03d 23a8 94bb
00000010: ab05 dd3b e550 d2bd 3944 bb3d decb 2a3d
00000020: 0907 ca3d 709e cdbd b0ef f4bc 4534 053e
00000030: 0fe9 dc3d b905 4ebd 9681 a33d 0e9a cdbc
00000040: bd2f 973d fcfc b43d 5ca6 cdbd fa3f cfbd
