models/model_1.pth (torch, 577485 bytes, 8 tensors)

net.0.weight f4 [256, 394]
0.0030547949 0.060095813 0.017028699 0.060760587 0.0417503 0.024430895 0.0048225084 0.015091873
-0.038307983 0.07714928 0.04962268 0.06710914 -0.024570534 0.010806976 -0.014280107 -0.10716311
0.08647975 0.044324815 -0.031245045 -0.050119024 -0.045099124 -0.019673277 0.0328042 -0.029808857
0.04637452 -0.025321385 0.04143371 0.079528265 0.089869745 -0.012588623 0.004626969 -0.0071936976
-0.047461763 -0.013430112 -0.07175068 0.049865168 0.028242322 0.06475226 -0.1704708 -0.04728193
0.046827592 0.019901156 0.0329879 -0.046387058 -0.102255754 0.063937806 0.049675867 0.051000047
0.12367379 0.0212158 0.05300953 0.03894153 0.07040165 -0.008205986 -0.023647796 -0.17816487
-0.033435717 -0.035233628 0.05807164 0.028412975 -0.03715207 0.07957853 -0.0335649 -0.04414404
0.026893267 -0.028115336 0.063931614 -0.022150772 -0.086876206 0.016266275 -0.03318849 -0.024051512
0.03136038 0.007564806 0.05546647 0.05523144 0.06161844 -0.027149368 0.008932845 0.07906523
0.03492239 0.047541104 0.06003227 -0.04409723 -0.011858511 0.05246895 -0.052294817 -0.038073543
-0.022856021 0.046518963 0.034780074 0.097764745 0.033226606 -0.038576994 -0.0051449123 -0.038796797
0.125164 0.076575875 0.036389887 -0.023276811 0.07843145 0.034992322 0.0612055 -0.04069279
-0.00023101414 0.050560102 0.06005328 0.07163106 0.09755137 0.03733762 -0.014564989 0.036366466
0.06990255 -0.09240299 -0.032741018 -0.03534606 -0.01712891 -0.017563555 0.06619668 0.052710503
0.065464005 -0.06659167 0.10669394 -0.024895348 -0.029934766 -0.09272569 0.06495093 0.060567997
0.041519232 0.088943295 0.07032021 0.026771596 -0.06666799 -0.14009954 -0.063565984 0.041926745
0.08769905 -0.052783523 -0.047039054 -0.0323784 0.016181985 0.016309792 -0.067226596 0.011381925
-0.022046741 -0.023893816 0.040327348 0.059070203 0.021371258 0.034867387 -0.10661181 0.028127689
0.04440091 0.059275467 0.026558535 0.07826983 0.02394178 -0.03321826 0.03252146 0.04469629
0.044147342 -0.0025738713 -0.04506615 0.11822712 0.067144014 0.14109702 0.06164821 0.06207072
0.03101555 0.13409203 -0.06765321 0.04640509 -0.068407536 -0.060419925 0.048412632 0.022114128
0.023833869 0.036718745 0.015011081 0.038456485 0.021649018 0.031081267 -0.050813008 0.052444767
-0.045212585 -0.04504143 -0.037347183 0.04068148 -0.07763406 -0.009757332 0.012206186 -0.013573694
0.067654766 0.004988869 -0.0650067 -0.04243898 -0.079659306 -0.034692008 -0.02828595 -0.016582405
0.057656813 0.08098747 -0.041474048 -0.010386039 -0.059031542 0.063106164 -0.010368157 -0.121591896
0.050797198 0.04956404 -0.016771499 0.075865194 0.039863534 -0.04215267 0.065875426 0.05212088
0.09166063 0.010594608 0.13204697 -0.06487713 0.0064982143 -0.0391658 -0.15621063 -0.0125383055
-0.02380531 -0.09092324 0.0687489 -0.0041168765 0.085794054 -0.036745667 0.053502135 0.12634149
0.013705998 -0.06527882 0.06118433 0.037594512 -0.037709218 -0.06360809 -0.030889409 -0.039229292
0.05577051 -0.02199309 0.016492313 -0.042575974 0.08624729 -0.012188211 -0.058854878 -0.04577282
-0.09724806 -0.007803476 0.07476167 0.036372248 -0.037599053 0.014884083 -0.04172371 0.07424234
00000000: f432 483b 0727 763d c57f 8b3c 18e0 783d
00000010: 5d02 2b3d 4d23 c83c 2206 9e3b e743 773c
00000020: d5e8 1cbd 7100 9e3d 2741 4b3d 8470 893d
00000030: 2548 c9bc be0f 313c 1cf7 69bc 5578 dbbd
00000040: 4c1c b13d f08d 353d 9cf5 ffbc 9b49 4dbd
00000050: dcb9 38bd da29 a1bc b25d 063d b431 f4bc
00000060: 35f3 3d3d cb6e cfbc 65b6 293d b7df a23d
00000070: a10d b83d 8340 4ebc d49d 973b 1cb9 ebbb
00000080: 4467 42bd f909 5cbc 05f2 92bd 6b3f 4c3d
00000090: 715c e73c d59c 843d e68f 2ebe b2aa 41bd
000000a0: 4ace 3f3d c007 a33c 521e 073d 5b00 3ebd
000000b0: 776b d1bd d3f1 823d ec78 4b3d 6de5 503d
000000c0: af48 fd3d c2cc ad3c 8520 593d 2781 1f3d
000000d0: be2e 903d 6672 06bc 06b9 c1bc da70 36be
000000e0: e4f3 08bd 2351 10bd 87dc 6d3d 54c2 e83c
000000f0: c52c 18bd 11fa a23d 597b 09bd 62d0 34bd
00000100: 454f dc3c 2252 e6bc 94ee 823d 8975 b5bc
00000110: 27ec b1bd da40 853c a7f0 07bd ad07 c5bc
00000120: be73 003d 31e2 f73b cf30 633d 5d3a 623d
00000130: 9e63 7c3d 5a68 debc 115b 123c f4ec a13d
00000140: c80a 0f3d 76ba 423d 66e4 753d 4c9f 34bd
00000150: 334a 42bc afe9 563d 1733 56bd 01f3 1bbd
00000160: 8d3c bbbc ab8a 3e3d 8d75 0e3d e238 c83d
00000170: 9f18 083d e902 1ebd a796 a8bb 64e9 1ebd
00000180: fe2a 003e d0d3 9c3d 900d 153d 03af bebc
00000190: aba0 a03d 1c54 0f3d 9eb2 7a3d 7cad 26bd
000001a0: 633c 72b9 1c18 4f3d 6efa 753d 4eb3 923d
000001b0: 03c9 c73d 55ef 183d fea1 6ebc 01f5 143d
000001c0: 1129 8f3d c73d bdbd 721b 06bd 08c7 10bd
000001d0: ee51 8cbc 72e1 8fbc 2092 873d f8e6 573d
000001e0: fe11 863d 3761 88bd 5a82 da3d 54f1 cbbc
000001f0: c139 f5bc f7e6 bdbd fe04 853d 2616 783d
00000200: 1210 2a3d e727 b63d 0b04 903d 1b50 db3c
00000210: 3a89 88bd 4176 0fbe e22e 82bd 61bb 2b3d
00000220: 8f9b b33d 8933 58bd 06ac 40bd 379f 04bd
00000230: 1590 843c 1d9c 853c 19ae 89bd 417b 3a3c
00000240: 5e9b b4bc f7bc c3bc 4a2e 253d 99f3 713d
00000250: c712 af3c 1bd1 0e3d 4b57 dabd 0a6c e63c
00000260: bbdd 353d d5ca 723d 4991 d93c ef4b a03d
00000270: 8d21 c43c df0f 08bd 3935 053d 7513 373d
00000280: d8d3 343d 65ae 28bb 4997 38bd 0f21 f23d
00000290: cd82 893d bd7b 103e d582 7c3d de3d 7e3d
000002a0: 5314 fe3c 6c4f 093e c48d 8abd 4313 3e3d
000002b0: 4019 8cbd e27a 77bd 534c 463d b028 b53c
000002c0: 3f3f c33c 6566 163d 09f1 753c 8c84 1d3d
000002d0: 4859 b13c 249e fe3c 4d21 50bd 53d0 563d
000002e0: d530 39bd 5d7d 38bd 5cf9 18bd a0a1 263d
000002f0: 9bfe 9ebd 37dd 1fbc 74fc 473c 3364 5ebc
00000300: 958e 8a3d ab79 a33b 3c22 85bd 7fd4 2dbd
00000310: 6b24 a3bd 3519 0ebd f0b7 e7bc d3d7 87bc
00000320: 8d29 6c3d c2dc a53d b1e0 29bd 342a 2abc
00000330: 0fcb 71bd ce3d 813d 34df 29bc 2c05 f9bd
00000340: b910 503d aa03 4b3d 6264 89bc 365f 9b3d
00000350: f247 233d 47a8 2cbd b2e9 863d b47c 553d
00000360: 92b8 bb3d 0295 2d3c 5237 073e 4dde 84bd
00000370: f9ee d43b 516c 20bd aef5 1fbe 776d 4dbc
00000380: 5a03 c3bc f735 babd 39cc 8c3d dde6 86bb
00000390: cbb4 af3d a082 16bd 0e25 5b3d aa5f 013e
000003a0: 1f8f 603c e7b0 85bd 6c9c 7a3d b4fc 193d
000003b0: fb74 1abd f544 82bd c90b fdbc e5ae 20bd
000003c0: 9e6f 643d da2a b4bc e31a 873c 2564 2ebd
000003d0: 6ba2 b03d 10b1 47bc d011 71bd 487c 3bbd
000003e0: fe29 c7bd 4db4 ffbb a51c 993d 11fb 143d
000003f0: 7701 1abd 5edc 733c 7be6 2abd 5e0c 983d

net.0.bias f4 [256]
0.06447552 0.08771071 0.1207826 0.06958564 0.04020443 0.09690671 0.097408175 0.05596719
0.072889596 0.059141487 0.056866936 0.10319964 0.06503276 0.038694035 0.06335317 0.11092134
0.0420715 0.07741538 0.05236118 0.1109742 0.0321127 0.10381978 0.08916312 0.09965443
0.08474552 0.092080966 0.08857546 0.089421 0.115130134 0.0930869 0.045566093 0.0533875
0.07130343 0.081827566 0.05908068 0.12467463 0.093992725 0.05511399 0.053765252 0.04277253
0.0475541 0.06377345 0.1115961 0.053253837 0.036511466 0.03280925 0.07850105 0.05539464
0.06474772 0.12789492 0.09963911 0.04308289 0.06894565 0.03122752 0.073374376 0.050160516
0.11872428 0.09894766 0.0645287 0.034112405 0.04334339 0.06758816 0.06409905 0.040384553
0.10584231 0.018404514 0.048236705 0.068180725 0.04089711 0.090903126 0.041054618 0.07933324
0.08505413 0.085469864 0.039772864 0.09533294 0.08521536 0.034050666 0.050696824 0.1382746
0.08973882 0.075475805 0.037155606 0.040163167 0.06231345 0.10775954 0.032856405 0.10118794
0.040615704 0.0044870297 0.03185762 0.06828457 0.042821083 0.10921605 0.09862349 0.030094182
0.105909824 0.09232561 0.07145911 0.09441628 0.10661087 0.10541582 0.07437261 0.056537163
0.077345744 0.07975485 0.095553495 0.041969817 0.051165592 0.12435333 0.09917625 0.064718194
0.028839769 0.051344525 0.036772206 0.06429173 0.07828202 0.096703604 0.020343093 0.09290208
0.07669931 0.056143746 0.041688967 0.041431382 0.09329548 0.09360833 0.08437991 0.07509701
0.065585434 0.037246183 0.09733567 0.044410575 0.047231916 0.04061278 0.097838536 0.088164456
0.067466445 0.10982126 0.03633442 0.041801862 0.120780244 0.07308589 0.07264471 0.036255587
0.109910175 0.0519116 0.097348444 0.08016474 0.087803096 0.10110914 0.089284286 0.07581792
0.05806483 0.060921002 0.024793005 0.05337678 0.071520075 0.086143665 0.07014989 0.05982412
0.038010214 0.07238095 0.0374488 0.028011855 0.04401353 0.06837432 0.096896045 0.061860017
0.11883623 0.03415455 0.08363459 0.082888626 0.08222794 0.037631445 0.08395248 0.07143086
0.08820268 0.06495031 0.0200229 0.09415408 0.06449111 0.060839172 0.051570058 0.073101014
0.03970654 0.044010155 0.039278165 0.12161229 0.03651662 0.046349768 0.10202632 0.11198231
0.04722912 0.059760865 0.09954229 0.030134678 0.04007794 0.08347151 0.061356157 0.06375501
0.07185244 0.008159546 0.10351059 0.07245914 0.05884182 0.058554437 0.06683807 0.09831093
0.088737644 0.055307142 0.08751754 0.07440008 0.091955446 0.020175979 0.0511099 0.05854815
0.023765203 0.10468345 0.07495997 0.08181645 0.08690168 0.053742968 0.050924312 0.07017731
0.08917648 0.06250426 0.059832327 0.07870635 0.058410473 0.046573278 0.11958783 0.105667345
0.09766113 0.02498761 0.093255095 0.06885322 0.03401715 0.05894054 0.09376271 0.06171977
0.040365305 0.050894197 0.07282395 0.09820091 0.11455538 0.10265154 0.10060429 0.055422597
0.040986594 0.05401749 0.072539516 0.057599276 0.058308247 0.1307902 0.07398418 0.08926599
00000000: be0b 843d aca1 b33d de5c f73d eb82 8e3d
00000010: 67ad 243d 0677 c63d f07d c73d da3d 653d
00000020: 2447 953d 583e 723d 4eed 683d 555a d33d
00000030: e52f 853d a37d 1e3d 4fbf 813d ba2a e33d
00000040: 2a53 2c3d f48b 9e3d ad78 563d 7146 e33d
00000050: 9b88 033d 779f d43d 279b b63d 9f17 cc3d
00000060: 0f8f ad3d f294 bc3d 0d67 b53d 5b22 b73d
00000070: 59c9 eb3d 58a4 be3d 83a3 3a3d daac 5a3d
00000080: 8807 923d 3695 a73d 95fe 713d 6a55 ff3d
00000090: 427f c03d 35bf 613d f438 5c3d 4032 2f3d
000000a0: 17c8 423d a89b 823d 7f8c e43d b220 5a3d
000000b0: 0c8d 153d fe62 063d 29c5 a03d 7de5 623d
000000c0: 749a 843d e3f6 023e 970f cc3d af77 303d
000000d0: 6033 8d3d dbd0 ff3c 4e45 963d 1d75 4d3d
000000e0: b725 f33d 12a5 ca3d a027 843d 73b9 0b3d
000000f0: d788 313d a96b 8a3d 5d46 833d 466a 253d
00000100: dac3 d83d 10c5 963c da93 453d 56a2 8b3d
00000110: ba83 273d 6b2b ba3d e328 283d 7779 a23d
00000120: dc30 ae3d d30a af3d dfe8 223d eb3d c33d
00000130: 6485 ae3d b678 0b3d 79a7 4f3d db97 0d3e
00000140: fdc8 b73d 0f93 9a3d 7a30 183d 2282 243d
00000150: 633c 7f3d 09b1 dc3d 7094 063d 9f3b cf3d
00000160: a75c 263d ef07 933b 237d 023d c8d8 8b3d
00000170: 2965 2f3d aaac df3d 1dfb c93d 1388 f63c
00000180: 40e7 d83d 3615 bd3d 2759 923d 535d c13d
00000190: cd56 da3d 40e4 d73d ab50 983d 8393 673d
000001a0: 7267 9e3d 8356 a33d 8db1 c33d 8be8 2b3d
000001b0: 0393 513d f5ac fe3d eb1c cb3d f98a 843d
000001c0: 6141 ec3c a34e 523d 749e 163d 62ab 833d
000001d0: 5352 a03d 8a0c c63d 8fa6 a63c 7243 be3d
000001e0: 8714 9d3d fcf6 653d 0dc2 2a3d f4b3 293d
000001f0: b311 bf3d b9b5 bf3d 60cf ac3d 76cc 993d
00000200: a851 863d 748f 183d ec57 c73d dde7 353d
00000210: 4176 413d 9659 263d 925f c83d 918f b43d
00000220: d92b 8a3d f8e9 e03d 67d3 143d 6e38 2b3d
00000230: a25b f73d 0eae 953d c0c6 943d bd80 143d
00000240: 9618 e13d 42a1 543d 9f5e c73d 692d a43d
00000250: 1cd2 b33d 4f12 cf3d aeda b63d 6d46 9b3d
00000260: 63d5 6d3d 4d88 793d b31a cb3c 9ca1 5a3d
00000270: 1e79 923d 176c b03d bfaa 8f3d 230a 753d
00000280: 99b0 1b3d 773c 943d ea63 193d 1e79 e53c
00000290: 8847 343d d607 8c3d 6f71 c63d ee60 7d3d
000002a0: 6960 f33d a4e5 0b3d 9d48 ab3d 83c1 a93d
000002b0: 1f67 a83d 6e23 1a3d 47ef ab3d 584a 923d
000002c0: 9ba3 b43d ab04 853d 1107 a43c dbd3 c03d
000002d0: ea13 843d 7f32 793d 203b 533d fcb5 953d
000002e0: 53a3 223d fe43 343d 24e2 203d dd0f f93d
000002f0: 7492 153d 41d9 3d3d 2df3 d03d fb56 e53d
00000300: 5273 413d cfc7 743d d4dc cb3d 00dd f63c
00000310: c428 243d 1cf3 aa3d 9850 7b3d fd91 823d
00000320: 5f27 933d 9eaf 053c 5cfd d33d 7565 943d
00000330: 1f04 713d c7d6 6f3d 66e2 883d 3e57 c93d
00000340: 15bc b53d be89 623d 653c b33d 125f 983d
00000350: 2353 bc3d 1848 a53c 9d58 513d 2fd0 6f3d
00000360: 3eaf c23c 4764 d63d 9d84 993d 628f a73d
00000370: 82f9 b13d 9621 5c3d 0396 503d 1fb9 8f3d
00000380: 29a2 b63d 3c02 803d be12 753d cb30 a13d
00000390: d23f 6f3d 9fc3 3e3d 77ea f43d 1f68 d83d
000003a0: 8f02 c83d d1b2 cc3c 87fc be3d eb02 8d3d
000003b0: 9155 0b3d a36b 713d aa06 c03d dfcd 7c3d
000003c0: 1756 253d 6f76 503d b924 953d 8f1d c93d
000003d0: 039c ea3d f83a d23d 9f09 ce3d ce02 633d
000003e0: 8fe1 273d 7241 5d3d 998f 943d 38ed 6b3d
000003f0: a1d4 6e3d deed 053e 0585 973d 16d1 b63d

net.3.weight f4 [128, 256]
-0.009726904 0.12167429 0.010877664 0.101079546 0.088830754 -0.042168584 0.068222284 0.04940101
0.057194017 -0.1431788 -0.1391296 -0.07561325 -0.056219496 0.00058041717 0.054160383 0.040216863
-0.070447005 0.047479134 -0.0406142 -0.028786123 0.059841663 -0.09536132 -0.100834556 -0.04168934
0.023368323 -0.0077117975 0.08470745 0.06814506 -0.1419947 -0.0927404 0.16599038 -0.10814324
0.053375088 0.07720602 -0.03249312 -0.05501264 -0.022260977 -0.11212306 -0.012177462 0.036609564
-0.12680796 -0.11263993 0.014932046 0.11564127 0.023783837 0.018894251 0.02443682 -0.04176025
-0.08577494 0.06436402 0.09867751 0.11958216 -0.092476696 0.032590777 0.0025317506 0.037253704
-0.12629224 -0.028334908 -0.01652888 -0.029438958 -0.13144605 -0.059263807 0.055982932 0.09416375
0.043581847 -0.0705935 -0.037858587 0.12185824 -0.014553164 -0.025626462 0.15969451 0.13695237
-0.09078861 -0.058745835 -0.01619097 -0.103510596 -0.14610946 0.06620105 -0.0035510098 0.100260384
0.11343571 0.08189885 0.14653757 -0.023055092 0.09618868 0.1541245 0.04993419 0.12770545
0.1345315 -0.0062962216 0.07548149 0.041224867 0.022479072 -0.13688277 0.10919877 0.05452381
-0.0793434 0.06378753 -0.12018311 0.06987547 0.11784356 0.03807932 0.00838233 -0.03029208
0.025697863 0.06650258 -0.060514543 0.007445364 0.09168886 -0.096811295 0.034662373 0.10211991
0.12241435 0.020353414 0.16446126 -0.009666915 -0.16200836 0.051367436 0.10192198 0.109346576
-0.025830373 0.051011734 -0.04547509 -0.113968305 0.041825924 0.09011582 -0.0039358344 0.03817651
0.08735106 -0.009147183 -0.04965788 0.09682298 -0.063414924 -0.1045544 0.042458646 0.10602661
0.021806683 0.009389347 0.037022296 -0.10816865 0.016109569 -0.037327282 -0.038349804 0.12191563
-0.017782431 0.033944566 0.0239748 0.0076504676 0.106725596 0.04622968 0.0836591 0.027012125
0.048818566 -0.00021045556 -0.038959894 0.011150598 0.08328472 0.06835885 -0.10869329 -0.017804312
0.08555224 0.055642523 -0.07152365 0.05954564 0.15032716 0.10390637 0.043342825 -0.0015033829
0.08079699 0.047499813 -0.06719195 0.022895984 -0.0920844 0.14968404 -0.06253905 -0.003624089
0.029108232 0.11892628 0.076956704 -0.056845643 0.12723538 -0.012967321 -0.025036173 0.054496594
0.08095039 -0.008534826 0.14520481 -0.08562668 0.060818855 0.031873796 -0.0127895 0.098848306
0.10951983 -0.015120516 -0.0016500644 0.016556961 0.10869211 0.10701992 -0.06657179 0.06564609
-0.024324555 0.09858958 -0.041182403 0.045523833 -0.03419738 -0.027740212 0.10164506 -0.05213205
-0.029073356 0.048515163 0.0993519 -0.072260045 -0.124259755 0.10936836 0.10916978 0.042943154
0.15480544 -0.035140082 -0.09280511 -0.054585706 0.0880129 0.068098955 0.060419325 0.0117978165
0.067781575 0.12637341 0.07285675 -0.054794982 0.08515845 0.063895196 0.05219748 0.045983445
-0.051827356 0.14773089 0.13994563 0.061201356 0.078132704 -0.049110193 -0.013823281 -0.06534213
0.08615574 -0.054327667 0.12660976 -0.041381065 0.09962964 -0.061263595 0.08273395 0.08901513
0.03406556 0.13211185 -0.015531215 0.131201 -0.019736161 -0.12828074 -0.06473616 -0.11220473
00000000: 985d 1fbc 5f30 f93d 3b38 323c cb02 cf3d
00000010: e6ec b53d f7b8 2cbd 20b8 8b3d b758 4a3d
00000020: 4644 6a3d 779d 12be fd77 0ebe 1fdb 9abd
00000030: 6a46 66bd 2327 183a 47d7 5d3d 70ba 243d
00000040: 8546 90bd 7b79 423d 135b 26bd e0d0 ebbc
00000050: 881c 753d cc4c c3bd 5982 cebd 71c2 2abd
00000060: ed6e bf3c 3fb3 fcbb 197b ad3d a38f 8b3d
00000070: 0f67 11be aeee bdbd 62f9 293e 347a ddbd
00000080: d69f 5a3d 311e 9e3d 8117 05bd ef54 61bd
00000090: a75c b6bc c6a0 e5bd fa83 47bc e9f3 153d
000000a0: f2d9 01be c3af e6bd 8aa5 743c 55d5 ec3d
000000b0: 52d6 c23c 1ec8 9a3c ba2f c83c cc0c 2bbd
000000c0: c6aa afbd 49d1 833d 6f17 ca3d 7ee7 f43d
000000d0: 6c64 bdbd e87d 053d baeb 253b 5797 183d
000000e0: c152 01be 9c1e e8bc 9367 87bc f829 f1bc
000000f0: cb99 06be 9bbe 72bd 5c4e 653d edd8 c03d
00000100: e182 323d 5393 90bd 9b11 1bbd d090 f93d
00000110: 6570 6ebc 96ee d1bc f586 233e 3e3d 0c3e
00000120: 61ef b9bd 799f 70bd eda2 84bc 5dfd d3bd
00000130: b89d 15be 6b94 873d 0fb8 68bb 5155 cd3d
00000140: fb50 e83d 96ba a73d f20d 163e 08de bcbc
00000150: 92fe c43d d0d2 1d3e cb87 4c3d 38c5 023e
00000160: a0c2 093e 8950 cebb 0a96 9a3d 68db 283d
00000170: 0826 b83c ff2a 0cbe 9ba3 df3d 5c54 5f3d
00000180: cb7e a2bd 09a3 823d 9022 f6bd df1a 8f3d
00000190: f757 f13d 10f9 1b3d 0a56 093c 1927 f8bc
000001a0: 5384 d23c 8132 883d 19de 77bd 3df8 f33b
000001b0: 5ec7 bb3d 0045 c6bd 22fa 0d3d 3e24 d13d
000001c0: 60b4 fa3d 34bc a63c 8868 283e fb61 1ebc
000001d0: 85e5 25be a966 523d 79bc d03d 19f1 df3d
000001e0: 389a d3bc aef1 503d 1744 3abd 3768 e9bd
000001f0: a951 2b3d a58e b83d 2cf8 80bb f95e 1c3d
00000200: 1de5 b23d 11de 15bc 1066 4bbd 204b c63d
00000210: afdf 81bd 9e20 d6bd 1ee9 2d3d 7b24 d93d
00000220: eea3 b23c c7d5 193c b1a4 173d 8687 ddbd
00000230: 37f8 833c 7ee4 18bd af14 1dbd e7ae f93d
00000240: 76ac 91bc 7509 0b3d cd66 c43c c6b0 fa3b
00000250: f392 da3d 555b 3d3d 7655 ab3d 8848 dd3c
00000260: faf5 473d bcad 5cb9 6994 1fbd ffb0 363c
00000270: 2e91 aa3d baff 8b3d 969a debd 59da 91bc
00000280: 0336 af3d 6ae9 633d fe7a 92bd 21e6 733d
00000290: 5def 193e ddcc d43d 3f88 313d 290d c5ba
000002a0: e478 a53d 2a8f 423d ef9b 89bd 5c90 bb3c
000002b0: bf96 bcbd c646 193e 7914 80bd 2082 6dbb
000002c0: 6374 ee3c 9f8f f33d 7a9b 9d3d fad6 68bd
000002d0: fe49 023e e374 54bc a918 cdbc d237 5f3d
000002e0: 51c9 a53d a8d5 0bbc 92b0 143e 0a5d afbd
000002f0: 311d 793d 198e 023d 0d8b 51bc fb70 ca3d
00000300: ef4b e03d 0abc 77bc f946 d8ba 77a2 873c
00000310: f899 de3d 432d db3d ca56 88bd 7571 863d
00000320: 4a44 c7bc 55e9 c93d e1ae 28bd 3377 3a3d
00000330: 8d12 0cbd 713f e3bc 492b d03d 6b88 55bd
00000340: 3f2b eebc d6b7 463d 0279 cb3d 13fd 93bd
00000350: e67b febd 85fc df3d 6894 df3d 29e5 2f3d
00000360: 5185 1e3e 0cef 0fbd 9b10 bebd 4395 5fbd
00000370: 1b40 b43d 7777 8b3d 417a 773d a14b 413c
00000380: 11d1 8a3d 0868 013e eb35 953d b470 60bd
00000390: 8e67 ae3d 7cdb 823d 06cd 553d 2359 3c3d
000003a0: ec48 54bd c446 173e e84d 0f3e 46ae 7a3d
000003b0: 0a04 a03d c527 49bd 0b7b 62bc 18d2 85bd
000003c0: 6c72 b03d b086 5ebd fda5 013e 317f 29bd
000003d0: a00a cc3d 89ef 7abd 6b70 a93d 914d b63d
000003e0: 5488 0b3d 5448 073e a376 7ebc 8e59 063e
000003f0: bbad a1bc 075c 03be 6494 84bd 98cb e5bd

net.3.bias f4 [128]
-0.0006081392 -0.0009611677 -0.012813492 0.060718723 0.072182134 -0.006077998 0.09535129 0.09612017
0.09480748 0.019428782 0.025290651 0.07698797 0.025125703 -0.015566671 0.08444395 0.036899548
0.044899177 0.08983841 0.05970741 0.058232296 0.068380356 0.019129211 0.06817656 0.02518097
-0.04748926 0.042866163 0.07377428 0.04383027 0.046830732 0.040728375 0.0049892897 0.081569575
0.059720222 -0.0011543608 0.10208687 0.07161417 0.009507301 0.043272976 0.0008994043 0.0058622435
-0.0046651633 0.081974596 0.003741613 0.06498018 0.07901584 -0.0038722511 0.05266513 0.006153766
0.053142905 0.039363336 0.008953545 0.045202404 0.07558672 0.05523965 0.015500524 0.07598752
0.074501395 -0.030243326 0.030132389 0.07171959 0.05737029 0.053473398 0.0021739954 0.08047639
0.0068754763 0.017358668 -0.002429099 0.042181008 0.026545595 0.062497362 0.083281346 0.02234968
0.036223285 0.0005883192 0.0068437145 0.06697857 0.10669161 -0.005107817 0.04811603 0.030127596
-0.053682063 0.06391518 -0.010920933 0.078993015 0.041094046 0.038270485 -0.023553068 -0.0030356057
0.07883696 0.022618078 0.032312173 0.012158181 0.044899374 -0.030572545 0.01078952 0.087889925
0.015620382 0.11444674 0.078188084 0.08211432 0.054627687 0.08898533 0.0063039726 0.09614462
0.053845473 0.060824286 -0.056654517 0.008025568 0.06441402 0.10392409 0.09351948 0.0849741
0.09138627 -0.005906319 0.0730529 0.0537891 0.04691505 -0.002560037 0.08649862 0.026545534
0.05931182 0.04012113 0.07255713 0.0474482 0.098649144 0.06080961 0.09187679 0.06398297
00000000: 886b 1fba dff6 7bba aeef 51bc 32b4 783d
00000010: 3ad4 933d f129 c7bb 8a47 c33d a7da c43d
00000020: 6d2a c23d 1c29 9f3c 572e cf3c deab 9d3d
00000030: 6bd4 cd3c 5a0b 7fbc f3f0 ac3d fb23 173d
00000040: 33e8 373d 33fd b73d c28f 743d fd84 6e3d
00000050: 000b 8c3d ddb4 9c3c 27a0 8b3d 5248 ce3c
00000060: 1984 42bd 6e94 2f3d f816 973d 5f87 333d
00000070: 95d1 3f3d ccd2 263d 327d a33b f30d a73d
00000080: 319d 743d ec4d 97ba ec12 d13d 73aa 923d
00000090: 83c4 1b3c 013f 313d 00c6 6b3a 1018 c03b
000000a0: 3ade 98bb 4ce2 a73d d935 753b 5414 853d
000000b0: 0fd3 a13d 98c5 7dbb 64b7 573d 88a5 c93b
000000c0: 60ac 593d 733b 213d e4b1 123c 2826 393d
000000d0: 36cd 9a3d f942 623d e9f5 7d3c 589f 9b3d
000000e0: 3094 983d dac0 f7bc 33d8 f63c b8e1 923d
000000f0: 1cfd 6a3d ec06 5b3d 9779 0e3b ced0 a43d
00000100: ad4b e13b c433 8e3c 8531 1fbb fec5 2c3d
00000110: 2676 d93c 3cfd 7f3d 698f aa3d ad16 b73c
00000120: de5e 143d 6f39 1a3a 3d41 e03b 0f2c 893d
00000130: 2181 da3d 795f a7bb 5015 453d 26ce f63c
00000140: b9e1 5bbd f6e5 823d b7ed 32bc 17c7 a13d
00000150: 3b52 283d 83c1 1c3d 5df2 c0bc 03f1 46bb
00000160: 4675 a13d 8c49 b93c c559 043d 1b33 473c
00000170: 68e8 373d 4673 fabc 87c6 303c a2ff b33d
00000180: a1ec 7f3c 0d63 ea3d 1321 a03d 8d2b a83d
00000190: 48c1 5f3d f13d b63d 8e91 ce3b 78e7 c43d
000001a0: 128d 5c3d e322 793d 910e 68bd ac7d 033c
000001b0: 7feb 833d 27d6 d43d 2487 bf3d e706 ae3d
000001c0: ba28 bb3d cb89 c1bb c29c 953d f651 5c3d
000001d0: ff29 403d 4bc6 27bb 3026 b13d 0576 d93c
000001e0: f3f0 723d 0e56 243d d598 943d 0b59 423d
000001f0: 9008 ca3d 7f13 793d e629 bc3d 8109 833d

net.6.weight f4 [64, 128]
0.1486654 0.18953273 -0.11247336 -0.060290363 0.12046163 0.05732967 -0.12897229 0.05713148
-0.11117142 0.0036624565 0.090754084 0.01906881 0.04738792 0.122490436 0.056282584 0.02388482
0.19430634 0.128151 0.1698098 -0.117733575 0.0059737843 0.17120233 -0.06447756 -0.10068875
0.24435979 0.19003461 0.06454278 0.07483405 -0.12883416 0.038367577 0.0058447337 -0.13257322
0.08978083 0.07225451 0.078608945 0.09794533 0.025939707 -0.11298354 0.026918216 0.020696372
0.019705117 -0.024711175 0.15722895 0.028062103 -0.11012121 -0.005703023 0.045359854 0.054139707
0.13981959 0.16645992 -0.08430895 0.010188247 -0.16542554 -0.0314487 0.071725756 0.17118067
0.057807673 -0.11026137 -0.094523296 0.11281204 -0.04225723 0.13072307 0.05561445 -0.08845129
0.08081648 -0.16984136 1.5710686e-05 0.042724542 0.07914507 0.1461688 -0.020419598 0.038892448
0.06323775 -0.08089259 0.036776487 0.06061895 0.081013836 0.12633958 0.13823488 0.007574051
0.03997749 0.07826247 0.004259493 0.09861312 -0.078426994 0.009182022 -8.8429355e-18 0.1319429
0.021317128 -0.11155441 0.16425984 -0.032700732 0.19934168 -0.0024884786 0.021157261 0.1445383
0.080800936 0.15790375 0.035973746 0.054038413 -0.014505423 -0.08779862 0.03604366 0.21034616
-0.04501271 0.13975938 0.05550692 -0.05935417 -0.1115905 0.13115871 -0.110339284 -0.07799255
0.16293094 0.005658542 0.014589204 -0.043476824 0.105486065 1.6586228e-38 0.010252807 -0.101051606
0.16148292 0.0029052005 0.10905725 0.017403148 0.064357564 0.1475541 0.12803832 0.16812469
0.020044787 -0.1176065 0.09271862 0.16137536 -0.13724585 0.035429414 0.18213822 0.122397386
0.13411723 0.15999712 0.080188304 0.1599741 -0.06646546 0.04278709 -0.021662097 -0.1132662
0.03503346 -0.09801698 -0.12028659 0.16324393 0.1597704 -0.020529708 0.2066928 0.098506846
0.015729645 -0.12442956 -0.028061677 -0.045429856 0.043316625 0.086804375 0.16886577 0.14945866
0.07032319 0.07108946 0.067621626 -0.10430034 -0.062408753 0.14029989 -0.029832104 0.02071362
-0.017670734 0.12141583 0.043598365 0.02702781 0.1202157 0.14572513 -0.0870127 0.08368071
-0.08146408 -0.059019383 0.050333183 0.10430558 0.18778956 0.08306881 0.0047205575 -0.1845106
0.14004275 0.17853269 0.091090634 -0.06254059 0.051119402 -0.047836263 -0.14291416 0.061773315
-0.033564813 0.18186767 -6.429201e-05 0.12588042 -0.11981145 0.032806464 -0.028678738 0.0036750196
0.007159586 0.17336471 0.1086896 -0.062528126 0.10590155 0.096439786 0.08904772 0.093759626
0.03117346 0.14345902 0.022070486 -0.056719683 0.13355249 0.14640279 1.6532858e-14 -0.14213213
-0.08485154 0.096567065 -0.06454891 -0.02933886 -0.14209425 0.04400486 0.061108366 -0.18316647
-0.05969113 -0.013042094 0.049754854 0.074616514 0.10150254 0.16905391 0.117384955 -0.097566105
0.13946858 -0.06863204 -0.10385746 0.12513494 0.06981112 -0.11356581 0.04233081 0.12883694
-0.1105334 0.12716001 0.14929822 -0.041299984 -0.016815115 3.6683326e-38 -0.064429075 0.092647254
0.018321386 0.1188429 0.07474579 -0.04222422 0.18015653 0.016095413 0.05747592 -0.06268283
00000000: be3b 183e de14 423e 6f58 e6bd 07f3 76bd
00000010: 96b4 f63d 84d2 6a3d 5011 04be b302 6a3d
00000020: d7ad e3bd d305 703b 47dd b93d 3136 9c3c
00000030: d619 423d 44dc fa3d 9188 663d 19aa c33c
00000040: 3ef8 463e 043a 033e 9fe2 2d3e 4d1e f1bd
00000050: bcbf c33b aa4f 2f3e d00c 84bd e735 cebd
00000060: 7439 7a3e 6f98 423e 012f 843d 9842 993d
00000070: 1aed 03be 5227 1d3d 2e85 bf3b 46c1 07be
00000080: 03df b73d 2cfa 933d bafd a03d 9097 c83d
00000090: 827f d43c ea63 e7bd 9783 dc3c 708b a93c
000000a0: a06c a13c 176f cabc a000 213e 7fe2 e53c
000000b0: 3b87 e1bd 6de0 babb 41cb 393d 99c1 5d3d
000000c0: de2c 0f3e 7874 2a3e 2caa acbd 9bec 263c
000000d0: 5065 29be 5ad0 00bd f4e4 923d fc49 2f3e
000000e0: bdc7 6c3d b7d0 e1bd 6e95 c1bd 000a e73d
000000f0: eb15 2dbd 45dc 053e facb 633d f325 b5bd
00000100: 1c83 a53d e5ea 2dbe 71ca 8337 eeff 2e3d
00000110: cf16 a23d 46ad 153e 0047 a7bc b04d 1f3d
00000120: cb82 813d 04ab a5bd f1a2 163d 934b 783d
00000130: 95ea a53d 2a5f 013e 728d 0d3e bf2f f83b
00000140: 70bf 233d 1348 a03d 3893 8b3b adf5 c93d
00000150: 559e a0bd 3170 163c 951f 23a3 0a1c 073e
00000160: 42a1 ae3c a376 e4bd bb33 283e 34f1 05bd
00000170: 3a20 4c3e be15 23bb fe51 ad3c d901 143e
00000180: f67a a53d 85b1 213e 3559 133d 6257 5d3d
00000190: 27a8 6dbc c3cf b3bd 84a2 133d fc64 573e
000001a0: 3f5f 38bd 151d 0f3e 395b 633d 5c1d 73bd
000001b0: 8f89 e4bd 784e 063e 90f9 e1bd 8fba 9fbd
000001c0: 5ed7 263e 4a6b b93b 8f07 6f3c c114 32bd
000001d0: 1409 d83d a89b b400 64fb 273c 25f4 cebd
000001e0: c75b 253e 2d65 3e3b 6859 df3d 0c91 8e3c
000001f0: e6cd 833d 6c18 173e 7a1c 033e e128 2c3e
00000200: f734 a43c addb f0bd 43e3 bd3d 953f 253e
00000210: 2d8a 0cbe 6f1e 113d 7182 3a3e 7bab fa3d
00000220: 0756 093e 49d6 233e c439 a43d 40d0 233e
00000230: 0b1f 88bd 8441 2f3d b674 b1bc 1cf8 e7bd
00000240: 3f7f 0f3d 20bd c8bd d158 f6bd 6b29 273e
00000250: da9a 233e eb2d a8bc 47a7 533e f5bd c93d
00000260: 75db 803c edd4 febd 9ae1 e5bc a814 3abd
00000270: c66c 313d 7ec6 b13d 26eb 2c3e b10b 193e
00000280: 9b05 903d 5a97 913d 357d 8a3d 6b9b d5bd
00000290: 52a0 7fbd c6aa 0f3e 7562 f4bc 9caf a93c
000002a0: 37c2 90bc dda8 f83d 3394 323d 6d69 dd3c
000002b0: a633 f63d f838 153e b733 b2bd cb60 ab3d
000002c0: a4d6 a6bd 4fbe 71bd 2b2a 4e3d 2a9e d53d
000002d0: e84b 403e fb1f aa3d e8ae 9a3b 59f0 3cbe
000002e0: 5e67 0f3e 46d1 363e ba8d ba3d 4815 80bd
000002f0: 9462 513d f5ef 43bd 1758 12be 0406 7d3d
00000300: 427b 09bd 853b 3a3e 83d4 86b8 cce6 003e
00000310: b55f f5bd 1260 063d acef eabc 99d8 703b
00000320: f69a ea3b 8586 313e a798 de3d bf0e 80bd
00000330: e9e2 d83d 3982 c53d a75e b63d 0c05 c03d
00000340: 7c5f ff3c ece6 123e 2acd b43c e652 68bd
00000350: fcc1 083e 9dea 153e 2dea 9428 168b 11be
00000360: a5c6 adbd f4c4 c53d 3832 84bd 0d58 f0bc
00000370: 2881 11be 713e 343d c44c 7a3d fe8f 3bbe
00000380: b07e 74bd 82ae 55bc bfcb 4b3d 8bd0 983d
00000390: 90e0 cf3d 781c 2d3e 8667 f03d bdd0 c7bd
000003a0: dad0 0e3e f48e 8cbd 38b3 d4bd 6023 003e
000003b0: 22f9 8e3d 3195 e8bd 1263 2d3d d5ed 033e
000003c0: 565f e2bd 3c36 023e a2e1 183e 2c2a 29bd
000003d0: dabf 89bc 18b9 4701 64f3 83bd d8bd bd3d
000003e0: bb16 963c e863 f33d 5214 993d 4ef3 2cbd
000003f0: f47a 383e 87da 833c df6b 6b3d db5f 80bd

net.6.bias f4 [64]
0.09755805 0.12106855 -0.013491001 0.03784331 0.01504213 -0.031118229 -0.007491831 -0.025849406
-0.009216907 0.106225744 0.05219653 0.017179875 -0.0022391435 -0.016103664 -0.038430355 0.05875188
0.04829086 0.11288028 0.099699415 0.043312386 -0.014010652 0.11125119 -0.03829471 0.02115575
-0.0058315145 -0.033315938 0.007920847 0.08632709 0.104647174 -0.017554421 0.08375806 0.0872793
-0.033547685 0.00233726 0.039674893 0.13131869 -0.026198976 0.028601054 0.045715585 0.054350834
0.018657982 0.091880605 0.04975024 0.028952254 0.054939736 0.09870767 0.08910944 0.005656484
0.07041479 0.027464062 0.13706708 0.06650152 -0.012921759 -0.023365729 0.062173773 0.024210941
0.100754976 0.08652708 0.04753221 0.07653404 0.02657743 0.054143485 -0.006047371 0.057347804
00000000: 84cc c73d caf2 f73d 5c09 5dbc 9601 1b3d
00000010: 4473 763c a8eb febc 097e f5bb 22c2 d3bc
00000020: 8302 17bc e28c d93d 07cc 553d cfbc 8c3c
00000030: 98be 12bb d5eb 83bc 2669 1dbd d0a5 703d
00000040: a3cc 453d c72d e73d 352f cc3d 5468 313d
00000050: ef8c 65bc aad7 e33d eada 1cbd d34e ad3c
00000060: 4a16 bfbb 4b76 08bd 71c6 013c 42cc b03d
00000070: 4251 d63d 4ace 8fbc 5989 ab3d 7dbf b23d
00000080: 4c69 09bd b72c 193b 2482 223d 6878 063e
00000090: 3c9f d6bc c24c ea3c 4440 3b3d fb9e 5e3d
000000a0: a0d8 983c e62b bc3d e8c6 4b3d 472d ed3c
000000b0: 7d08 613d 3f27 ca3d 037f b63d 075a b93b
000000c0: a135 903d 50fc e03c 505b 0c3e f331 883d
000000d0: c9b5 53bc 7c69 bfbc eda9 7e3d 0656 c63c
000000e0: a058 ce3d 1c35 b13d 22b1 423d e1bd 9c3d
000000f0: e9b8 d93c 8fc5 5d3d 0629 c6bb 88e5 6a3d

net.8.weight f4 [20, 64]
0.1548501 -0.17128041 -0.059741274 -0.19696037 -0.21751775 -0.0030774113 -0.07542306 0.022596331
-0.15161727 -0.16727328 0.067103945 0.16928455 -0.23476875 -0.20592965 0.044563547 0.10417812
0.09701055 0.047136147 -0.0052047195 -0.028875852 0.18261677 0.2040339 -0.13912474 0.18106766
-0.20193623 0.19626959 0.09268395 0.17058855 -0.16672166 -0.07298644 -0.19382638 -0.25594893
-0.23821177 -0.008114506 0.13354689 -0.24060087 -0.12945712 -0.18563348 0.023317074 -0.04631372
0.15141614 0.005734549 -0.14370093 -0.166323 -0.14786263 -0.097400986 0.13230787 0.18436521
-0.17125666 0.038610093 0.13413209 0.19840899 0.13168448 -0.19163018 -0.07802256 0.2104584
0.10757383 -0.073042095 0.15483408 -0.22430141 -0.062618494 0.048700634 -0.08993777 -0.24087307
-0.20823808 0.18215473 0.04164299 0.020930534 0.115690604 0.013343344 0.005996091 -0.20549266
-0.13892537 0.0014209778 -0.21737148 -0.21473622 0.118254244 0.09742346 -0.14003518 -0.20749462
0.009657121 0.20984635 0.2077927 0.15548564 -0.21427871 -0.10039731 0.17104656 -0.096814595
-0.03650649 -0.09533703 0.04388307 0.144611 -0.25288317 0.08942678 -0.17352256 -0.07064232
0.043479796 -0.100459576 0.029698035 0.18327819 -0.028802523 0.083071746 0.27141255 0.0845039
-0.15656132 0.08783403 -0.10721382 -0.13203262 -0.04057596 0.025083939 0.16401054 0.06030207
-0.057672676 -0.18494292 -0.06298411 0.14197843 -0.018050566 -0.070571825 -0.08910186 0.027028875
-0.045746315 0.10118537 0.13043395 -0.095465004 -0.18970184 -0.13985915 -0.10641571 0.049417216
0.1902963 0.123872034 0.16025235 0.020268068 -0.18893479 -0.10236003 -0.05315196 -0.0050924076
0.114823475 0.043819215 0.17262098 -0.19754234 -0.079409115 -0.12494069 0.06951417 0.09492734
-0.034717437 -0.082205705 -0.14675373 -0.2104598 0.1379624 -0.19266143 -0.05234264 0.15139928
0.055830587 0.10273321 0.15628807 -0.08618989 0.039583553 -0.12808938 0.17082325 -0.11659684
-0.14197096 -0.060336493 -0.1691406 -0.20069358 0.01599804 -0.14487526 -0.54465747 -0.17480654
0.18962847 -0.14472847 0.11169749 -0.0019085825 -0.11223242 -0.19498283 -0.1975628 -0.0736805
0.09351666 0.1633847 0.17018245 -0.11722523 -0.16998515 0.1860514 0.20704618 -0.06797627
-0.1549716 -0.09171199 -0.068159066 -0.021908857 0.05883014 -0.056662485 -0.02971106 0.116299935
-0.15476426 0.08354054 0.0037417866 -0.17755474 -0.040142488 -0.1224297 0.11787566 0.19381146
-0.083636604 0.096930705 -0.082432985 0.053393528 -0.22165106 -0.09641576 0.032140378 0.16543928
-0.11976238 -0.21913454 -0.17089124 -0.20157939 -0.2484859 0.1672732 -0.11397509 -0.14651987
0.16584128 0.05101285 -0.2207359 -0.13381898 0.1148986 0.0863418 0.02483547 0.019027382
-0.14916217 0.033433393 -0.20232828 -0.15731482 0.05652986 0.10985922 -0.27543822 -0.17715302
0.08367755 -0.008221685 -0.10740313 0.2220428 -0.075062394 -0.22764185 -0.21244098 0.05294035
0.11543743 0.11097634 -0.08331927 -0.019122468 -0.22915137 0.17714739 -0.11109616 -0.019173026
0.21572691 -0.098858595 -0.24355839 0.21076122 -0.012594682 0.17150238 0.022247026 0.0335694
00000000: 0691 1e3e 2264 2fbe 44b3 74bd fbaf 49be
00000010: f9bc 5ebe 65ae 49bb 6877 9abd f11b b93c
00000020: 8f41 1bbe b049 2bbe cb6d 893d ee58 2d3e
00000030: 3867 70be 39df 52be 4488 363d 575b d53d
00000040: 78ad c63d d511 413d 5a8c aabb 0d8d ecbc
00000050: e4ff 3a3e 43ee 503e b776 0ebe cd69 393e
00000060: 5fc8 4ebe e5fa 483e 15d1 bd3d c4ae 2e3e
00000070: 15b9 2abe ea79 95bd 6c7a 46be bd0b 83be
00000080: c9ed 73be b4f2 04bc 84c0 083e 1360 76be
00000090: 6890 04be b416 3ebe 7303 bf3c 75b3 3dbd
000000a0: d50c 1b3e e2e8 bb3b 5626 13be 9450 2abe
000000b0: 4d69 17be 2b7a c7bd b77b 073e 3cca 3c3e
000000c0: e85d 2fbe 9e25 1e3d ec59 093e ba2b 4b3e
000000d0: 4cd8 063e b43a 44be 4bca 9fbd 6882 573e
000000e0: ab4f dc3d 1897 95bd d38c 1e3e 45af 65be
000000f0: 203e 80bd 517a 473d 4b31 b8bd 6ea7 76be
00000100: 5d3c 55be c586 3a3e d791 2a3d 8376 ab3c
00000110: 32ef ec3d 0b9e 5a3c db7a c43b ab6c 52be
00000120: 7442 0ebe 1a40 ba3a a196 5ebe d0e3 5bbe
00000130: 482f f23d f385 c73d 6265 0fbe 7879 54be
00000140: e738 1e3c f6e1 563e 9cc7 543e a137 1f3e
00000150: e16b 5bbe 1b9d cdbd d426 2f3e bb46 c6bd
00000160: d487 15bd 1040 c3bd bcbe 333d e814 143e
00000170: e779 81be 6325 b73d e6af 31be ecac 90bd
00000180: df17 323d c0bd cdbd 4b49 f33c 47ad 3b3e
00000190: 45f3 ebbc 8521 aa3d 96f6 8a3e 6110 ad3d
000001a0: 9c51 20be 54e2 b33d eb92 dbbd 8f33 07be
000001b0: fa32 26bd d57c cd3c 61f2 273e 4eff 763d
000001c0: 2f3a 6cbd ad61 3dbe d0fd 80bd cb62 113e
000001d0: c8de 93bc f687 90bd 097b b6bd a96b dd3c
000001e0: 7d60 3bbd 463a cf3d 7a90 053e 2883 c3bd
000001f0: 3341 42be 3d37 0fbe 7bf0 d9bd b569 4a3d
00000200: 09dd 423e 9fb0 fd3d 3119 243e 3809 a63c
00000210: 1f78 41be 23a2 d1bd dfb5 59bd 36de a6bb
00000220: 9228 eb3d c77b 333d 8ec3 303e 8a48 4abe
00000230: 3fa1 a2bd e8e0 ffbd 725d 8e3d 4469 c23d
00000240: df33 0ebd 775b a8bd 9c46 16be c682 57be
00000250: 0446 0d3e 0a49 45be 3c65 56bd 6a08 1b3e
00000260: 9dae 643d ca65 d23d fb09 203e 5384 b0bd
00000270: 5d22 223d dd29 03be 4aec 2e3e 53ca eebd
00000280: d660 11be 6623 77bd 3233 2dbe 9e82 4dbe
00000290: 520e 833c 2e5a 14be ac6e 0bbf 7c00 33be
000002a0: f72d 423e b333 14be a7c1 e43d 6729 faba
000002b0: 1cda e5bd 94a9 47be e74d 4abe cde5 96bd
000002c0: aa85 bf3d 524e 273e 4f44 2e3e c813 f0bd
000002d0: 9610 2ebe 4284 3e3e ea03 543e 2537 8bbd
000002e0: e0b0 1ebe 7fd3 bbbd fb96 8bbd 347a b3bc
000002f0: dff7 703d ec16 68bd 9c64 f3bc a92e ee3d
00000300: 867a 1ebe 4d17 ab3d c338 753b e9d0 35be
00000310: 736c 24bd 6cbc fabd cb68 f13d 8376 463e
00000320: ab49 abbd 9b83 c63d a0d2 a8bd 2cb3 5a3d
00000330: 7ff8 62be a075 c5bd a1a5 033d ea68 293e
00000340: fb45 f5bd ce64 60be 1dfe 2ebe d46a 4ebe
00000350: 1673 7ebe aa49 2b3e c66b e9bd 4e09 16be
00000360: 4cd2 293e daf2 503d 9708 62be d807 09be
00000370: f54f eb3d f8d3 b03d c173 cb3c 50df 9b3c
00000380: f8bd 18be 74f1 083d 252f 4fbe 2317 21be
00000390: db8b 673d dffd e03d 3d06 8dbe 9a67 35be
000003a0: 235f ab3d 3fb4 06bc 2cf6 dbbd 305f 633e
000003b0: 50ba 99bd f21a 69be 218a 59be fbd7 583d
000003c0: 766a ec3d 9047 e33d 4ba3 aabd b9a6 9cbc
000003d0: a8a6 6abe 2066 353e 6286 e3bd c010 9dbc
000003e0: 84e7 5c3e 6076 cabd 5f67 79be cad1 573e
000003f0: ed59 4ebc 529e 2f3e 653f b63c 1180 093d

net.8.bias f4 [20]
0.10873758 0.097618535 -0.055187546 0.019268434 -0.10845738 0.09908828 0.13668384 0.08609951
-0.02656677 0.023060078 0.1340787 -0.037146952 0.07424258 -0.1069532 0.02094315 -0.07837398
-0.06304051 0.0356006 -0.03671234 0.046844915
00000000: cfb1 de3d 3aec c73d 560c 62bd d6d8 9d3c
00000010: e71e debd ccee ca3d d9f6 0b3e f154 b03d
00000020: 8ea2 d9bc 7de8 bc3c ed4b 093e 6727 18bd
00000030: 7e0c 983d 480a dbbd f890 ab3c 8a82 a0bd
00000040: 621b 81bd efd1 113d ae5f 16bd 74e0 3f3d
