models/model_4.pth (torch, 577485 bytes, 8 tensors)

net.0.weight f4 [256, 394]
00000000: 180b 5c3b 80cd f73c 752d 5c3c c99e 033d
00000010: 2b18 c43b 146a 97bc 23b2 123d 0506 3e3d
00000020: 3306 813d 94e5 23bc 88cb 8d3d f19f eebc
00000030: d801 3dbd eb66 843c e77f 92bd 65c9 103d
00000040: 91a6 97bd 2788 883d c783 3cbd d872 7bbc
00000050: d92f 06bd 2225 e5bc 87b8 da3c 7693 d63d
00000060: 8e70 08bd 1d3a c4bb 21e7 0c3e d5f9 6b3c
00000070: a048 80bd cced edbc 7150 f2bc 566b 66bc
00000080: b695 01bd 4a8e 90bb 2134 a73d f1d5 5a3c
00000090: 2609 2cbc dbed 4cbd 0fad 33be 72fc f8bc
000000a0: 213c 363c 78f9 213c 217e 39bc 1e43 b33d
000000b0: dc79 ddbd aa1e 6a3d c33a cbbc 6c58 5c3d
000000c0: c5ab 813d 9b32 45bd 3cc7 3b3d f6d4 543d
000000d0: 98f8 48bc 1d8f aabc 950c fcbc 5a63 063e
000000e0: 0282 86bc 73b2 81bc 6129 61bb 2a9e 193c
000000f0: c0fc 603c 0b0d 5c3d b7ce 453d 1393 14bd
00000100: 9338 f13c ffe9 1dbc 74b3 8a3d 9f91 923c
00000110: 4e11 643d f428 1dbd 414f b13d 640a 423d
00000120: 4034 a4bd 45e4 c23a d718 50bd aaa5 7bbc
00000130: 40ff 9abd b107 c9bb 2a75 453d 67e5 47bc
00000140: 8de0 093b 16d5 813d 2f49 e93d 8677 47bc
00000150: 38c6 f6bc 0269 f8bc 5cc8 013d 8a4d 9a3d
00000160: 7fd9 b53c a1d3 21bd eca6 bcbc b685 6ebd
00000170: 62bb 1ebb 611a 723d 5c28 08bc 6c4a 64bd
00000180: fb09 c73d 2789 913d b411 903d ba62 7bbc
00000190: 269e 40bc fe53 943d cec8 513d d41a 6ebd
000001a0: 297c b73d 5005 81bc 3bef cfbc d11c 35bd
000001b0: da2f a73c f393 81bc 7e9c aabc 457c 313d
000001c0: 8440 38bd a7ec 843d 2f1b deba 843e 83bd
000001d0: d206 e0bc 1288 0fbc 20b7 8b3d 1449 5b3d
000001e0: 9439 58bd ea8e b8bd ea1d 8cbc c8d8 a4bc
000001f0: 83cf 0ebd df1a 36be 494a 38bd 410f 313d
00000200: f76e 8cbb 0953 a4bc a11d 86bc a567 b3bc
00000210: 4dc6 6c3d 99e9 02be 86cf 40bd a194 373d
00000220: 9e97 18bc b554 4cbd 662f 84bd f922 0b3e
00000230: edf7 643d 5045 3d3d 3931 1f3d 4248 d63b
00000240: 353b 24bd d0d2 8e3c a05c 2fbd cfcd cc3d
00000250: a295 123d fffd 093e 3923 dabd 3c5e ea3d
00000260: 55f4 003e 9287 03bd c5a3 b53d c270 cc3d
00000270: daa8 1d3d 84b5 3abc 8882 bbbc 7b71 13bd
00000280: 9265 0c3d dff6 953d 64f5 8a3d adf5 f9bc
00000290: f9d5 a3bc 4707 dd3d 1f44 e63d d37d c3bb
000002a0: 04d1 72bc 9c0f e43d ccfb 0bbb 6171 61bd
000002b0: 4aa2 383d b12a 71bd dd32 dfbc 50c0 15bd
000002c0: 93e3 a4bd d22d 3fbc 5396 f7ba 8a8e 9b3c
000002d0: c5b9 17bb 7eca 26bd 08be f23c ce7a fcbc
000002e0: c4d6 6b3d e54e 4d3c 9800 81bd de7d 9e3c
000002f0: 037d 823d 3374 343d c20f 56bb f80d ccbd
00000300: d2e9 fd3d 6a43 52bc e892 9bbd 4afa dbbc
00000310: b00a 913d b30e 3b3d d6df c7bc eaad 38bc
00000320: 9286 9a3d 322c 9c3d 4f67 8dbc 4d3a 46bc
00000330: e72a 59bc ee69 7bba dba8 fbbb 10a2 0d3e
00000340: 87f0 163c 0d2b 313d beb8 313c 6cad 9e3d
00000350: 7d41 8c3d 3912 d4bd 29b2 abbd 2b2d a0bc
00000360: 85c9 05bd 7cb9 4c3d 6051 b3bd da3a b03d
00000370: 1942 bb3c 3af5 a5bc f9d9 153e c7bc 0bbd
00000380: 165c 943d 9edc 643d 6a7b 87bd 5935 143c
00000390: a2d8 a0bd aed8 c2bc c88b eb3d 7d2a 3ebd
000003a0: 4d66 dbbc a16b 85bd 083b 5dbc ca37 b03d
000003b0: fcd7 95bd 4d3d 8dbd b6ab c7bc a5b0 283d
000003c0: a54a 683d b780 2cbd ac85 353d ce34 f4bc
000003d0: 1393 bd3c ecdf 8fbc c434 7bbd 1b8d 0fbc
000003e0: 5c87 903d 072d b7bc 05d2 91bc 9b02 a4bc
000003f0: c0e7 0fbd 8586 e5bb 88ab 463d 650b d33d
0.0033575948 0.030249357 0.013438572 0.03213385 0.0059843264 -0.0184832 0.035814416 0.04639246
0.063000105 -0.010003466 0.06923586 -0.029129 -0.046144336 0.016162356 -0.07153302 0.035348315
-0.07404817 0.06666594 -0.04602411 -0.015347205 -0.032760475 -0.027971808 0.026699318 0.10477345
-0.033310466 -0.005988373 0.13760044 0.014402826 -0.06263852 -0.029044054 -0.029579373 -0.014063677
-0.031636916 -0.0044114934 0.0816424 0.013356672 -0.010500228 -0.050031524 -0.17546485 -0.030393813
0.011122734 0.009886138 -0.011321575 0.08753036 -0.108142585 0.05715815 -0.024808293 0.053795263
0.063315906 -0.048143964 0.0458443 0.051960908 -0.012266301 -0.020820195 -0.030767718 0.13123837
-0.016419414 -0.015832162 -0.003435694 0.009376088 0.013732135 0.053723376 0.04829284 -0.036273073
0.029445922 -0.009638309 0.06772509 0.017891703 0.055680566 -0.038369134 0.086576946 0.04737319
-0.080177784 0.0014869055 -0.05080494 -0.015359322 -0.07568216 -0.00613495 0.04820744 -0.01220069
0.0021038384 0.06339471 0.11390912 -0.012174493 -0.030123815 -0.03032351 0.03168522 0.07534321
0.022198437 -0.039508466 -0.023028813 -0.058232985 -0.0024220576 0.059107188 -0.008310404 -0.055735037
0.097187005 0.07106238 0.070346266 -0.015343362 -0.0117564555 0.07242583 0.051216893 -0.058131054
0.089592285 -0.015749604 -0.025382629 -0.044216935 0.02040856 -0.015817618 -0.020826574 0.043331403
-0.044983402 0.0649045 -0.0016945357 -0.06408408 -0.027347002 -0.008760469 0.06822038 0.05353649
-0.052789286 -0.09011634 -0.017104108 -0.0201229 -0.034865867 -0.17783688 -0.04499272 0.043227438
-0.004285689 -0.020059125 -0.01637155 -0.021900008 0.0578063 -0.12784423 -0.04707291 0.044819478
-0.009313492 -0.04988547 -0.06454353 0.1358756 0.055900503 0.04620868 0.0388653 0.0065393755
-0.040095527 0.017434508 -0.042812943 0.100001924 0.035787232 0.13475798 -0.106512494 0.11443755
0.12593205 -0.03211171 0.08869127 0.09982444 0.038491108 -0.011395816 -0.02288939 -0.035996895
0.034276552 0.073224775 0.06785086 -0.030512655 -0.019999491 0.10792404 0.11243462 -0.005965927
-0.014820341 0.1113579 -0.00213598 -0.055039767 0.045076646 -0.058878604 -0.027245933 -0.036560357
-0.08051219 -0.011668639 -0.0018889405 0.018988866 -0.0023151499 -0.040720455 0.02963163 -0.030820277
0.057577863 0.012531017 -0.062989414 0.019347128 0.063715 0.04405613 -0.00326632 -0.09963602
0.12398113 -0.012833456 -0.075963795 -0.026852746 0.070821166 0.045668315 -0.024398725 -0.011271933
0.075451985 0.07625617 -0.017261175 -0.012098861 -0.013254858 -0.0009590675 -0.0076800412 0.13831353
0.00921262 0.043253947 0.010847269 0.07747921 0.068484284 -0.10355038 -0.08383591 -0.019552788
-0.032662887 0.04998158 -0.087557554 0.08604975 0.022858666 -0.020258535 0.14633931 -0.03411558
0.072441265 0.05587446 -0.06615336 0.009045922 -0.078538194 -0.023784962 0.115012705 -0.04642724
-0.02678218 -0.06514669 -0.013502844 0.08604391 -0.073165864 -0.06896458 -0.02437387 0.041184086
0.05671181 -0.04211494 0.044316933 -0.029810335 0.02314142 -0.017562829 -0.061329618 -0.0087616695
0.07057068 -0.022360338 -0.01780034 -0.020020774 -0.035133123 -0.0070045614 0.04850343 0.10304908

net.0.bias f4 [256]
00000000: bdc6 e63c 94f6 2b3d 4425 2d3d e9c0 d33d
00000010: 63e6 f03d 9374 9a3d c7b4 b23d ae07 543d
00000020: e66c 9a3d 0027 963d 283b 983d 0b3a c43d
00000030: db06 c73d 2e4a 943d 75f2 a73d ce4b 833d
00000040: cf78 ac3d 943a cd3d 6872 0a3d a9e6 083e
00000050: 4a9f df3d 3c55 9b3d 3447 533d c504 b83d
00000060: 0353 ee3d b307 dd3d 471f 5c3d c37e 963d
00000070: 42f0 373d ec4e b93d d1a1 823d 8229 e23d
00000080: 9708 a73d b51f c33d c9d5 9c3d f1a4 4e3d
00000090: 0d08 d23c cf82 fe3d cd60 5f3d f544 f73d
000000a0: e6c8 6b3d 5253 6f3d 4d6c e23d e1f7 993d
000000b0: 6cca cf3d a9a7 8b3d cc3e f93d 2fbe c93d
000000c0: 2c67 8c3d 9a35 1d3d 4881 cc3d 0e45 833d
000000d0: ab80 513d ebd9 c13d 152a aa3d 5549 403d
000000e0: 033d 393d 17f9 e03d 1aae ee3c 22d9 853d
000000f0: c62a be3d 4cbf cc3d 9c2c eb3d a99b 863d
00000100: 641f 5e3d f499 ca3d 8055 9b3d 0404 a93d
00000110: 8448 bd3d 04c3 c93d 4804 173d a830 2c3d
00000120: b8f5 8d3d c582 933d 6ee2 8f3d 14ac ee3d
00000130: 9d43 843d 7ab5 b73d d7fc bf3d 995a c33d
00000140: 88f4 5c3d deb0 243d 1e88 963d f48d 1d3d
00000150: 9bb4 8c3d b5cc ad3d cdb4 523d 6d54 fc3d
00000160: 5fe9 0b3e 59ff 5f3d 0fe0 8c3d 1c0f a63d
00000170: ed82 b63d 991b 6c3d 09c9 e63d beed 993d
00000180: 4fc5 563d 1c97 843c 7f4b d63d 8818 113d
00000190: f056 8d3d 47d9 8c3c 6e53 553d d14e ab3d
000001a0: 3a02 d33c fc0f ec3d 06ca fe3d 0a28 803d
000001b0: 1787 ce3d c4bf 043d 6a2f 013e e673 573d
000001c0: 2446 c23d 09ff 623c 0a09 a33d 46e5 e33c
000001d0: c7c6 523d 390a f73d 848f 8e3d 7268 253d
000001e0: 8a86 523d 6fdb 143e ad67 203d d9e5 7f3d
000001f0: 2ed6 ba3d 241c 1e3d e5c5 9f3d 7357 e93d
00000200: 8a84 d73d a60b d53d 08ce 913d 2c17 163d
00000210: 65a6 913d ab07 4c3d c263 d13d 93cf b63d
00000220: cc63 533d 6ad0 e03d 2e23 8b3d 9cf0 ed3d
00000230: ed78 b33d 99e1 b03d 6207 e83d 77df 4f3d
00000240: 00ba 4b3d 2494 bf3c fe91 133d eabc cb3d
00000250: c6c3 363d 8d49 223d f2bc f33d 89ee b43d
00000260: 25df 1e3d 1554 5f3d dc6b 853d f04e d13d
00000270: 98e0 e93d 77f9 333d b2fd ae3d 0b9e a03d
00000280: 43dd 1a3d 254e 9d3d f005 963d 9090 8e3d
00000290: 4cf4 3c3d 58c2 a43d 82e7 9d3d 2ce3 c63d
000002a0: e166 523d 7de8 d83d 1c48 a43d ddb0 f93d
000002b0: 3961 eb3d 97ff 653d 503c 543d 4215 013e
000002c0: 1454 373d b704 b63d f894 883d 5355 b03d
000002d0: f95b b13d 5a6a ee3d f684 583d 981d b53d
000002e0: 9570 a93d a892 893d 9b64 443d 320f 683d
000002f0: 6541 fc3d 7227 e83d c132 e33d 2de7 6c3d
00000300: 6f9a d83d b114 ae3d 7c10 663d 1ff6 683d
00000310: 34b6 993d a166 e63d 8be6 a93d 5fcb 683d
00000320: 2c4a a63d 6a47 183d 86df b03d 79a3 e43d
00000330: 3975 8a3d 9191 623d 90fb 923d f0fa 7b3d
00000340: 942f b23d edc1 b63d 6266 963d a9a4 da3d
00000350: 83b0 763d daa8 9c3d 3ac1 913d 2c0e b83d
00000360: be1d 383d 1957 363d f1ed 853d ccfa 543d
00000370: 967f 5d3d 4506 923d 94c6 dc3d 2e99 033d
00000380: 399e 3d3d aa68 b43d 13f2 673d 046a 533d
00000390: 4268 c33d 90d8 c23d c946 8d3d cd98 d43d
000003a0: 59b0 1c3d 8c40 c53c 23c8 853d 8863 cb3d
000003b0: 9d4a 113d 27af 803d 184f cb3d 786d b83d
000003c0: 3482 103d 0702 ae3d 4529 bc3d 130d 9e3d
000003d0: bc20 143d cd1f 4b3d f694 9d3d 6655 a83d
000003e0: f40b 073d cf46 b03d 162d bb3d d892 883d
000003f0: 0831 ee3c 6ce1 b83d d752 a43d 2fbb ad3d
0.028170938 0.041983202 0.042271867 0.10339529 0.11762693 0.07541766 0.08725887 0.051765136
0.07540302 0.073316574 0.07433158 0.09581383 0.097181045 0.07240711 0.08200542 0.06410943
0.0842148 0.100209385 0.033800513 0.1336924 0.10919054 0.075846165 0.051581576 0.08985285
0.11636927 0.10792484 0.053740766 0.07348397 0.044906862 0.09048256 0.0637852 0.11043073
0.08155935 0.09527532 0.07657964 0.05045027 0.025638605 0.124272935 0.054535676 0.120736994
0.05756464 0.05842907 0.11055813 0.07517982 0.10146031 0.06819088 0.12170181 0.09850728
0.06855616 0.038381197 0.09985596 0.064096555 0.051148098 0.09465393 0.08308808 0.046944935
0.0452242 0.1098501 0.029135752 0.065355554 0.09285502 0.099974245 0.11483118 0.065726586
0.054229155 0.098926455 0.07584667 0.08252719 0.09242347 0.098516494 0.036869317 0.04203859
0.06931633 0.07202677 0.0702561 0.11653915 0.06458209 0.08970161 0.09374397 0.095387645
0.05394414 0.040207736 0.07350181 0.038465455 0.06870385 0.084863104 0.051441956 0.123207904
0.13663243 0.054686878 0.06878673 0.08108351 0.08911691 0.057643507 0.11268813 0.07516049
0.052434262 0.016185336 0.104636185 0.035423785 0.06901348 0.01719345 0.052081518 0.083646424
0.025757898 0.11526486 0.12440877 0.06257637 0.1008436 0.032409444 0.12615743 0.052600764
0.094860345 0.01385475 0.079607084 0.027819287 0.0514591 0.12062497 0.06960967 0.04038281
0.051397838 0.14536832 0.039161373 0.06247506 0.09122883 0.038601056 0.07801417 0.11393633
0.10523327 0.104026124 0.071193755 0.036643192 0.07111815 0.049812 0.102241054 0.089263104
0.051608846 0.10977252 0.06793819 0.11618158 0.08763299 0.08636779 0.11329533 0.050750222
0.04973793 0.023386069 0.0360279 0.09948142 0.044620298 0.039620925 0.11901273 0.088345595
0.038787026 0.054523546 0.06514713 0.10220134 0.11419791 0.04393908 0.08544482 0.07842644
0.037808668 0.076809205 0.07325351 0.06961167 0.046131417 0.08044881 0.07710172 0.09711298
0.051367644 0.105912186 0.08021566 0.12191937 0.11493153 0.056151953 0.05181533 0.12605765
0.044757918 0.08887618 0.066690385 0.08610024 0.086601205 0.11641379 0.052861176 0.08843535
0.082734264 0.067174256 0.047947507 0.056655116 0.123171605 0.113356486 0.11093665 0.057837654
0.10576331 0.0850004 0.056168064 0.056875344 0.075054556 0.11250044 0.08295926 0.056834575
0.08119616 0.03717748 0.08636384 0.111639924 0.0676064 0.055314604 0.07176888 0.06151861
0.08700481 0.08923707 0.07343747 0.10675938 0.06022693 0.076493934 0.07116933 0.08987078
0.04495024 0.044516657 0.06539524 0.05199699 0.054076754 0.07130102 0.10780063 0.032128505
0.04629347 0.088090256 0.056627344 0.051614776 0.0954137 0.09513962 0.06898267 0.10380707
0.038254116 0.02407863 0.06532314 0.099310935 0.035471547 0.06283408 0.09927195 0.090052545
0.03528042 0.084964804 0.09187559 0.077173375 0.03616403 0.049590874 0.07694428 0.082194135
0.032970384 0.08607256 0.09139459 0.06668633 0.029076114 0.09027371 0.08023613 0.08482968

net.3.weight f4 [128, 256]
00000000: 9be4 e03d 539b 9dbd 2600 413d f688 063e
00000010: 74a0 2d3b f685 23bc 140c f03b 98b3 d73b
00000020: 988e 483c 2e97 343e 8564 9a3c 7e41 bdbd
00000030: 1604 dfbc da05 27be 56cb 8a3d ffc4 10be
00000040: 0cc7 19bd 6d36 8d3d abcb c13d c824 9c3d
00000050: 65e8 eabc 7429 803d d5e8 c53d 1a76 af3d
00000060: dbf7 a83d 940d e93c a9f4 0d3e ae52 8c3d
00000070: 599f c0bd 870d c03d 4ceb 293d 6370 ac3c
00000080: b121 8ebc 251f 15bd 33cf 113d f39b 2bbd
00000090: d15a 0abe 283f 2abe a688 40bb 396c fdbd
000000a0: fb7f b6bd 8536 173e 789b 15be ea82 52bb
000000b0: 1c03 8a3c 95f1 42bc 5399 f5bd b400 083e
000000c0: 5952 8c3c c785 3a3c d40b 8d3d e457 1d3d
000000d0: ddb2 753d 4831 9cbc efaf 64bd 879c 2c3d
000000e0: b9f0 a43c 2889 8a3c 9322 7fbd e776 853c
000000f0: 3273 103e 82ed a93d 4608 2b3d befa 1f3e
00000100: bfd8 4b3d ea4d b03d 5c23 c9bd d6a7 c9bd
00000110: 7bba ef3b 6e8a a9bc 5bc6 2c3e cf37 993d
00000120: 8267 3ebd e18b ef3c 7f0d 51bd 1505 f23d
00000130: 1ea6 1abe 0587 843d bfc7 863d 489f ebbb
00000140: 8c7e 743d bc27 f63d e002 203e 138f 5bbc
00000150: 51d0 86bd 7379 3f3d 060c 993d 5263 e23d
00000160: f516 903c 255f 9e3d a306 d5bd 4bca 4c3b
00000170: 872a 083d f1d6 1c3d f039 a43d 5653 973d
00000180: c9e0 a7bd e426 26bd bbf9 cf3c 57a6 edbd
00000190: d3d4 89bc 02d2 c23d 34e2 34bc 45db 16be
000001a0: ee65 423d 59e5 59bd 3eba 373d 62ad db3d
000001b0: bd0a 9b3d 9b67 753d e87c a6bd e9eb b83d
000001c0: 6946 183c 0947 a9bd c2b3 98bd f189 cf3d
000001d0: 7cb3 9b3d e4e1 483c 9608 a83d e1d0 443d
000001e0: f6b4 5abd 3f94 cbbd 8c31 923d a42e 543d
000001f0: 3dbf f53d 7bfa c4bc 9eb5 06bd f912 49bd
00000200: 0984 ac3d 495e e33d 8499 a1bc 5463 8d3d
00000210: e23f 5abd c348 d6bc 1de8 3c3d 81e3 8cbd
00000220: 5664 fbbd 0fa4 f5bb 815d a53b 0a58 543d
00000230: ff26 913c 6b5c 863c b7ba 8c3c 9d64 a63d
00000240: bd07 f43d 281d fcbd 482b 143d cf95 f03d
00000250: e846 dfbd d989 cf3d 9073 053e bf57 f63d
00000260: f6c1 d93c 1639 913d 1015 a7bb ebfc 643d
00000270: 9286 80bc 3dcc b7bd 93e2 4abc 672a 263d
00000280: 1360 34ba b605 193d 3f0d 553d b00f afbc
00000290: c0c0 db3d 2101 80bd 6c88 f6bc ea0f a33d
000002a0: c4ed 04be 282c 6a3d 053a a63d 70ad a73d
000002b0: 2df6 04bd d59b e03d 3f68 53bc bd5a 1f3e
000002c0: 0723 883d b718 b8bb 89fd 723d 9c8e c9bc
000002d0: 15df eebc d337 763d e96b 293d 7cad 74bd
000002e0: 344b d53d d828 19be 1788 82bd 12b6 10be
000002f0: 7f27 a4bc 9658 02be 55e5 c3bd 88cd f13c
00000300: 9d16 eb3d 0133 21be f8cb 4abd 1077 b43d
00000310: 6404 cb3d 123d 1bbe abb8 1bbd 1020 de3d
00000320: 8407 283d 7c5c 603c 84b2 833d 3255 2b3c
00000330: e83d e7bc 1647 2b3e 409b 0c3d 1c99 133e
00000340: c270 073d 98b0 b3bd d96b f4bd 0f30 b43c
00000350: ce59 0abd aad3 a33c fefb 33be 6112 9c3c
00000360: 451e ed3d 8f57 a43d ee71 e2bc 7c93 313d
00000370: 6a15 e83d c19b 9fbd b65b a73d e54c a9bc
00000380: 4888 b23d 9baa 62bd eb00 383d 8b94 2cbe
00000390: 5d60 d53d ed58 fcbb 5264 9cbd 3753 ff3d
000003a0: 79ea 283d cc06 843d 4190 ee3d 909c 46bd
000003b0: 5996 f9bc ac5d 193d 0a75 e9bd cfd7 d83d
000003c0: 133d 74bd 25fc 263d 5270 923c 7324 b13b
000003d0: bcb4 783c 84ee 02bb dc09 1f3d 9156 ba3c
000003e0: 5928 093c 99a9 0d3e b45b 0e3d 56a2 ac3d
000003f0: 3363 103e 0a3d 043c 7a20 203d 7777 3bbc
0.10981103 -0.07695641 0.047119282 0.13138184 0.0026493343 -0.009980669 0.0073256586 0.0065826885
0.012241028 0.17635795 0.01884676 -0.09241007 -0.027223628 -0.16310826 0.067770645 -0.14137648
-0.03754334 0.068951465 0.09462675 0.07624203 -0.028675267 0.062579066 0.0966355 0.08567448
0.082504 0.028448857 0.13862862 0.068517074 -0.09405393 0.0937758 0.041484162 0.021049684
-0.01735005 -0.036406655 0.03559799 -0.04189677 -0.13511206 -0.16625655 -0.0029378324 -0.123741575
-0.08911129 0.14766891 -0.14610088 -0.0032121488 0.016847186 -0.011898418 -0.11992135 0.13281518
0.01712911 0.011384434 0.06887022 0.038413897 0.05998503 -0.019066468 -0.055831846 0.042141464
0.020134317 0.016911104 -0.062288832 0.016292049 0.14106444 0.08297254 0.041755937 0.15622994
0.049767252 0.08608611 -0.098211974 -0.09846465 0.0073159314 -0.020695891 0.16872542 0.07481348
-0.04648543 0.029241504 -0.05103826 0.118173756 -0.15102431 0.064710654 0.06581067 -0.0071906187
0.059690997 0.120192975 0.15626097 -0.013400811 -0.06582702 0.046746682 0.074729964 0.110541
0.017589072 0.07732991 -0.104016565 0.0031248506 0.033243682 0.03829092 0.08018863 0.07388942
-0.08197171 -0.040564433 0.025387635 -0.116039924 -0.016825115 0.09512712 -0.011040259 -0.14732082
0.04746049 -0.05319724 0.04485535 0.107264295 0.075704075 0.05991326 -0.08129293 0.09029371
0.009294131 -0.08265502 -0.07456161 0.10133732 0.07602593 0.012260888 0.08204763 0.048050765
-0.053395234 -0.09940385 0.071383566 0.051802292 0.119993664 -0.02404522 -0.032888047 -0.04909036
0.08423621 0.11101968 -0.019726522 0.06903711 -0.05328358 -0.026157742 0.046119798 -0.068793304
-0.12274997 -0.007496364 0.005046547 0.051841773 0.01771879 0.01640149 0.017178876 0.08124659
0.119155385 -0.123102486 0.03617409 0.11747324 -0.10902196 0.10133714 0.13032365 0.12028455
0.026581746 0.070909664 -0.0050989464 0.055905264 -0.015689168 -0.08974502 -0.012383121 0.04056778
-0.0006880771 0.037358962 0.052014586 -0.021369785 0.107301235 -0.06250215 -0.030094348 0.0796202
-0.12981325 0.057171017 0.08116535 0.081873775 -0.032461334 0.109672226 -0.012903272 0.15561958
0.06647306 -0.0056181806 0.05932382 -0.024604134 -0.029159108 0.060111832 0.041362677 -0.05973576
0.104147345 -0.14956987 -0.06373613 -0.14131954 -0.020038364 -0.12729105 -0.09565226 0.02951695
0.114789225 -0.15742113 -0.049510926 0.08811772 0.09912947 -0.15160015 -0.03801791 0.10845959
0.041022792 0.013693925 0.064305335 0.010457324 -0.028227761 0.16726336 0.034327745 0.14413875
0.03306652 -0.08773917 -0.11934633 0.021995572 -0.03377705 0.01999839 -0.17576596 0.019051732
0.11578039 0.08024513 -0.027642217 0.043353543 0.113322094 -0.077933796 0.08171789 -0.020666549
0.087174 -0.055338483 0.04492275 -0.1685354 0.104187705 -0.0077010305 -0.07636322 0.12467044
0.041239236 0.06446609 0.11648608 -0.048489153 -0.0304672 0.037442848 -0.113992766 0.10588037
-0.059628557 0.040767808 0.017875824 0.0054059564 0.015179809 -0.0019978592 0.038827762 0.022746356
0.008371436 0.13834228 0.034755424 0.084294006 0.14100341 0.0080711935 0.039093472 -0.011442057

net.3.bias f4 [128]
00000000: 42ec b73d 8886 6f3d ded4 423d 3957 423c
00000010: 7a41 bf3d 1ceb a23d e351 bd3c 70d8 453b
00000020: 1b23 10bc 9dce 1abd 6735 9b3c 472f 883d
00000030: fe56 5b3c 5750 8b3d aff3 043d b6c6 7b3d
00000040: ac7b 883d c610 cabc a2e1 a13d 0d6b 10bc
00000050: 79b6 dcbc cbe3 a83d 82c2 8e3d bb9a c93d
00000060: b6e0 553b e58f 74bc 8384 ab3d c364 673c
00000070: 30cc c7bc ab29 a03d cf7c 0e3d ebdb 833c
00000080: eec5 363d 10e6 da3c 676c 84ba 9817 da3d
00000090: fb67 a63d d837 863d a4f1 ba3a b039 203c
000000a0: b36f 2e3d a9ac 943d f015 4b3d 6f1e a93d
000000b0: 5e70 2b3d 3448 873d 6c08 d3bc 2eeb d33d
000000c0: 6a74 183b cb14 fa3d 8c22 c1bc 590b 773d
000000d0: 1a34 823d 39ad 033d 2c65 9b3c 9042 bc3d
000000e0: 732b 183d afa1 71bb 7a45 20bc 0201 58b9
000000f0: 06ab 0f3d 449e d63d 83ba 823d 6552 ce3c
00000100: dd9d bbbc c0c4 90bb a91d 903d d87f 703d
00000110: 007c 563d 310c 633c b461 573d 2f48 a53d
00000120: 7325 de3d dccd a53b 8705 bf3c f2e3 ca3d
00000130: 9b5e 0d3d b2d9 5e3b 36c0 5b3d 2dad 6f3d
00000140: 9625 243a c229 d73d 1180 bb3d c656 173d
00000150: c620 c13b f196 843d 50d0 9cbc 9765 c33b
00000160: b867 863d 6ff9 2c3d 307f 433b cdc4 273d
00000170: 7c92 94bb c39c 343d 14a8 c13d 0e2c 1e3d
00000180: 7277 85bc 780f 7a3d f8a9 2d3d d145 98bc
00000190: 156b cf3d d76e dc3c 2982 b7bc 38d9 58bb
000001a0: f3e4 863c cc4b debc 4543 c63d dd57 1c3d
000001b0: 946e 883d 955c 02bd e1a9 123d baba 993d
000001c0: 5bd1 563b 3191 e13d 7283 943c cc12 8eb9
000001d0: 958a a6bc d866 563d 7f4f 643d d722 a23c
000001e0: 60ea 933d 6952 413d 80e5 1d3d 74eb c93c
000001f0: 474c c63b 89e2 e03c a14e 1a3c a7e5 b53d
0.089806095 0.05847791 0.047566287 0.011861616 0.093386605 0.07955 0.023110336 0.0030188821
-0.008797432 -0.037794698 0.018946363 0.066496424 0.01338744 0.06802433 0.032458957 0.061468802
0.066642135 -0.024666201 0.07904364 -0.008814585 -0.026942478 0.08246573 0.06970693 0.098439656
0.003263516 -0.014926885 0.08374884 0.014123145 -0.024389356 0.078204475 0.034786996 0.016096076
0.044622354 0.02672103 -0.0010103107 0.106490314 0.081253015 0.0655362 0.0014262688 0.009779379
0.042586993 0.07259495 0.049581468 0.08257758 0.04185521 0.066055685 -0.025760852 0.10347591
0.0023262748 0.12210997 -0.023576044 0.060313556 0.06357594 0.03214762 0.018969141 0.09192383
0.03715081 -0.0036870053 -0.0097821895 -0.0002059974 0.03507521 0.104794055 0.063832305 0.025185773
-0.022902424 -0.0044179857 0.07036907 0.05871567 0.05236435 0.013857887 0.05258341 0.080704086
0.108469866 0.0050599407 0.023318065 0.09906758 0.03451405 0.0034004268 0.053650104 0.058514763
0.0006261704 0.105060115 0.09155286 0.036947988 0.0058937995 0.06474102 -0.0191423 0.005963038
0.065627515 0.042230066 0.0029830448 0.04095917 -0.004534064 0.044094812 0.094558865 0.038616233
-0.016292308 0.06104991 0.042398423 -0.018587979 0.10127846 0.026908321 -0.022400932 -0.0033088457
0.016466593 -0.027135752 0.096807994 0.03816973 0.06661716 -0.031826574 0.03580654 0.075063184
0.0032778594 0.11014021 0.018129084 -0.00027098355 -0.020329753 0.052344173 0.055739876 0.019792004
0.07222438 0.047197733 0.038548946 0.024648406 0.0060515734 0.02745177 0.009418161 0.08881693

net.6.weight f4 [64, 128]
00000000: 01d9 883c 0e27 373c 75ab 943c f262 013e
00000010: e80c 873d 89ea 0cbe d7fe f63d 51f0 babc
00000020: 7192 9ebd 76a2 fa3d 3b6a 523c 3128 363d
00000030: d750 0ebe 4f1f f03d 1db1 403c be1a c93c
00000040: f3db 263d 0581 cd3d a4a1 143d e8b6 323e
00000050: 462c 1f3e 131b 8cbd b6c4 063e 7706 49bd
00000060: 3203 7d3d c729 8c3c 2c9b 9abc 49f0 70bd
00000070: 0540 d33d 8f40 053d dd0a 013e 1614 093e
00000080: d03b 833d 0719 e93d 1603 e93d bb6a 94bd
00000090: 07db 0e3e 080c 3ebd b264 d1bb e660 fabd
000000a0: 5439 da3d f851 04bd 91dc 303e 4a40 14be
000000b0: f2e5 9c3d 7103 bdbd c8f7 9e3d ef39 223e
000000c0: 27fb 83bd 6809 833d 0bb7 17bd 515f 5a3c
000000d0: 0430 3d3e b60e 1e3c 6855 e43d 6366 1f3e
000000e0: 81c4 cdbd de03 a93d 27c5 40bb 4cb1 a23d
000000f0: 7206 a9bc b761 23bc 06d5 90bc 6c5d b13c
00000100: 5e52 243d abc9 e03d 717b de3d 8e57 36be
00000110: 54d9 87bd 71b1 843d 647c d0bc d9dc 073e
00000120: 3357 81bd 03a2 c0bd 0ad5 e2bd 3870 afbb
00000130: 61b2 683d d4e9 1abe e1cc 153e 21c0 f43d
00000140: fc7b 1a3c e2d5 903d 96b7 113e fea4 d7bc
00000150: aa37 a23d dfd3 9d3d b48d dcbd deb8 a93c
00000160: 823d 303d 5ca1 d53d e911 87bd 7831 063b
00000170: dc4c c583 5901 fb3d 7c77 953d e013 223d
00000180: 66ff 983c 2b60 85bc 90c4 233d 9771 fe3d
00000190: 8254 0c3d 3f4d 993d 52ac 20bd 0e2d 143e
000001a0: a4c5 b6bd 9790 f73d 263b 1c3d 7289 ba3c
000001b0: 4bff 74bd 3929 d73d 682f 953c c09e 27be
000001c0: 7e78 a7bd 35c2 0d3e 0521 d93c 767a f63c
000001d0: 0ad0 d03d 39ed 013e c6ca c93d 3fe1 f83d
000001e0: 35fa fbbc e09f d93a 0f92 c33d 4cef 9c3c
000001f0: 8284 24be fcd5 073d 078c 04be 5cc0 ebbd
00000200: 4390 e3bd f3b6 a3bd 1f47 1a3d 6dd4 89bd
00000210: 2be5 853d 25eb 3fbe 0d09 75bd 8bd4 143c
00000220: d537 ffbd 9a40 b03d ced1 5c3d 9e28 473d
00000230: f758 c3bd 0018 a53d 36d7 d63d 613d 313e
00000240: 5f29 b13d 97cf c73d cc78 56bd 2ae4 7f3d
00000250: 44a5 323e 9ac1 49bd a726 0f3d bca1 56bd
00000260: dc11 60be 1210 ea3c 63ec 68be 5857 d7bd
00000270: f836 c43d b3a4 0e3e 6dcb 45bd 752a a63c
00000280: a8bd 1f3e 8470 d13d 5958 ee3d c867 d1bc
00000290: 22a3 e93d 88e0 0f3e 3eef a73d ca44 8bbd
000002a0: 27e7 ffbb a1a0 39bd 524c 5c3e 2bd0 51be
000002b0: 6ff6 b53d e7d1 783d 9433 ca3d 40f0 053e
000002c0: 63c2 a9bd 0d20 63bd a979 29be 37d5 863d
000002d0: e77e fc3c 91f0 de3c 1148 813d b2ff 0a3e
000002e0: 8ca7 bebd d785 2a3e bc0a a03c 24f2 093e
000002f0: 9d2b ad3d 0b82 64bd b680 d33d d00f 19be
00000300: 1121 a2bd 7049 253e bfda e8bd 05e4 b2bd
00000310: d2e3 60bd 27fd 09be 145f e13d 5764 483e
00000320: f15b 45bd 0d03 ccbc 9bb4 363d a088 59bd
00000330: a9e8 a33c d17f 093b 990b 283d 5a2c b83d
00000340: 9216 dc3d bd9b 783d c60a d73d 2caa cd3d
00000350: 54f4 59bd 1aa3 1a3d abef 12be da57 833d
00000360: 7467 113e 0d3b 2c3e 5183 efbc 8bc5 a13d
00000370: 9dc5 f5b6 d44b 40bd 09f7 483d 03b4 aa3d
00000380: 819b e3bd 11e1 1bbe 708c d9bd 0fc0 423e
00000390: 7e86 813d 8652 0abe 50c3 14be 23d4 17bc
000003a0: c05f 8e3c 4e02 053e c3a9 ddba c9fa f9bd
000003b0: 2b94 2abe 8f92 173e 94b0 e23d 8903 31bd
000003c0: 05eb 10bd 0ace 01be 7982 533b cb85 5fbc
000003d0: 501b 3e3e 9933 0e3e 334e f53b 75fa e13c
000003e0: 92e6 fa3b 383b b9ba 72ea 11bd aa33 babb
000003f0: c804 96bd bd31 193e 86cd d2bd 9497 33bc
0.016705038 0.011178745 0.018148163 0.12635401 0.065942585 -0.13761343 0.120603256 -0.02281967
-0.07742775 0.12238018 0.01284271 0.044471923 -0.13898025 0.11724722 0.011760977 0.024548884
0.040737104 0.10034374 0.036286965 0.17452586 0.15544233 -0.068411015 0.13160977 -0.04907843
0.061770625 0.017109765 -0.01887282 -0.058822904 0.10314945 0.03253227 0.126018 0.13386568
0.06407893 0.11381727 0.11377542 -0.0724692 0.1395074 -0.046398193 -0.0063901776 -0.12225513
0.10655466 -0.032304734 0.1727164 -0.1447765 0.07661046 -0.09229172 0.07762104 0.15842412
-0.06444388 0.063982785 -0.037039798 0.013328389 0.18475348 0.009647062 0.111491024 0.15566401
-0.10047246 0.08252691 -0.0029414387 0.07943973 -0.020632956 -0.0099720275 -0.017679702 0.021650992
0.040117614 0.10975965 0.10863388 -0.17806837 -0.06633249 0.06479157 -0.02544994 0.1326784
-0.0631546 -0.09405901 -0.1107579 -0.0053539537 0.05681074 -0.15128261 0.14628936 0.11950708
0.009428974 0.07072045 0.14230189 -0.026323792 0.07920773 0.07706427 -0.10769215 0.020718034
0.04302741 0.104311675 -0.06595213 0.0020476263 -1.1596265e-36 0.122561164 0.072981805 0.039569736
0.018676471 -0.016281208 0.03998238 0.12424009 0.03426028 0.07485437 -0.039226837 0.14470312
-0.08924416 0.12088125 0.038142346 0.022770617 -0.05981378 0.105059095 0.018211082 -0.16369152
-0.08177279 0.13843615 0.026505003 0.03008769 0.1019593 0.1268815 0.09853129 0.12152337
-0.030758956 0.0016603433 0.09549343 0.019157074 -0.16066173 0.033163056 -0.12944041 -0.11511299
-0.111115 -0.07993879 0.037665483 -0.0672997 0.06537851 -0.18742044 -0.059823085 0.009083877
-0.12461821 0.08606072 0.053911023 0.04862272 -0.09538453 0.08061218 0.10490267 0.1730857
0.08650469 0.097563915 -0.052361295 0.062473454 0.17445856 -0.0492569 0.03494897 -0.052400336
-0.21881813 0.028572116 -0.22746424 -0.105147064 0.09580797 0.13930015 -0.048289705 0.020283917
0.15599692 0.10226539 0.11637945 -0.025562182 0.11408068 0.14050496 0.08199929 -0.0680023
-0.007809538 -0.045319203 0.21513489 -0.20489566 0.08884894 0.060747053 0.09873119 0.1307993
-0.082890294 -0.055450488 -0.16550316 0.06583636 0.03082223 0.02721432 0.06312574 0.13574103
-0.09309301 0.16652618 0.019536369 0.13471276 0.08455584 -0.05578808 0.10327284 -0.14947438
-0.07916463 0.16141295 -0.113698475 -0.087348975 -0.054904766 -0.13475476 0.11004463 0.19569527
-0.048183385 -0.024903798 0.044605833 -0.05310881 0.020008402 0.0020980726 0.041026685 0.089928344
0.107464924 0.0606954 0.10500102 0.10042223 -0.053211525 0.037753202 -0.14349239 0.06413241
0.1419962 0.16819401 -0.029237421 0.078990065 -7.324574e-06 -0.046947315 0.049063716 0.08335116
-0.111136444 -0.15222575 -0.106224895 0.19018577 0.063244805 -0.13508043 -0.14527631 -0.009266886
0.017379642 0.1298916 -0.0016911555 -0.122060366 -0.16658084 0.14802001 0.11068836 -0.043216262
-0.035380382 -0.12676254 0.0032273813 -0.013642739 0.18565106 0.1388687 0.0074861287 0.027585248
0.0076568807 -0.0014132028 -0.035623975 -0.0056824284 -0.07325131 0.1496038 -0.10293107 -0.010961432

net.6.bias f4 [64]
00000000: 74d7 83bd d8c1 013d 0068 a7bc 32dc 04bc
00000010: 3e6b ce3d 60f8 56bc 17c2 70bc b825 903d
00000020: dc88 32bd 3ac9 893d 1942 c83d 604a a13c
00000030: fe78 c83d 6686 663c 4460 8d3d e12b 7fbd
00000040: c32d a03d 4633 833d a483 f23d 9796 e63b
00000050: 5f84 803d f48c bb3c 8aa1 5bbd 16b1 f73d
00000060: 750b 57bc 0424 f73c 2837 043e 2f1c 5abd
00000070: a591 32bd 9d20 17bd f628 aa3d 6743 0a3c
00000080: 49b0 533d 2a8b 893d 302e 163d 927d 0cbd
00000090: 59a3 82bc d6e8 22bd 64ab 043d f139 b43c
000000a0: 15c3 933c f8a7 dc3d 7311 863d 14ce ec3d
000000b0: d134 f13d 6987 4e3d 63a8 373d dc2c ba3d
000000c0: 7a94 3d3b 0ade 173d 6dfa 013e abfa 323c
000000d0: c0e2 6bbc 52aa 3d3d f867 773d af5e 4fbd
000000e0: 02eb 9a3d a91b 553d e51e 383d 3f69 1f3d
000000f0: 6d69 02bd 98fa ba3c 0f7b 2f3d c946 023d
-0.06437579 0.031679004 -0.020435333 -0.008109139 0.100790486 -0.013120741 -0.014694712 0.07038444
-0.04358755 0.06727834 0.09778232 0.019688785 0.097887024 0.014070129 0.06903127 -0.062297706
0.07821228 0.06406264 0.11841515 0.0070369947 0.06275248 0.02289436 -0.053620853 0.12094323
-0.01312529 0.03016854 0.12911665 -0.053249534 -0.04359593 -0.036896337 0.08308594 0.0084389215
0.05168179 0.067159966 0.03666514 -0.03429944 -0.01594703 -0.03977283 0.032390013 0.022000285
0.018037358 0.10774225 0.06546297 0.11562744 0.11777652 0.050422106 0.04483832 0.090905875
0.002892761 0.037076987 0.12693186 0.010924022 -0.014397323 0.04630501 0.060401887 -0.050627407
0.075643554 0.052028332 0.04495134 0.03891873 -0.031838823 0.02282457 0.042841967 0.031805787

net.8.weight f4 [20, 64]
00000000: 5154 2d3e 77c4 673e 7591 4bbd 4c7f cabd
00000010: e109 99bc 8240 ad3d c368 afbd fdb3 afbd
00000020: 267d 83bd 6bf6 a33d ef2d 19be 63b2 873d
00000030: 0357 823d 3456 963c 764b ff3d 23cc 7a3c
00000040: 1ff1 80be 44c8 b0bd 8695 383b adca 793d
00000050: 7301 3fbd 86fc d2bd 6269 41bd bc85 a6bd
00000060: fd13 c1bc a14b 28be 81aa d7bd 5af4 f93c
00000070: d58e 05be 14d0 cabb 2bac 303e 7ad3 bdbd
00000080: 9b6f c3bd 5d20 943b 781d 153e 263c ad3d
00000090: 125d cd3d 40b3 b3bd 7b02 66be 91ca a73d
000000a0: cd14 eb3d 5867 f43c f4a9 49be 528a 56be
000000b0: f126 3fbe e2e2 fcbd 05d4 c9be 9c57 043e
000000c0: 71f9 babc 87ca e83c afb1 4d3d 40a7 fe3d
000000d0: 4ad3 403e b182 2c3e 53ab 933d a7a2 963c
000000e0: 0d5a 26be c458 fd3b 1ca9 773d a463 33be
000000f0: 9052 29be 9fbb 6ebc 36c6 473d 5881 81bd
00000100: 9d18 1e3e 5e15 2dbd 081c a4bd 9bbc 4c3d
00000110: 9f02 c93d 49be eabd 5ac5 2cbe 3bd9 913c
00000120: f7e9 1d3d 4c6c 873d 5052 24bc 19cd a53d
00000130: e7d2 233e 67d8 5dbe b9c2 67be 9c79 0d39
00000140: f331 7dbe 1555 2a3e acb0 6a3d a286 45be
00000150: 916e 5ebe 7b39 3fbd 2e5c f43c 5797 503d
00000160: 0f22 a6bd 1995 94bd 5fa3 30be 30ff 6c3d
00000170: 2192 84bb e786 623b fd34 d23d 2dae 0abe
00000180: b4c8 8bbe 94c8 13be afdf 69be 9fe0 c3bd
00000190: 71a9 febc 579d 1ebe 94e3 c0bd 6f19 afbd
000001a0: 8789 2b3d 2176 09be f0e0 8bbd 92f1 b0bd
000001b0: 496c 303e 51cb 253e 2fbc 45be e7d6 3cbe
000001c0: 3551 34bd d135 6ebe 0d4a 533d 337e b2bd
000001d0: ab5a 183e 0fde 183e 14b4 5ebe f5ac 123e
000001e0: c3be 05be c16b 623e 8679 153e d1b2 4cbe
000001f0: 894e 43bd 68fa 0c3e f675 d63c 606e e23d
00000200: e258 0bbe a32e 173e d870 6b3c 4ce5 433e
00000210: dcf6 863d c698 ebbd 22e8 0fbe ecd3 18be
00000220: 175a 23be 58bc f7bd ee20 01be bb6c adbd
00000230: 98f8 223c 1364 633e c1fe 103e 4135 d039
00000240: bc35 04bc f9fd fbbd 067c b43d 9d8d 3cbd
00000250: d9fd 34bd 8bdf a8bd b3bc 833d 1a30 d1bd
00000260: d221 22be f3f5 643d fc89 17be d38c fcbd
00000270: e76e 253e aeae 56ba f06a b43d e27c d9bd
00000280: 0df6 93bc 2e06 803d 1d52 36be fc3f ebbd
00000290: 869d 323e 9e22 6c3d 3a30 2fbe 438d 5bbd
000002a0: 8f41 89bd 590b 633e 34b5 713d 6d91 11be
000002b0: dcfa 213e 1877 5ebd d397 92be 9f5d 5abd
000002c0: 2cc7 24be 934c fbbd 1708 613d 9d79 c43d
000002d0: 77bd 0a3e 2542 6dbe 8ae9 58bd e51f 6d3d
000002e0: dce1 9b3b 55e5 273d 5514 513e 81dc 3e3e
000002f0: 0d39 e33d f883 8e3d 3168 9c3d ae28 56be
00000300: db9c 22bd ec79 17bd be07 d03d 7072 813c
00000310: 0ab8 04bd 7c17 173e b042 2b3e 6a77 1a3e
00000320: 2743 62be befc 54bd 1264 debd c693 3bbe
00000330: b673 1ebe 2920 a33d 88c8 4b3e f270 44bc
00000340: 9f71 00be ad93 56be 05c6 dbbc f126 d93d
00000350: 2f58 22bd 326c 853d b17f 07be 3b17 3fbe
00000360: 28f7 ef3d 6c20 5b3c 99de f03d af5b 1cbe
00000370: 6768 3abe ed3b 38b8 c5bd 2e3e 262b 17be
00000380: 9c6c b73d e4d5 7fbd f779 0dbe 0080 1bbe
00000390: 1285 e0bd b8dd c8bd 7cec da3d 66cc 673d
000003a0: 3b6b 88be 3f00 293e db91 343d a874 663d
000003b0: 070d b63c 5580 50bd c55a 2f3e 4308 26bb
000003c0: ba67 33bd 9e2f 133c 5d4f 493d e07c 80bb
000003d0: 7092 21be 4772 f83c c358 153e c493 12be
000003e0: 0cb2 0dbe aa5b 46be 8179 9c3b ef8c 20be
000003f0: c8e7 4e3c 5cd5 ef3d d2d3 123d d91b 55bd
0.16926695 0.22633539 -0.049699266 -0.09887561 -0.018681468 0.084595695 -0.085649036 -0.08579252
-0.064203545 0.08005985 -0.14958929 0.066258214 0.063642524 0.018351652 0.12465565 0.015307459
-0.2518396 -0.08631948 0.0028165295 0.060984302 -0.04663224 -0.10302071 -0.04721964 -0.081309766
-0.023569101 -0.164351 -0.10530568 0.030512024 -0.13042767 -0.0061893556 0.17253177 -0.092688516
-0.095427714 0.0045204596 0.14562023 0.08458738 0.100275174 -0.087744236 -0.22461884 0.08192933
0.11478577 0.029834434 -0.19693738 -0.20951203 -0.18667199 -0.12347962 -0.3941957 0.12924045
-0.022824021 0.028416885 0.05021828 0.12434244 0.188306 0.1684673 0.07210412 0.018388106
-0.16245289 0.007731529 0.06046401 -0.17518479 -0.16535401 -0.0145711 0.048773013 -0.063234985
0.15439077 -0.042256705 -0.08013159 0.049984556 0.09814953 -0.11462075 -0.16872159 0.017803779
0.038553204 0.06612453 -0.01002939 0.0809576 0.15998422 -0.21664582 -0.22632875 0.00013492111
-0.24726085 0.16634019 0.057297394 -0.1928964 -0.21721865 -0.046685677 0.029829111 0.05092558
-0.08111965 -0.072550006 -0.17249821 0.057860553 -0.0040457402 0.0034565271 0.10264013 -0.13543005
-0.27301562 -0.14431983 -0.22839235 -0.095643274 -0.031086655 -0.15489708 -0.09418407 -0.08549773
0.041879203 -0.13423969 -0.06830013 -0.08639826 0.17228808 0.1619084 -0.19310068 -0.18441354
-0.044022758 -0.23262717 0.051584292 -0.08715477 0.14878337 0.14928459 -0.21748382 0.1432379
-0.13061051 0.22111417 0.14597139 -0.19990088 -0.04768232 0.13767397 0.026179295 0.110562086
-0.13608125 0.14763884 0.014370166 0.19130439 0.065900534 -0.115037486 -0.14053395 -0.14924592
-0.15952335 -0.120964706 -0.12610218 -0.08468004 0.009946965 0.22206144 0.14159681 0.0003971253
-0.008069452 -0.12304301 0.08812718 -0.04603349 -0.0441874 -0.082457624 0.06432476 -0.10214253
-0.15833214 0.055898618 -0.1479873 -0.123315476 0.16155587 -0.00081894815 0.08809459 -0.10619523
-0.018061662 0.06251179 -0.17804761 -0.114868134 0.17442903 0.0576502 -0.1710824 -0.053601515
-0.067019574 0.22172298 0.0590107 -0.14215632 0.15818352 -0.054312795 -0.28631458 -0.05331194
-0.16091603 -0.12270465 0.054939356 0.095935084 0.13548838 -0.23169763 -0.052957095 0.057891745
0.004757149 0.040990192 0.20417912 0.18638803 0.11094866 0.06958765 0.076370604 -0.20913956
-0.03970037 -0.036981508 0.10157727 0.015801638 -0.032402076 0.14755052 0.16724658 0.15084615
-0.22095929 -0.051998846 -0.10858931 -0.1831809 -0.15473828 0.079651184 0.19900715 -0.011989819
-0.12543343 -0.20954771 -0.026827822 0.106031306 -0.03963488 0.06514777 -0.13232304 -0.18661205
0.11717063 0.013374429 0.11761207 -0.1526935 -0.18203889 -4.392483e-05 0.17064579 -0.14762554
0.089562625 -0.06245984 -0.13816057 -0.15185547 -0.10962881 -0.098079145 0.10689637 0.056591414
-0.2664431 0.16504 0.04408441 0.056263596 0.022223009 -0.050903637 0.1712447 -0.0025334514
-0.043800093 0.008983521 0.049147952 -0.0039211363 -0.15778518 0.03032793 0.14584641 -0.1431418
-0.1383745 -0.19370905 0.0047752266 -0.15678762 0.012628503 0.11710617 0.03584654 -0.05202851

net.8.bias f4 [20]
00000000: 5245 f1bd 8599 d63c bfbc 02be 3c13 153e
00000010: b3c6 45bd e81a 87bc f472 963d b532 18bd
00000020: 954a 8fbd 9645 f33d 5208 983d f37c a2bd
00000030: 9b10 8fbc f86e 8f3d 77d0 af3d 87dc dd3d
00000040: ca61 febc 4cbf 893d 521c f83d 43cf 973d
-0.117808 0.02619625 -0.12767313 0.14558119 -0.048285197 -0.016492322 0.07346144 -0.037157733
-0.06996647 0.11878507 0.07423462 -0.079339884 -0.017463973 0.070035875 0.085846834 0.10833078
-0.031052489 0.0672594 0.12114777 0.07412579
