models/model_0.pth (torch, 577485 bytes, 8 tensors)

net.0.weight f4 [256, 394]
000000 c2 4f 38 bc 7c 87 ae 3d 60 33 1d 3d b2 09 b1 3d
       -0.0112494845 0.08521935 0.038379073 0.08644427
000010 f6 47 f8 3c 1e 7b e7 3c 30 35 bc 3c da 4e 8d 3c
       0.030307751 0.028256949 0.02297458 0.017249513
000020 17 57 2b 3d 2f 00 13 3d d0 f7 d4 bb 86 25 7a 3d
       0.041831102 0.035888847 -0.006499268 0.06107094
000030 2b 3b 44 3d bf d6 59 3d f5 e3 6d 3d dd 22 63 bd
       0.04790799 0.053183313 0.058078725 -0.05545317
000040 f6 90 1d 3e 7a 14 80 bd 1a 8c f0 3b 44 49 ac 3d
       0.1538733 -0.062539056 0.00734092 0.08412412
000050 99 38 99 bd b0 e4 2d 3d 5e d7 3a bd 0a 1e 07 3d
       -0.07481498 0.04245442 -0.045615546 0.03298763
000060 6c 6b 6b 3d 34 5c 0b 3d fc 3e cc bc 34 f2 fd 3c
       0.057475492 0.03402348 -0.024932377 0.03099928
000070 59 ec cb bc a6 5c f1 3a b1 a9 af 3d d6 55 90 bd
       -0.024892973 0.0018414452 0.08577288 -0.07047622
000080 fc 94 72 bc 30 02 42 3d 79 f3 4c bc 01 2c 93 bc
       -0.014806028 0.047365367 -0.01250922 -0.017965319
000090 0b 4a a9 3d ae 60 14 bc 0a 05 b1 3c 4d ea ad 3c
       0.08266076 -0.009056253 0.021608848 0.021229887
0000a0 7d 6b b3 3d f9 8f 02 bd e2 67 be 3d 47 1f bd 3d
       0.08760736 -0.031875584 0.09297158 0.09234481
0000b0 4f 41 b6 3d 95 86 a3 bd d9 14 a3 3d 52 5e e3 bc
       0.088991754 -0.07984654 0.07962961 -0.027754936
0000c0 e8 88 6c ba e3 b8 36 bd a5 0d 2b bd 46 4c e5 3c
       -0.0009023086 -0.044609915 -0.04176106 0.027990472
0000d0 ff 38 13 3d f1 b1 e2 bc 3d ed f6 bc 22 e0 e7 3b
       0.035943028 -0.02767274 -0.03014242 0.0070762793
0000e0 84 3a b9 bc 1e 37 15 bd 66 31 ad 3d 81 ce ee bc
       -0.02261091 -0.036429517 0.08456688 -0.029151203
0000f0 66 92 53 bd 35 d2 d3 bc ad c1 c5 bc 61 31 66 bd
       -0.05165329 -0.02585707 -0.024140203 -0.056199435
000100 96 74 0c 3c a0 bd 18 bd e7 06 98 bb 0b 05 35 bd
       0.008572718 -0.037290215 -0.0046394947 -0.044194262
000110 52 62 56 bc fa 05 2a bd 57 1e 56 3d cf 8c 5f bb
       -0.013084965 -0.041509606 0.052275028 -0.0034111028
000120 f8 d0 09 bd 32 f2 17 bd d4 44 a2 bc 27 13 1e 3d
       -0.033646554 -0.03709621 -0.01980821 0.038592484
000130 a0 b6 36 bd 3b 7f 90 3d 76 b4 8e bd e6 8a a5 3d
       -0.04460776 0.07055517 -0.06968014 0.080831334
000140 ea 70 7b 3d 7e 9e 05 bd b4 39 de bc d3 c9 70 bd
       0.06138698 -0.032621853 -0.027127124 -0.058786225
000150 62 46 f7 3d 39 51 71 3d 68 04 79 bd 2f 6e 01 bd
       0.12073971 0.05891535 -0.060795218 -0.03159922
000160 9a f7 48 bc 2a da 39 3d c1 ff 75 3d b7 62 c3 bc
       -0.012266064 0.045374073 0.06005836 -0.023850782
000170 50 a8 3f bc 28 fd e2 3d 83 83 d9 bc 9f 0e f0 3c
       -0.011697844 0.11083442 -0.026551967 0.029303847
000180 17 f7 41 3c 3c 7d 67 bd d7 0c b1 3c a8 be 61 3a
       0.011838696 -0.056515917 0.021612568 0.0008611479
000190 b2 15 06 3d 5b 7a 96 bc a8 89 c0 bc 95 63 e8 3c
       0.032735534 -0.01836889 -0.02350314 0.028367797
0001a0 0e 45 15 bd e8 75 0b 3d 6a 3b 32 3d 25 7e 73 3d
       -0.03644281 0.03404799 0.043513693 0.059446473
0001b0 7f bd 21 bd ea a7 bc bc 4d 46 b8 3d cd ff 48 bd
       -0.03948736 -0.023029286 0.08997784 -0.049072076
0001c0 e5 0d 47 bc 7b a5 ff bc b3 12 63 bd ed 01 64 bd
       -0.012149309 -0.031206837 -0.055437755 -0.0556659
0001d0 16 c4 0e 3d 69 9b a9 3c 69 c6 eb bc e0 59 7d 3b
       0.03485497 0.020703988 -0.028781133 0.0038658306
0001e0 a3 19 20 bd 75 e2 62 bd 39 18 5d 3d 5b 48 16 3d
       -0.03908695 -0.055391748 0.05397818 0.036690097
0001f0 ff 5d 4e bd e9 f9 0c bd 5b 33 8e bc 74 47 05 bd
       -0.05038261 -0.03441802 -0.017358473 -0.032538846
000200 d3 90 43 3b 8b ca 85 3d 3b c8 da 3d dc 33 ae bc
       0.002984096 0.06532773 0.10682722 -0.021264963
000210 22 e5 6b bb f9 a9 3e bc 2a 71 62 bd e0 cf b9 bc
       -0.0035994728 -0.011637204 -0.055283703 -0.02268213
000220 66 3c fe 3c d3 12 98 bd 32 32 97 3d 64 a6 8e bd
       0.03103466 -0.074254654 0.07382621 -0.0696533
000230 87 d1 bf bd ef a2 a4 bd bf 2d eb 3c df dd a0 bc
       -0.09366136 -0.080388896 0.028708337 -0.019637046
000240 b0 7b 41 3d 2d e5 eb 3c 8f 7a 9c 3d b0 62 83 bc
       0.0472371 0.028795803 0.07640564 -0.016038269
000250 54 ed 4d 3c 42 cb 8b bd eb ce 7e 3d 76 40 f2 bc
       0.01256879 -0.06825878 0.06220905 -0.029571753
000260 bf 50 b2 bc 5a c0 a0 bc ed 21 06 bd 0c 2c 86 bd
       -0.021767018 -0.01962297 -0.032747198 -0.0655137
000270 f6 1b 93 39 71 54 28 3c f6 c1 81 3d 9c e2 26 bd
       0.00028058857 0.010274039 0.06335823 -0.040743455
000280 1c ed b8 3c 0c 48 8b bd 6a 35 39 bd ed d5 4e 3d
       0.022574 -0.06800851 -0.045216955 0.050496984
000290 4d de c9 3d 46 d9 27 bd 8f 29 19 bd a8 82 23 3e
       0.09856854 -0.040978692 -0.03739315 0.1596781
0002a0 f9 67 c7 bb 22 4b 29 3d 7f ab 3b bd 55 ca b5 3d
       -0.0060853926 0.041331418 -0.04581785 0.088764824
0002b0 02 43 0e 3b 45 ed 5f bd 56 e3 56 3d 58 5b a8 bc
       0.002170742 -0.054669637 0.0524629 -0.020551369
0002c0 3b 64 3f bd 06 59 a1 3d f4 ad be 3d 3e ba 17 bd
       -0.046726447 0.07878308 0.09310523 -0.03704285
0002d0 96 00 8a bc 63 d1 0a be 52 03 c5 39 15 22 5c 3d
       -0.016845983 -0.13556437 0.00037577242 0.05374344
0002e0 2b c4 31 bd b8 9d c6 ba ad 81 93 3d ee be d0 bb
       -0.04339997 -0.0015153205 0.07202468 -0.006370417
0002f0 c4 e9 40 bc 4e 9f 7d bd b8 fe d1 bc 9e 70 ed 3d
       -0.011774484 -0.061919503 -0.025634155 0.11593746
000300 8f a1 36 bc 8b a1 d6 bc f6 8b 78 bd c2 b1 21 bd
       -0.011146917 -0.026200077 -0.060680352 -0.039476164
000310 f4 35 0e 3d 0a d7 20 bd 97 d4 fc bc 02 3e af bc
       0.034719422 -0.039267577 -0.03086309 -0.021391872
000320 3f b7 07 bd 26 10 4e bd 43 ae 3e 3d a4 02 85 3d
       -0.03313374 -0.05030837 0.046552908 0.06494644
000330 cf 16 15 bd ea a5 4c 3d 02 06 40 3d df 4f 5e bc
       -0.036398705 0.049962915 0.04688073 -0.013568847
000340 a3 35 0b 3d fb 72 74 3d 10 a3 ae 3c 0d 65 aa bc
       0.0339867 0.059679966 0.021317989 -0.020800138
000350 0a 82 d1 bb 3e 79 d5 3c 94 64 ea bc 11 b6 b7 3d
       -0.0063936757 0.02605879 -0.028612413 0.08970273
000360 8d 8c a0 3d f0 ea 2a bd 3d 75 19 3e 2b 7e 9f bd
       0.07839308 -0.04172796 0.14986129 -0.077877365
000370 9d 95 b1 bd 73 49 74 bd a5 e9 07 be e0 f0 25 3d
       -0.086711146 -0.05964036 -0.13272722 0.04051292
000380 1a f5 f2 bc e9 5d 04 3d a4 51 20 bc f7 34 36 bd
       -0.02965789 0.032316122 -0.00978509 -0.044484105
000390 bb 77 35 bd f6 db a2 3c 0d 65 3d bd 94 e8 12 3e
       -0.044303637 0.019880276 -0.046238948 0.14346534
0003a0 f5 8f 32 bc 9f 99 9c 3c 8d 4d b2 3d 4c 12 88 bc
       -0.01089858 0.019116221 0.08706198 -0.016610287
0003b0 ca 89 89 3d 5e e8 5e 3d 60 50 fa 3c d4 6e 16 3c
       0.06715734 0.05442082 0.030555904 0.009181697
0003c0 8b da ed bb bd be e6 3c 9e 98 68 bd ba ac 5f bd
       -0.0072587184 0.028167123 -0.056786172 -0.054608084
0003d0 87 51 59 3d 33 c4 f1 3c e0 ff 1e 3d b6 f6 8e 3d
       0.053056266 0.0295125 0.03881824 0.0698065
0003e0 b1 6a da bd 51 ef b0 bc 50 63 60 3d a8 a5 05 3d
       -0.10664881 -0.02159849 0.05478221 0.032628685
0003f0 03 4b 2e bd 62 92 18 bd aa b7 a2 bc 5d 1c 44 bd
       -0.042552005 -0.037248977 -0.019862968 -0.04787861

net.0.bias f4 [256]
000000 23 84 97 3d 18 73 b6 3d 15 3f 8b 3d 69 df 44 3d
       0.0739825 0.08908671 0.06799141 0.048064623
000010 9c f1 dd 3d 1a 82 0a 3d 00 e6 a2 3d d4 84 9d 3d
       0.10837099 0.03381548 0.07954025 0.076913506
000020 17 94 1d 3d 0e 2e 93 3d 3d 17 a5 3d 54 dc 41 3d
       0.038471308 0.071865186 0.08061073 0.047329262
000030 5a 3d c3 3d 8f bc b1 3d ed 15 c0 3d 4d 00 00 3d
       0.09533186 0.08678543 0.09379182 0.031250287
000040 ed 68 02 3e 88 20 b7 3d cc 61 bd 3d ac 1c be 3d
       0.12735339 0.08941752 0.09247169 0.092828125
000050 2e 79 ec 3d 84 2c 9b 3d 24 90 61 3d c8 a2 a7 3c
       0.11546551 0.0757685 0.055069104 0.020463362
000060 7b 93 9d 3d 1e 07 a4 3d 4d ca d4 3d 38 1e dc 3d
       0.07694145 0.0800917 0.10390148 0.10747951
000070 0f 61 56 3d 49 a2 56 3d 8f ef 1c 3d 00 76 c0 3d
       0.052338656 0.05240086 0.0383144 0.09397507
000080 f0 cf b8 3d 40 1c 95 3d f9 07 65 3d 29 43 98 3d
       0.09024036 0.07280779 0.055915806 0.07434685
000090 6a 30 09 3d a1 cf 70 3d 61 7e cb 3d 75 a1 ad 3d
       0.033493437 0.05879176 0.09936214 0.08478061
0000a0 c2 2f 89 3c ab 70 8e 3d af f6 9d 3d 8a 95 ba 3d
       0.016746406 0.069550835 0.07713067 0.091105536
0000b0 8c f4 ce 3d ea 32 9b 3d c8 bb b2 3d 12 b7 b4 3d
       0.10105237 0.075780705 0.08727223 0.088239804
0000c0 d0 8c c0 3d 85 a4 85 3d aa 2c b7 3d ae 12 de 3d
       0.09401858 0.0652552 0.08944066 0.108434066
0000d0 7b f0 23 3d d0 e4 d9 3c bc 7a a0 3d 60 82 db 3d
       0.040024262 0.026598364 0.0783591 0.107182264
0000e0 0c e0 d4 3d 8d 74 97 3d 67 b7 2e 3d 4d 5c 86 3d
       0.10394296 0.07395277 0.042655375 0.06560574
0000f0 3f bc b7 3d 21 8c b4 3d 5c 0c b3 3d bc f5 71 3d
       0.08971452 0.0881579 0.08742592 0.05907224
000100 c1 54 b6 3d af f0 aa 3d ce 84 ee 3d c2 4a 8a 3d
       0.08902884 0.08346688 0.11646424 0.0675254
000110 87 4f 72 3d ca 9a d9 3d 5c 2a 99 3d dd aa ae 3d
       0.059157874 0.10625227 0.074787825 0.08528683
000120 0d e4 b3 3d 72 45 2f 3d ef f3 3a 3d c6 5e 22 3d
       0.087837316 0.042790838 0.04564279 0.039641164
000130 63 14 72 3d 66 04 80 3d b4 e9 7c 3d b7 4d 89 3d
       0.059101474 0.06250839 0.061746314 0.06704276
000140 e8 0c a5 3d ec b5 a8 3d 2d e6 cc 3d 80 4d d0 3d
       0.08059102 0.08237824 0.1000484 0.10171032
000150 7e 9f 95 3d 04 7e 3a 3d b8 3b 4b 3d 6f ab 11 3d
       0.07305811 0.045530334 0.0496175 0.035563882
000160 78 c3 50 3d f0 96 78 3d 1e 95 56 3d c9 29 4e 3d
       0.050967664 0.06069082 0.052388303 0.05033282
000170 fe 93 40 3d 9a ae e7 3c c7 f2 cb 3d bb 26 a7 3d
       0.047016136 0.028281499 0.099584155 0.08161684
000180 fb 1b c2 3c 0f ba f0 3d 93 fe ee 3d 98 f3 24 3c
       0.023694983 0.11754238 0.1166965 0.010067843
000190 d5 17 32 3d 88 dd e1 3d 58 c2 b1 3d ba e8 d3 3d
       0.04347976 0.11028582 0.08679646 0.103471234
0001a0 7d cb cf 3d af 1b 6a 3d fe 23 75 3d f9 31 5a 3d
       0.10146234 0.057155307 0.059848778 0.053270314
0001b0 ef 76 d7 3d 43 17 19 3d bc 67 8e 3d ec 06 e2 3d
       0.10520732 0.0373757 0.069533795 0.110364765
0001c0 2f 9c d6 3d 1a 3c ad 3d 31 32 95 3d 4a 28 19 3d
       0.104790084 0.08458729 0.07284964 0.03739194
0001d0 8b 62 ae 3d 5a 9f 97 3d 44 18 b6 3d ef b1 bf 3d
       0.08514889 0.07403441 0.08891347 0.0936011
0001e0 e6 8f e1 3c 85 bc b9 3d 4d 8e 6e 3d 9d 2d c2 3d
       0.027534436 0.0906916 0.058241177 0.09481356
0001f0 a5 90 bf 3d 83 fa 70 3d 18 d9 c5 3d 45 8b aa 3d
       0.09353761 0.058832657 0.09660548 0.08327345
000200 17 49 6f 3d e4 f6 cb 3d 4f 61 de 3c b7 b2 3a 3d
       0.058419313 0.099592 0.02714601 0.045580592
000210 3e 5f 89 3d 7c 86 83 3d 4e a3 2e 3d 6d 43 b2 3c
       0.06707619 0.06422135 0.04263621 0.021760667
000220 e2 4b 5b 3d 88 be e3 3d 36 61 c6 3d f1 c3 b9 3d
       0.053539164 0.11120325 0.0968651 0.09070576
000230 3e 59 a6 3d 39 f2 40 3d 36 b6 f5 3c 18 17 26 3d
       0.0812249 0.047106 0.029994112 0.040549368
000240 d8 67 c8 3d 9d 83 ad 3c 38 51 8d 3d 6b 22 6a 3d
       0.097854316 0.021180922 0.06900257 0.05716173
000250 56 31 6c 3d 4d 62 5c 3d 37 81 5a 3d 78 63 d9 3d
       0.057664238 0.053804684 0.053345885 0.10614675
000260 07 3a d4 3d 83 b4 a3 3d f0 38 b8 3d d0 29 76 3d
       0.1036263 0.07993414 0.08995235 0.06009847
000270 f3 16 b0 3d 01 92 5a 3d 10 b4 ca 3c 72 b0 19 3d
       0.08598127 0.053361896 0.024744064 0.037521787
000280 49 e3 c4 3d 70 29 a1 3d f9 44 be 3d 03 cf 87 3d
       0.09613664 0.07869232 0.09290499 0.06631281
000290 43 55 70 3d 4f 6c f0 3d b8 fd d7 3c 48 38 63 3d
       0.058675062 0.11739408 0.0263661 0.055473596
0002a0 88 54 b7 3d 51 bc a6 3d 3e 13 f5 3c 93 fa d5 3d
       0.0895167 0.08141387 0.029916402 0.10448184
0002b0 aa 9b d0 3c 7d 9f aa 3d 9c 81 63 3d e2 8b 89 3d
       0.025464851 0.08331201 0.055543527 0.06716134
0002c0 77 64 aa 3d a9 17 2c 3d b4 5c b4 3d 80 c7 0e 3d
       0.083199434 0.04201475 0.08806744 0.034858227
0002d0 6c b3 c3 3d 70 3d 9d 3d 5f 1c 14 3d 5d d9 7a 3d
       0.095557064 0.07677734 0.03615987 0.06124245
0002e0 33 8c 40 3d e7 2f c9 3d 36 81 c4 3d 45 6c 82 3d
       0.047008704 0.0982359 0.095949575 0.06368307
0002f0 71 33 c7 3d 38 76 61 3b a1 55 51 3d f9 ba 5a 3d
       0.097266085 0.003440274 0.051107053 0.053400967
000300 10 50 c2 3c 45 6c 12 3d 7e 3b a6 3d 96 35 5f 3d
       0.023719817 0.035747785 0.08116816 0.054494463
000310 c4 0c bd 3c fd 6a b3 3d 26 bb c1 3d ac d4 85 3d
       0.023077376 0.08760641 0.09459524 0.065347046
000320 6a 90 a5 3d 93 99 b8 3d 54 0e 1a 3d 68 d5 72 3d
       0.080841854 0.09013667 0.03761132 0.05928555
000330 44 eb 81 3d 6b 24 08 3d 61 93 be 3c 54 ae b3 3d
       0.063437015 0.033237856 0.023263635 0.08773485
000340 b3 07 4c 3d fe 40 aa 3d 55 2d 01 3d 02 e9 c5 3d
       0.04981203 0.083131775 0.031537373 0.09663583
000350 59 f0 51 3d 38 7e 9c 3d 10 b0 70 3d e9 a2 88 3d
       0.051254604 0.07641262 0.058761656 0.06671698
000360 2a 84 a8 3d b5 de 82 3d 6d 28 60 3d 4d 92 bd 3d
       0.08228333 0.06390134 0.054726053 0.0925642
000370 70 35 6f 3d 49 06 32 3d 6a 44 e5 3c c7 e6 98 3d
       0.05840057 0.043463025 0.027986724 0.07465892
000380 d4 39 65 3d e5 0b 3a 3d 24 e0 b8 3d 14 ae af 3c
       0.055963352 0.0454215 0.090271264 0.021445312
000390 d0 bd d5 3d 89 07 ae 3d c8 d3 bc 3d 26 31 8c 3d
       0.104365945 0.08497531 0.092200816 0.06845312
0003a0 44 8c c0 3d c5 ed cd 3c 46 3a d6 3d f4 5d a5 3d
       0.094017535 0.025137791 0.104603335 0.08074561
0003b0 8f ee f2 3c 4a 9f 9c 3d b2 ef 8a 3d f3 80 83 3d
       0.02965477 0.076475695 0.067839995 0.064210795
0003c0 de 53 97 3d b3 cc 88 3d b0 56 86 3d 55 de 8f 3d
       0.07389043 0.06679668 0.06559503 0.07024828
0003d0 4b 08 9f 3c 33 1f 02 3e e6 8f 51 3d b3 93 86 3d
       0.019413134 0.12707214 0.051162623 0.0657114
0003e0 0b bd 5f 3d 9e 90 34 3d a9 96 7e 3c 34 c7 89 3d
       0.054623645 0.04408323 0.01553885 0.06727448
0003f0 41 af 95 3d 25 fd 55 3d 89 7b e2 3d 82 14 a5 3d
       0.07308818 0.05224337 0.11058719 0.08060552

net.3.weight f4 [128, 256]
000000 42 1c b7 bd f5 9d e1 3d 99 15 71 3d 95 36 ed 3c
       -0.089409366 0.11016456 0.058858488 0.02895669
000010 8b d7 3f bd 97 e0 12 3c 60 4f d5 bd 3b de c1 bd
       -0.046836417 0.008964679 -0.1041553 -0.09466215
000020 32 af fb bd 7f bc 80 bd d5 f2 a3 bd fd c1 ac 3d
       -0.12289275 -0.06285953 -0.08005301 0.08435438
000030 6b c8 47 3d 08 2e 8f 3d 06 8f 80 3d 7d e5 8c 3d
       0.048775118 0.06991202 0.062772796 0.06879709
000040 9f 90 86 bd 42 99 67 bd 19 fe bb 3d ce 58 1f bc
       -0.06570553 -0.056542642 0.09179325 -0.0097257625
000050 61 54 45 3d 16 fc 70 3c 5f 76 1d 3c a7 22 19 3e
       0.048176173 0.0147085395 0.009610741 0.14954625
000060 49 0f 4d bc 46 81 2a bb 90 78 a7 3d 68 e0 84 bd
       -0.012515851 -0.0026016994 0.08177292 -0.064881146
000070 c3 e2 74 bd 1e 1e 2f 3d ca 65 f0 3c 9c fe 14 3d
       -0.05978657 0.04275333 0.029345412 0.036375627
000080 2f 2b 6a bd 15 2f 64 bd 5e 71 f0 bd df a2 ce 3d
       -0.05717009 -0.055708963 -0.11740373 0.10089659
000090 22 0d 08 3e 1c 6b 10 be 8d 41 0d 3c 44 68 86 bc
       0.1328626 -0.14103359 0.008621586 -0.01640714
0000a0 ca 4e e0 3c f1 7a e2 3d 8a 8d c0 3d 77 7e 04 3e
       0.02738132 0.110586055 0.094019964 0.12938868
0000b0 9a 51 b0 3b e4 76 45 3d e3 44 03 bd b2 bb 6a 3d
       0.0053808214 0.048209086 -0.032048117 0.057307906
0000c0 ef f1 94 bb d9 ac cb 3d 0b 23 9d bd c6 1b bd bd
       -0.0045454423 0.099450774 -0.076726995 -0.09233813
0000d0 47 ba ae 3d 21 3a c2 bd 14 12 ad bc c7 4c bb 3c
       0.08531623 -0.094837435 -0.021126784 0.022863759
0000e0 ff 63 83 3d f8 98 31 bd 95 fd 39 3e b2 3b 0c 3e
       0.06415557 -0.043358773 0.1816314 0.13694647
0000f0 88 52 83 bc 41 42 c8 3d af 71 38 bd 59 26 04 3c
       -0.016030565 0.09778262 -0.045030292 0.008065783
000100 1a 81 0e be f4 88 94 3d db 47 b3 bd 9c 6c 1b 3e
       -0.13916436 0.07252684 -0.0875394 0.1517815
000110 97 d1 af 3d ed 0b b7 bc 2b 27 2c 3d 0e 4e be bc
       0.08584898 -0.022344554 0.04202954 -0.023230579
000120 89 60 fa 3d f9 fb e3 bc b2 cc ee bd 3f b8 bc 3d
       0.12225444 -0.02783011 -0.11660136 0.0921483
000130 89 19 a0 bc 82 45 f6 3d 36 76 1a 3e fc 45 b5 bd
       -0.019543426 0.12024976 0.15084156 -0.08851239
000140 08 5d 4a 3d 64 d8 04 be 11 ac 88 bc 55 ec 26 bd
       0.049405128 -0.12973171 -0.01668361 -0.040752728
000150 bd 82 a1 3d 2e e4 07 bd 6f 00 d0 bc ad 1b a3 3d
       0.078862645 -0.033176593 -0.025390832 0.07964263
000160 d2 1e ea 3d 97 03 92 3c 1d 08 6a 3c cd 85 c8 bd
       0.1143166 0.017823977 0.014284161 -0.097911455
000170 f9 06 b5 b9 45 70 c7 bd 82 d8 1d bd 94 78 a6 3d
       -0.00034528205 -0.097382106 -0.038536556 0.08128467
000180 cb b5 b4 3c 61 39 ca bd ab db 3e be 1c 12 d1 bc
       0.022059342 -0.098742254 -0.18638484 -0.02552133
000190 7c 8a 03 be 61 0a 82 bd 34 34 14 3d 52 d6 ea bd
       -0.12845796 -0.06349636 0.036182597 -0.114666596
0001a0 66 5d 48 bc 23 21 8f 3d e5 81 f9 3d fe 38 38 3a
       -0.012229299 0.06988742 0.121829785 0.00070275355
0001b0 c6 8d ac bd 32 67 90 3d 1b d5 98 3c c8 d7 07 bd
       -0.08425479 0.07050933 0.018656304 -0.03316477
0001c0 3f 73 e9 3d 4b c2 d5 3d 16 db cf bd 25 c5 03 3e
       0.113989346 0.10437449 -0.10149209 0.12868173
0001d0 34 d7 8f 3d 68 ba da 3d 5a 63 2a bd dc 92 2e 3c
       0.070234686 0.106800854 -0.041598655 0.010655131
0001e0 95 ce 8b 3c 20 5f 0c be f9 bc 25 3d ba 02 81 3d
       0.01706628 -0.13708162 0.04046342 0.06299348
0001f0 82 30 04 bc d9 ba 8e 3d e8 c6 a2 3d 15 9e 88 bd
       -0.008068206 0.06969232 0.079480946 -0.06670777
000200 07 ac 99 bc 52 26 14 bb 81 a8 d7 3d de 42 c7 bc
       -0.018758787 -0.0022605848 0.105301864 -0.024323877
000210 a4 de 18 3d fd c3 95 3d 48 a4 95 3d 88 49 80 3d
       0.0373217 0.073127724 0.07306725 0.06264025
000220 56 88 90 bd ec 67 ca 3d 6b fc 47 3d af 0f 69 3c
       -0.07057254 0.09883103 0.04882471 0.014224931
000230 a9 78 15 bd c4 07 6b 3d d2 cd 24 3c 0c 2e b3 3d
       -0.036492024 0.057380453 0.010058837 0.08749017
000240 ff 78 ae bd f4 0a 1a 3d a2 8e f9 3c 2c 90 1a be
       -0.08519172 0.037608102 0.03046352 -0.1509406
000250 4e 95 76 3d 88 c9 b3 3c 7e f0 25 bd 52 fd 84 3d
       0.06020098 0.021946684 -0.040512554 0.064936295
000260 7b 89 b2 3d f5 27 c4 3d 76 7f b6 bd e0 8b 5a 3d
       0.087176286 0.09577934 -0.0891103 0.05335605
000270 90 08 86 bd 2c 24 75 3d 49 c3 ba 3d 06 c4 20 bc
       -0.06544602 0.05984895 0.09119279 -0.009812361
000280 17 37 9d 3d 1a 65 2f bc 99 4d bb 3d 26 b0 f0 3d
       0.07676523 -0.010705257 0.0914566 0.11752348
000290 d3 bd 6d bd 42 c8 23 3e 62 68 87 bd 97 99 0f 3e
       -0.05804236 0.15994361 -0.06611706 0.14023434
0002a0 e1 14 1d 3e 56 87 ae 3d ec b0 aa 3d 67 81 8a bd
       0.15339996 0.08521907 0.083345264 -0.06762963
0002b0 b1 d1 6f 3d 5d ca 9e 3d df bf 0a ba c0 ca eb bd
       0.058549587 0.077534415 -0.0005292873 -0.11513281
0002c0 d2 eb ad 3c 71 0d bd bd d9 8b 85 3d e5 76 99 3c
       0.021230612 -0.09231079 0.065208144 0.018733451
0002d0 12 8f 48 3c 3c db 4d 3d e3 91 f8 3d bd 8b bb 3d
       0.012241142 0.050257906 0.12137201 0.09157512
0002e0 91 c9 17 3e 56 5a 03 3e 4d a9 93 3d e0 5f 2c bc
       0.14822985 0.12827429 0.07210026 -0.010520905
0002f0 3c 51 64 3d cd 67 c6 bc 26 1b 57 3d 56 8a 85 3d
       0.055741534 -0.024219418 0.052516125 0.06520526
000300 46 8f e1 bc 0d 54 86 3d f9 15 a6 3d 3e 3b fd 3d
       -0.027534138 0.06559 0.0810966 0.12364815
000310 70 fd d4 ba d5 4b 08 be 05 d4 25 3d 2b e0 c3 bd
       -0.0016249847 -0.13310178 0.0404854 -0.09564241
000320 88 c0 53 3d b0 fd be 3c 55 6d 15 b9 73 12 9b bb
       0.051697284 0.023314327 -0.00014250477 -0.004732424
000330 fa f1 b2 3d da 70 d9 3d cc 20 ca bd 8c 4c 07 3d
       0.087375596 0.10617228 -0.09869537 0.033031985
000340 ad 0c fd bd 40 e4 d0 3d 97 2c b9 3c 07 21 d8 bd
       -0.12355933 0.10199785 0.02260427 -0.105531745
000350 5b ac 16 bc 0a 84 90 3d ce 79 2e 3d 67 bc 9c 3c
       -0.009196366 0.070564345 0.04259663 0.019132806
000360 7a 81 c3 bc e3 79 01 3e 27 e1 33 bd 00 64 63 3c
       -0.02386545 0.12644152 -0.043915894 0.013878822
000370 12 17 bb 3d 1e 47 29 bc bb 6f e8 3c 37 01 03 3e
       0.0913526 -0.010331897 0.02837359 0.12793432
000380 88 49 44 3d 65 f3 8c 3d a0 92 60 3d a4 5a 7e 3d
       0.047921687 0.06882361 0.054827332 0.06209816
000390 66 c1 f4 bd 38 99 0f 3d 64 f6 a3 3d 1f f0 f0 3c
       -0.1195095 0.03505823 0.0800598 0.029411374
0003a0 0d 13 97 3d dd c3 6b 3d 29 02 10 3e ae a4 44 bd
       0.073766805 0.057559837 0.14063324 -0.048008613
0003b0 bf 66 9c 3b 51 88 e1 3d 1a 3a 19 3d 19 da e4 bd
       0.0047729905 0.110123284 0.037408926 -0.11174411
0003c0 64 80 09 3e 60 b2 4c 3d 08 18 dc 3c cb 19 3b 3d
       0.13427883 0.0499748 0.026866928 0.045678895
0003d0 65 69 6c 3c 31 eb 23 3d b3 96 cd bd 19 4d 38 3d
       0.014429425 0.040019218 -0.10038509 0.0449954
0003e0 df 7a 15 3d c5 85 85 3d 78 9e ba bc 6a e1 e6 3b
       0.036494132 0.06519655 -0.022780642 0.0070459144
0003f0 47 b1 30 3e 68 4d 8b bd 8c 7f 0b 3e 1c 5b f4 bd
       0.17255126 -0.068018734 0.13622874 -0.1193144

net.3.bias f4 [128]
000000 17 43 ca 3d e6 77 6c 3d fb dd 43 3d 7c d0 b6 3d
       0.098760776 0.05773153 0.04781912 0.08926484
000010 25 1e d2 3d 37 ff 16 3d 39 bb 98 3d f6 52 bc 3d
       0.10259656 0.036864486 0.07457585 0.09195511
000020 f0 92 44 3d c2 32 b6 3d 52 6b 86 3d 97 7d cb 3c
       0.047991693 0.088964 0.065634385 0.02484016
000030 0d 48 4a 3c 28 16 16 3c 9f 0c 22 bc b9 f8 78 3d
       0.01234628 0.009160556 -0.009890704 0.060784075
000040 4a ca 19 3d 29 ea 79 3d 1d d9 80 3d 73 c9 0e 3d
       0.037546434 0.06101433 0.06291411 0.034860086
000050 b0 a2 9f 3d b1 d6 a5 3d 8c 4c cb bb 57 c7 a1 3d
       0.07794702 0.0809759 -0.0062041935 0.07899349
000060 03 c5 bf 3d 26 d0 1a 3b fb bd 4f 3c 72 25 c5 3d
       0.09363749 0.0023622601 0.012679572 0.09626283
000070 5c 1e 24 3d 53 4e 8c bb 07 0a 2f 3d a5 05 d0 3b
       0.040068015 -0.004281798 0.042734172 0.006348329
000080 d5 ef b7 3c fe 2f a6 3c 2f 1e 75 3d 04 6c 77 3d
       0.022453228 0.020286556 0.05984324 0.060405746
000090 2c 8d 21 3b 1c 9b 07 3d 9b c1 d6 3c 4a 23 37 bc
       0.0024650795 0.03310691 0.026215365 -0.011177847
0000a0 23 d0 9c 3d 06 f9 35 3d ba c4 d7 ba 19 ae 89 3d
       0.076568864 0.04442694 -0.0016461827 0.067226596
0000b0 68 96 3a bb f2 ab 1e 3d 73 ee ff 3d 27 fe 98 3d
       -0.0028470997 0.0387382 0.124966525 0.07470351
0000c0 3f 0b c2 bc c9 3c d4 3d 1a e9 f9 bb c1 25 f1 3b
       -0.023687003 0.10363156 -0.007626665 0.007359237
0000d0 ce c5 e7 bc ef 64 6a bc 1e b2 3d 3d 41 ba a8 3d
       -0.028292563 -0.014306291 0.046312444 0.0823865
0000e0 e6 97 07 bc 6c 29 82 3d a2 d2 86 3d cc 1a 19 3d
       -0.0082759615 0.06355557 0.06583144 0.03737907
0000f0 ca db 84 3d b4 b9 13 bc f5 ac 99 ba a0 b3 be 3d
       0.06487234 -0.009016443 -0.0011724519 0.093116045
000100 a9 53 b1 3d 22 84 ab 3d 38 e5 a2 3d c2 a7 5b 3d
       0.08658535 0.08374812 0.07953876 0.053626783
000110 fe 87 aa 3d 15 cd 56 bb 7e 1d d8 3c 91 cc 4e 3c
       0.0832672 -0.0032776047 0.02638125 0.012622015
000120 b5 ab 89 3c ec bb 13 3d d7 df 91 bc 35 db a4 3d
       0.01680551 0.03606789 -0.01780693 0.08049623
000130 cf f7 34 3d 11 f5 c7 3d 74 08 94 3d 9e 25 22 3d
       0.04418164 0.097635396 0.07228175 0.039586656
000140 11 ec 24 3d 32 24 2d 3d bd 8c a5 3c 2d 5d 3f 3d
       0.040264193 0.042270847 0.02020871 0.04671972
000150 e7 5f 00 3c 0d 30 4a 3d ea 92 d2 3b 5f 2c 65 bc
       0.007835365 0.04936223 0.006426205 -0.01398763
000160 f6 7f c6 3d ab d1 14 3d aa a2 8b 3c 9a 20 2f bc
       0.09692375 0.036332767 0.017045338 -0.010688925
000170 96 50 b4 3c 02 85 2d 3d 91 11 9e 3d c7 e4 87 3d
       0.022011083 0.042363174 0.07718194 0.06635433
000180 43 eb 75 3d 1c 02 c5 3d 6a ed 6e bb 24 5f 60 3d
       0.060038816 0.09619543 -0.0036457428 0.054778233
000190 5b 81 fc b9 5a bd 86 3d d8 61 81 3d a4 a9 13 3d
       -0.00048161563 0.06579085 0.0631749 0.036050454
0001a0 db a3 96 bc 32 f6 f3 3a 9d fc 91 3d 35 b4 46 3d
       -0.01838868 0.0018612801 0.0712826 0.048511703
0001b0 37 d3 8f 3d 38 63 c0 bc 7f 65 73 3d 22 4e 63 3d
       0.07022708 -0.023484811 0.059422966 0.055494435
0001c0 3b 45 9f 3d 5c 77 fd 3c 6c 58 af 3d b6 f3 e7 3c
       0.077768765 0.030940704 0.08561787 0.028314453
0001d0 36 49 ac 3d 25 86 7d 3d 06 14 69 3d cf 58 11 3d
       0.084124014 0.06189551 0.05690386 0.035485085
0001e0 21 7a 88 3d 10 ba 93 3c a9 20 9e 3c 28 45 cb 3c
       0.06663919 0.018033057 0.019302683 0.02481325
0001f0 60 2f 59 3d 07 1b 98 3d 1a 19 96 bc 16 e4 e5 3b
       0.053023696 0.0742703 -0.018322516 0.0070157154

net.6.weight f4 [64, 128]
000000 1c 9f af 3d 02 e6 80 bd ce 1c c4 3d 30 d8 34 3d
       0.085752696 -0.062938705 0.095758066 0.044151485
000010 b4 87 2d bc f2 b4 00 3e 96 69 45 bd 2a 88 0b 3e
       -0.010591436 0.12569025 -0.048196398 0.13626161
000020 0b 3f ad bd ea ca 8d 3d 30 4f de bc 9d 1b a7 3d
       -0.0845929 0.069234684 -0.027137369 0.08159564
000030 4b e7 bb 3d 8b b4 97 bd 2d 56 a0 bd e0 3d 83 3d
       0.09174975 -0.07407483 -0.07828937 0.06408286
000040 7f bc 88 3d df 42 d3 3c 06 18 a6 bc 2d 93 d5 3d
       0.06676578 0.025788723 -0.020275127 0.10428462
000050 19 90 89 3d 19 e7 34 bc 1a c1 4c 3c 14 de 54 3c
       0.067169376 -0.011041426 0.012497211 0.012992401
000060 1c 38 a3 3d d6 80 4d 3c 71 46 77 bd 5b 43 2e 3d
       0.079696864 0.012542924 -0.060369913 0.042544704
000070 e9 8d aa 3d 51 73 28 3e f9 a4 2c 3e 08 c9 bf bc
       0.083278485 0.1645024 0.16859807 -0.023411289
000080 85 90 72 bd 73 44 21 3c c7 e5 52 3d e9 46 f3 bd
       -0.059219856 0.00984298 0.051488664 -0.118787594
000090 12 ce 8a bb b5 9b 57 3d 59 bd dd bc e1 1d 36 3d
       -0.0042359913 0.05263873 -0.027067827 0.04446209
0000a0 ba 43 a9 3d 0c f1 9a 3a ff 93 c0 3d d7 0e 55 bc
       0.08264871 0.0011821105 0.09403228 -0.013004026
0000b0 21 08 fc bd 93 ef 53 3d 0f ce 05 3e d3 f9 db bd
       -0.12306238 0.051742148 0.13066886 -0.107410096
0000c0 7a d8 d2 3c ed 22 ed bd 8f ce 5f bd d5 e3 8c bd
       0.02573799 -0.11578927 -0.05464035 -0.06879393
0000d0 01 99 84 bd 61 5a 55 bd 55 e3 2c 3d d3 b5 88 3d
       -0.06474496 -0.052088145 0.04220899 0.06675305
0000e0 27 2f 12 3d 5c 8e df 3d bf 66 36 3d dc 41 05 3e
       0.0356895 0.10915825 0.04453158 0.13013405
0000f0 f3 57 95 3d c0 49 a9 3c 1c 01 70 3c c1 ad 11 bc
       0.072921656 0.02066505 0.014648702 -0.008891524
000100 96 a4 74 bd 1b 49 3f 3c fc 88 e3 3c 35 6b 01 3d
       -0.059727274 0.011675145 0.02777528 0.03159638
000110 a4 48 82 3d d2 19 a0 3d 27 fd 79 3d be f2 e7 bc
       0.06361511 0.07817425 0.06103244 -0.02831399
000120 3f c5 d1 3d ea 28 2c 3c 43 67 05 bd 2f 02 50 3d
       0.102427 0.010507802 -0.03256918 0.050783332
000130 bf 64 94 3c 47 d2 da bd de aa 7a 3c fe fb 10 3d
       0.018114446 -0.106846385 0.015299527 0.03539657
000140 c9 26 3b 3d 6b 35 91 3d d0 87 16 bd 5d 99 8e 3c
       0.045691285 0.07090267 -0.036750615 0.017407114
000150 74 3a e3 3d 0c 82 d9 3d 7e 11 39 bc a7 96 a1 3d
       0.110951334 0.106205076 -0.011295674 0.07890063
000160 47 66 ec bc 08 b4 49 bd 97 7b 4a bd ef 1c a0 bc
       -0.028857363 -0.049243957 -0.04943427 -0.019545047
000170 f4 74 b1 bd df ee 8a 3d d8 ed 90 bd 5a 2e ba bd
       -0.08664885 0.06783842 -0.07076615 -0.09090872
000180 60 99 e0 3d 36 ba ea 3d 30 e2 68 81 97 17 02 bd
       0.10966754 0.11461298 -4.2773952e-38 -0.03176078
000190 e1 a7 59 bd aa 32 ce bc 01 ff 5d bc 21 1a 92 3d
       -0.053138617 -0.025170643 -0.013549567 0.0713389
0001a0 ea 0a d0 bc c7 de fe bb d5 d8 02 3d 72 9b 13 3d
       -0.02539583 -0.007778022 0.03194507 0.036036916
0001b0 c1 5c d2 3c 10 90 2b 3e 8b 9d 7f 3d 89 a6 82 3d
       0.025678994 0.16754174 0.062406104 0.0637942
0001c0 37 6d 04 3e 3e 4f 8c 3d 7c 15 02 3e 3f 7c 85 3c
       0.12932287 0.06851052 0.12703508 0.016294597
0001d0 05 d9 73 3d 3f 3a 87 3d b2 b0 8d 3d f5 72 ad 3b
       0.059533138 0.066029064 0.069184676 0.005293245
0001e0 80 f8 b6 3d 72 06 4b 3d ba a6 11 bd d8 8c 06 3e
       0.08934116 0.049566694 -0.035559393 0.13139665
0001f0 32 d7 9d bd 40 85 69 3d 50 6e 82 bc ff fb cf bc
       -0.07707061 0.057011843 -0.015921742 -0.025388716
000200 99 3e 0d 3e 09 32 ce bc d5 df a1 3c 05 4d a4 bc
       0.1379341 -0.025170343 0.019760052 -0.020056257
000210 b9 d2 63 3d 0c 88 5e 3d 77 07 84 3d 0c 89 f9 bc
       0.055620883 0.054328963 0.06446736 -0.030460857
000220 6a 2a 6a bc af cf b3 3c ac 36 4c bd db 05 ff 3c
       -0.014292339 0.021949617 -0.049856827 0.031130722
000230 36 df 72 bd 66 28 54 bd 95 27 9a 3a e0 fb 01 3d
       -0.0592949 -0.05179634 0.0011761064 0.031734347
000240 b3 59 57 bc 44 da c6 3d 39 73 ad bc 1d a5 df ba
       -0.013143945 0.097095996 -0.021173107 -0.0017062757
000250 10 e5 c2 3b 37 2a 2c bd 74 74 e2 3d 75 6e cf 3d
       0.0059477165 -0.042032447 0.11057368 0.1012849
000260 3e 6d fd 3d 79 c2 1f be c5 2a ba 3d 96 33 11 bc
       0.12374352 -0.15601529 0.09090189 -0.008862397
000270 b7 3f 83 bd 65 92 94 3d e6 4a 8a bd 6a 68 23 3d
       -0.06408637 0.07254485 -0.06752567 0.0398945
000280 ee cd 1b bd 90 68 85 bd 4e 0b 87 bc 51 63 2a 3e
       -0.038038187 -0.06514084 -0.016484883 0.16639449
000290 89 c6 75 3d 71 8d f7 bb 79 84 d7 bd bd d0 5b bd
       0.06000379 -0.007554703 -0.10523314 -0.053665865
0002a0 17 40 7f bd 71 01 8f bd ee 2f bf 3d 06 c6 3c 3d
       -0.06231698 -0.06982697 0.09335314 0.046087287
0002b0 87 69 50 3d 8d 11 4c 3d 06 67 fd 3d db ee ef 3d
       0.05088189 0.049821425 0.12373166 0.1171548
0002c0 ef f2 b1 3d 59 30 bb 3c 06 47 2f 3d 6c b0 f7 bd
       0.08688914 0.022850202 0.042792343 -0.12094197
0002d0 51 59 d0 3d c5 91 3b 3e 0a b4 e1 bd 91 b4 f5 3d
       0.10173286 0.18317325 -0.11020668 0.11997331
0002e0 d1 1a e1 3c 31 17 56 3b e1 0f ab 3c d3 d4 c6 bd
       0.027478607 0.0032667632 0.020881595 -0.09708562
0002f0 b6 3c d3 bd a3 e2 04 be 99 98 44 3d 5b 30 b4 3d
       -0.10314314 -0.1297708 0.04799709 0.087982856
000300 17 67 55 3d 52 ee 22 be fe 84 3a 3c fe 94 d0 3d
       0.052100267 -0.15911224 0.011384247 0.10184668
000310 59 64 2e bd ab b1 f7 3d 8f f7 96 bd 84 ea 7b bc
       -0.042576168 0.12094434 -0.07371437 -0.015375737
000320 65 a2 bd 3d f5 09 c5 bd f6 c7 8e 3d 33 e3 38 bd
       0.0925949 -0.0962104 0.06971733 -0.04513855
000330 da de 38 3c c5 fb 5b 3d 5d 92 99 bd cd 02 3b 3e
       0.011283601 0.053706903 -0.0749862 0.18262787
000340 94 05 97 3d b3 fc cc 3d 3c 09 a4 3c 25 6b f4 3d
       0.07374111 0.10009136 0.020023935 0.11934499
000350 88 f8 04 3c 6e 6a 84 3d 92 1f 7a 3c 85 6c 93 3c
       0.008115895 0.06465612 0.015266316 0.017996082
000360 03 ee bf bd fc c3 00 3d dc 6e 8d 3d 28 e9 15 3b
       -0.09371569 0.031436905 0.069059104 0.0022874568
000370 cf fa 1e 3e 91 6f e0 3d 08 87 44 3d 8d 01 17 3e
       0.15525363 0.109587796 0.04798034 0.14746685
000380 7a 4d ad bd 28 33 1d 3d 0d 4b 67 a0 a1 b3 31 be
       -0.08462043 0.038378865 -1.9591293e-19 -0.17353679
000390 2c 03 b5 3d b1 af cc 3d 52 70 fd 3d 21 de e1 3d
       0.088384956 0.09994448 0.12374939 0.11028696
0003a0 72 59 ba 3d aa 7d 08 3e e6 12 bb 3d ce ab 2d bd
       0.090990916 0.13329187 0.09134464 -0.042400174
0003b0 23 93 2e 3e 38 b6 b3 bc 84 2f 1f be c4 ac 07 3e
       0.17048316 -0.021937475 -0.1554547 0.13249499
0003c0 68 2b 09 3e 1a 16 60 3d 82 7c 72 3c c1 7e c0 3d
       0.13395464 0.054708578 0.014800193 0.093991764
0003d0 80 3d c5 3d 69 15 b2 bd 8a 75 c8 bc c2 13 22 3e
       0.09630871 -0.0869549 -0.02447011 0.1582785
0003e0 75 86 cd 3c 8b 6f 02 3c 9c 8c 94 3c e4 af 4d 3d
       0.025088528 0.007961164 0.018133454 0.05021657
0003f0 68 77 8a bd fd 9a 5e 3d 2c fd 17 bd 73 e9 ea ba
       -0.06761056 0.054347027 -0.037106678 -0.0017922356

net.6.bias f4 [64]
000000 e9 bb 14 bc 80 1a 77 3d 79 12 09 3e 0a f2 9b ba
       -0.009078004 0.060328007 0.13385953 -0.0011897695
000010 5e 08 ef 3d f5 60 a0 3d de 00 b5 3d 23 6c de ba
       0.11671518 0.07830993 0.08838056 -0.0016969483
000020 ed 6a dd bb be d7 40 3d 2f 92 6c 3d 9c 7f 99 3d
       -0.0067571313 0.047080748 0.0577566 0.07495043
000030 0a 1c 61 3c 84 ba 1e bc 40 7d 3f 3c e0 75 08 3e
       0.013739595 -0.0096880235 0.011687577 0.13326216
000040 7d dd bf 3d 1e b3 75 bc 66 b8 29 3c 7d 94 95 3d
       0.093684174 -0.014996318 0.010358905 0.073037125
000050 50 6e 81 3d b4 ca 74 3d 49 79 a0 3c 0b 1c 4e 3d
       0.063198686 0.059763625 0.019589083 0.050319713
000060 8e a7 b2 3d f4 76 0e 3d f7 27 ae 3d a2 2c 3b 3d
       0.08723365 0.03478141 0.085037164 0.045696862
000070 15 00 6e 3d e5 3b 77 3d a8 29 9e 3d 3f a7 b6 3d
       0.058105547 0.060359854 0.07722789 0.089186184
000080 1a 43 df bc 82 7a a0 3d 94 b7 68 bd cc a6 b8 3d
       -0.027253676 0.078358665 -0.0568157 0.09016189
000090 1b f5 b5 3c 60 16 6d 3d 5c 01 89 3d 4c 15 f5 3c
       0.022211602 0.057882667 0.066897124 0.029917382
0000a0 8e 01 f2 3d 9a d5 d4 3d 02 f8 28 3c 69 56 9a 3d
       0.11816703 0.10392304 0.010313036 0.07536013
0000b0 3f 79 94 3d 8b ab 9b 3d 3f bc 3d 3c 16 55 02 3e
       0.07249688 0.076010786 0.011580526 0.1272777
0000c0 8f 48 b7 3d de 65 bc 3d 8e 86 30 bd 7f a9 08 bd
       0.08949386 0.09199117 -0.04309707 -0.03336477
0000d0 b2 6f 3b 3d ce ae 80 3d a2 5e 61 bd 58 d7 ce 3d
       0.045760818 0.06283341 -0.05502189 0.10099667
0000e0 6e e7 af 3d 89 12 a8 3d b8 ef 8b bc 82 62 47 bd
       0.085890636 0.0820666 -0.01708208 -0.04867793
0000f0 48 0e cb bc d6 7a 81 3c 29 05 c2 bc 44 fe 22 3d
       -0.024787083 0.015805643 -0.023684101 0.039793268

net.8.weight f4 [20, 64]
000000 2c dd db 3d 2a 5b 0e be 24 a7 0c be 2f 44 43 be
       0.107355446 -0.13901964 -0.13735634 -0.19068979
000010 48 e3 48 be d2 3f 7f 3d 5c 1a 0f 3e 4d bb 03 be
       -0.19617951 0.062316723 0.13974899 -0.12864418
000020 45 41 c2 bd a4 15 1f 3e c8 fe 7d 3c d7 50 4b 3b
       -0.094851054 0.15535599 0.015502639 0.0031023526
000030 91 83 43 be 4f 9f 0c be 67 17 b4 bd ff 3f 44 3c
       -0.19093157 -0.13732646 -0.08793526 0.0119781485
000040 f9 8f 16 be a5 88 32 3e 80 4b d8 39 b9 a5 7e be
       -0.14703359 0.17434938 0.00041254982 -0.24867906
000050 0a be 9a 3d 4e e5 d6 bd 64 23 3b 3d 15 7f 5a bd
       0.07555778 -0.10492955 0.045688048 -0.05334385
000060 51 c0 3e be a7 72 c3 3d ab dc b8 3d 9a 55 f8 3d
       -0.1862805 0.095433526 0.09026464 0.12125702
000070 ac 50 47 be 2d e6 85 be 8c 30 1f be 6c 19 92 bd
       -0.19464368 -0.26152173 -0.15545863 -0.07133755
000080 f7 aa 3d 3c 25 37 3a 3e 67 21 20 be 73 07 6f be
       0.011576406 0.18185098 -0.15637742 -0.23342685
000090 01 e2 ae bd de 49 39 3e ad bb fc 3d 26 70 b5 3c
       -0.085392006 0.18094584 0.12340484 0.022148203
0000a0 b8 b2 83 be 8b e0 dc 3d d9 87 01 3e 57 e7 1e 3e
       -0.2572229 0.10785016 0.12649478 0.15517937
0000b0 a1 7b 2f 3e ae 27 84 be 8a 35 54 3d 20 15 d1 bd
       0.17137004 -0.25811523 0.05180887 -0.102091074
0000c0 2c 95 0c 3e fb 83 ba bd 59 39 0c bd f1 d6 99 3d
       0.1372878 -0.091072045 -0.03423438 0.075117
0000d0 c0 5b b9 3d 88 00 70 3d 0b 91 93 3c a8 08 2f 3e
       0.09050703 0.058594257 0.018013498 0.17093146
0000e0 dd 81 31 be e0 23 de bd d6 86 93 3c cc 40 fc bd
       -0.17334695 -0.10846686 0.01800863 -0.123170465
0000f0 6b 7d 42 3d 8e 52 24 3e 52 dd 24 3e 96 68 fa bd
       0.04748289 0.16047117 0.16100052 -0.122269794
000100 22 0d 07 be 12 24 31 be c1 db 08 3e fc 5d 3a 3e
       -0.13188604 -0.17298916 0.1336508 0.18199915
000110 58 45 2e 3e cb 13 01 be 39 68 50 be 9d 17 11 be
       0.1701864 -0.12605207 -0.20352258 -0.14169164
000120 d9 52 de bb fa 51 73 be c7 bc 52 be 8c 5f 9c 3c
       -0.0067847786 -0.2376174 -0.20579825 0.019088529
000130 e7 18 42 3d ce 9e 11 3c e1 99 3d be 73 02 16 3e
       0.04738703 0.00888796 -0.18515731 0.14649372
000140 a1 a0 1a be b5 19 2e bd 17 db 54 bd 14 c6 7f bb
       -0.15100338 -0.042504985 -0.051966753 -0.0039027976
000150 f8 1e 1d be b4 85 23 be f6 3f c0 bd 73 8a 1d be
       -0.15343845 -0.15968972 -0.093871996 -0.15384845
000160 b9 7c 00 bc 74 14 25 be 51 96 1a 3e 4a 57 1b 3d
       -0.007842236 -0.16121083 0.15096404 0.037925042
000170 bb 76 aa bd f4 49 54 be 5e 8d cd bd 2c 28 16 be
       -0.08323427 -0.20731336 -0.10036729 -0.14663762
000180 4f fd 3a 3c ac 94 f6 3d c6 ee 3f be 1e 10 f0 3d
       0.011412933 0.12040076 -0.18743429 0.11721824
000190 ef 96 a9 bc 9e 73 33 be d8 52 13 3e f1 62 3b 3e
       -0.020701854 -0.17524573 0.14387071 0.18299462
0001a0 4f f7 29 3e 77 40 2f be 7d b2 4c be 39 e1 94 bd
       0.16598247 -0.17114435 -0.19989963 -0.0726952
0001b0 a1 64 0f 3e ee a3 29 3e 2b 39 4f 3e 97 e7 2b 3e
       0.1400323 0.1656644 0.20236652 0.16787563
0001c0 46 c9 50 be 0c c1 83 be 41 ca 44 be 25 f8 0a be
       -0.2038928 -0.2573322 -0.19217779 -0.13571222
0001d0 b2 09 a7 3d 0f 1a 3b 3e 47 49 25 3b d2 ee 6c be
       0.08156146 0.1827166 0.0025220679 -0.23137978
0001e0 13 b5 31 be 21 24 e7 3d 11 dc 8a bd e2 38 59 bd
       -0.1735423 0.11286188 -0.067802556 -0.053032763
0001f0 8a 7d 53 be aa a8 f3 3d 0c ce 78 bd 9d 5e f5 3c
       -0.20653358 0.118974045 -0.060743377 0.029952342
000200 78 f1 22 3e b9 d1 20 3e 9c 7b d7 3d b6 1b 3c be
       0.15912426 0.15705003 0.105216235 -0.18369946
000210 4e 37 86 be d1 b4 b3 3c 53 e2 d1 bd 6e bd 0d 3e
       -0.2621407 0.021936806 -0.10248246 0.13841793
000220 a1 77 d0 3d 48 4c 15 3e 00 c6 4e be 24 09 f3 3d
       0.101790674 0.1457988 -0.20192719 0.11866978
000230 66 8b 18 3e 65 f1 70 3d e3 4c 30 be 22 32 ea 3d
       0.14896926 0.05882396 -0.1721683 0.11435343
000240 07 ab 4b 3d 0b 07 25 bd c9 12 b1 3d 94 ca 89 bd
       0.04972365 -0.04028992 0.08646161 -0.06728092
000250 cc d9 d7 3c cf 15 97 3d 6c 58 c6 bd 08 37 10 3e
       0.02634897 0.073772065 -0.09684834 0.14083493
000260 d8 c3 fe 3d df f3 16 be 2e 40 51 be d5 ed 59 be
       0.12439698 -0.14741467 -0.20434639 -0.21282132
000270 4c e3 64 bd 2a a3 53 bd dd 2a 00 be aa 2a 66 be
       -0.05588083 -0.051669277 -0.12516351 -0.22477213
000280 c9 84 86 be fd b5 a3 be af 49 44 be 5e b1 4b be
       -0.26273182 -0.31974784 -0.19168733 -0.19891879
000290 0b b2 47 3d bd 13 37 be ed b5 11 3e fd 35 7d be
       0.04875378 -0.17878623 0.14229555 -0.24727626
0002a0 53 c5 64 be 63 07 12 3e a7 60 8e b9 35 5d 78 3d
       -0.22340898 0.1426063 -0.00027156362 0.060635764
0002b0 77 0f 6b be 6e a6 30 be f3 af 27 be f1 fa 80 3d
       -0.22955118 -0.17250988 -0.16375713 0.06297863
0002c0 ad 91 5e be 9c 94 10 bd 8a 2b 21 3e e0 77 80 3d
       -0.21735258 -0.035297975 0.15739265 0.06272864
0002d0 c1 39 e0 3c 27 de a8 3d 91 17 01 be 04 df f0 bd
       0.02737129 0.08245497 -0.12606646 -0.11761287
0002e0 c5 e1 0b be 24 5f 44 3c 3c 52 73 bc 9b 37 5d be
       -0.13660343 0.011985574 -0.014851149 -0.21603243
0002f0 1f d2 50 3e b4 1c fa 3c 17 a7 1b be ff 27 44 bd
       0.20392655 0.030531265 -0.15200458 -0.047889706
000300 44 3d 7c bd 42 60 b2 bd 4b 32 c4 3c 5b 43 ce 3b
       -0.061581865 -0.08709766 0.023949763 0.0062946505
000310 bb 97 24 bd cd 50 4b 3e ba 31 28 be ac e8 01 bd
       -0.040183764 0.19855042 -0.16425219 -0.031716034
000320 2d 39 2e 3e fa 16 57 be c8 a0 a0 3d aa 72 bc 3d
       0.17013998 -0.21004859 0.078431666 0.09201558
000330 08 bc 4e ba 02 34 51 3e 30 d4 46 bd a2 04 5f bc
       -0.0007886295 0.20429996 -0.0485422 -0.013611944
000340 35 92 38 3e 79 27 85 bd 08 f8 0d be 71 e7 61 3d
       0.18024524 -0.065016694 -0.13864148 0.05515236
000350 c1 b9 1f be 63 c2 67 be ba 72 20 bc af 03 76 be
       -0.15598203 -0.22632746 -0.009792978 -0.24024843
000360 58 f8 0d 3e 9b 27 bd 3d 43 12 66 be 79 37 15 bd
       0.13864267 0.0923607 -0.22467904 -0.036429856
000370 23 e1 2e be 61 cc d4 3d fa eb 15 be 7b 3e b2 bd
       -0.1707807 0.10390545 -0.14640799 -0.087033235
000380 16 3f 1c 3d ac 6c c7 3d a6 af 86 3b fb a8 92 3d
       0.0381461 0.097375244 0.0041102944 0.07161137
000390 6e b6 01 3e 4d 3f ca bd 44 91 b5 3d 15 3e fd 3d
       0.12667248 -0.09875355 0.08865598 0.12365357
0003a0 ae 40 d6 3d ba 22 83 be c6 77 71 bd d3 76 53 3c
       0.104615554 -0.25612432 -0.058952115 0.012906748
0003b0 2e 2c 2f 3d 15 5f 2a 3d 38 9a 2f bb 26 1b d6 3d
       0.042766742 0.041594584 -0.0026794802 0.10454397
0003c0 5d bf dc 3d a8 12 8c bd 7c 43 0d 3e 2e 02 f7 bd
       0.10778687 -0.06839496 0.13795274 -0.120609626
0003d0 52 1d a0 3d 46 85 6e be b2 d4 2c 3c 6d ee 25 be
       0.078180924 -0.23293027 0.010548757 -0.16204233
0003e0 90 aa 56 3e d1 ff da bd 96 97 17 bd f4 26 dd 3d
       0.20963502 -0.10693324 -0.037009798 0.10798445
0003f0 6b 1b b3 bd 6b 73 6f be c7 1e 43 bd 61 e4 37 bd
       -0.08745464 -0.23383872 -0.047636773 -0.044895533

net.8.bias f4 [20]
000000 87 54 93 3c 4e 32 20 bd fa a9 e9 3d 94 1c d6 3d
       0.017984642 -0.039110474 0.114093736 0.104546696
000010 f1 92 0a bc 61 9b 76 bd 91 af b4 bd 43 28 1c bd
       -0.008457885 -0.060206775 -0.08822549 -0.038124334
000020 64 6d 00 3e b2 9d 82 bd c4 d3 90 bc df 36 21 3d
       0.12541729 -0.06377734 -0.017679103 0.03935897
000030 07 85 91 3d 40 b9 89 bd 21 c6 5c 3d 39 08 e4 3c
       0.07105451 -0.06724787 0.053899888 0.027835952
000040 0a ad 37 3c 4c 31 87 bd 5a c3 8c 3d bf 38 05 bc
       0.011210689 -0.066011995 0.06873198 -0.008131205
